2layer_test/bias2.npy (npy, 2176 bytes, 1 tensors)

array f8 [1, 256]
-2.682955593074719e-18 -3.5589231379322375e-18 -8.144703742807783e-18 6.41809952443696e-18 1.1959114810252196e-17 1.203359252166998e-17 1.8447512789359838e-17 -1.1717478110658528e-18
3.575879964676087e-18 -1.118853200958379e-17 -3.766508154596697e-18 -3.0072268238417658e-18 -4.558568303192169e-20 -1.11530903825457e-17 7.522608966888322e-18 -1.108971171411877e-17
1.7339747502619825e-18 1.3270864072511939e-17 -1.0141885366485733e-17 -3.203295362496917e-18 -2.830630628458797e-19 -2.137919613287328e-18 1.3191976782069874e-18 -7.076002858787446e-19
2.07595493774875e-18 -1.1154158122915252e-17 -6.325491263065277e-18 -1.0564418013789872e-17 1.5893578560945112e-18 6.976721164065362e-18 -2.1830363606515608e-18 -5.2548177587104636e-18
-5.839883332504662e-18 -8.016661544472476e-19 5.03911492204964e-18 1.2341290866282909e-18 -1.0802921251896573e-17 4.209739011046906e-18 -1.4194029853805283e-18 1.8334042173467102e-19
7.029202121350183e-18 -6.8312245954364546e-18 -1.9748246884224334e-17 -1.8959180470571713e-18 1.2004717585748281e-17 7.495831948484592e-20 -1.068682239849244e-17 1.722691961374779e-18
6.525102491396991e-20 1.0796989776144918e-17 -4.8699327377579214e-18 2.8480161063872404e-19 -1.2903993178262733e-17 -5.248231975390406e-18 -2.9130022889884517e-18 4.060322072750469e-18
2.4035959726282642e-18 1.3100282931764997e-17 -2.7685160462377984e-18 -1.6632054126656151e-18 7.576030109827734e-18 -6.268077630627821e-18 -6.85200393482879e-18 -7.928916381339358e-19
-7.597789084259081e-18 2.7705638509591683e-18 -5.488366361297703e-19 4.017987668782545e-18 7.333546213578728e-18 4.4950589241254415e-18 1.4388165595801746e-18 -4.887697926212349e-18
-4.2418015514250274e-18 -4.724124486011074e-18 3.2969418537043192e-18 7.222517982523536e-18 2.388215930488575e-18 -1.481586160989513e-17 -5.9428659516346666e-18 -2.5919839606421104e-18
-5.029317856332728e-18 -8.161516881268106e-19 4.5090536892416026e-18 6.527513923999873e-18 -1.4645131049396346e-18 -7.744003086179847e-19 -9.158589121327988e-18 -6.2128139612517855e-18
-1.0214226550366354e-17 -3.778948481924256e-18 -9.94899946720366e-18 1.7287949894433493e-18 7.309191108915285e-18 2.6801172601157758e-18 -1.0920449635939803e-17 -9.305265346505651e-18
-7.601064866382531e-18 1.552013297117542e-17 9.540693314709835e-19 -1.2761929341389935e-18 -8.541827311365189e-19 3.3171320817826175e-18 -1.3111966460197046e-17 -1.3283486829806946e-18
3.3453612088748286e-18 2.1126417348248874e-20 -5.498720385133278e-20 3.1675933178345762e-18 2.9410400192470087e-18 1.738854166015699e-18 -4.99058795462245e-18 -1.9615838280865795e-18
2.3429491112486116e-19 9.610807121416053e-18 1.6854091223045226e-18 7.331839928883087e-19 -1.3717231285249461e-17 2.358464151609111e-18 -5.8520122115318165e-18 4.507054975932748e-18
-7.832668994605404e-18 1.0392575635563677e-17 -1.3488820303560412e-17 1.6176315601522878e-18 -2.7534007370211188e-18 7.398197488106133e-18 -9.025566677454949e-18 -2.5360632870224713e-17
3.588757436282361e-18 2.044200898706926e-18 2.8525626876784664e-18 5.891992830858436e-18 -1.0051360500453637e-17 5.10721749483886e-18 -4.339541248410854e-18 3.365486776566643e-18
-3.3068383864878408e-18 9.424738484549041e-18 -1.2357532902266354e-18 3.622221655653102e-18 4.445853678216969e-18 3.671381962390777e-18 -4.443747931253419e-18 2.523502907578008e-18
-1.0327170468825982e-18 -1.1082367751770995e-17 2.9687809654322904e-18 1.5282959479891247e-17 -8.04041535058154e-18 1.4731927196216206e-17 -6.589243714750914e-18 6.704918418842862e-20
-5.218831766794762e-19 -9.405382314753963e-19 6.7925055382786445e-18 1.2452580658186736e-17 9.67544466596437e-18 -1.3407060854045398e-17 6.975897439927481e-18 2.061342596522636e-18
1.8528951349606246e-17 -1.8788592160139882e-19 -4.828738514854352e-18 1.8490779854884366e-17 -9.673034495621957e-19 -9.6871364537336e-18 1.81366505776262e-18 3.7827231228100116e-18
6.109903905724959e-18 2.0411027084891363e-17 -5.614309061098493e-18 2.3641511659252123e-18 -6.003033961831616e-18 -8.537447274227107e-18 3.0941270859550252e-18 -5.234089079180616e-18
2.3083962952807067e-18 3.1187413060525013e-18 1.594208488283513e-18 -9.88047391062246e-18 -4.466519575801703e-18 8.002427538581031e-18 3.711050987667541e-18 2.0600609020842665e-18
-7.580750978692087e-18 4.745682629415225e-18 6.668920140292562e-18 1.825021242906758e-18 1.4136154901931614e-19 -6.180562423452208e-18 1.4436375020921534e-18 -5.497854683943432e-18
-3.892443721731318e-18 -3.2052711849697655e-18 -5.247687518191808e-18 9.308833534625328e-18 8.515641927692471e-18 -1.3525550864548833e-17 -5.6342947999360355e-18 1.0839278119525874e-18
-2.647110212466531e-18 -1.1019261145387361e-17 -4.469523607536487e-18 1.0374986922317878e-17 4.238331656377757e-18 -4.4305340236963724e-18 1.5042529998706873e-19 2.6590955677441783e-17
1.0913995591892307e-17 -2.300040878197918e-17 -1.0144485147294777e-18 -9.83932048351513e-18 -3.2537735731954342e-18 5.653478849355854e-18 3.957586401923628e-18 3.3292106529742676e-18
-1.799862148169495e-17 -4.128057285678368e-18 -2.458752755734244e-19 -7.217766653951708e-18 -9.41930500405577e-18 -9.750485448388004e-18 -4.829309887945272e-18 2.473046279979252e-18
2.3743522971637587e-18 -3.2815669536808705e-18 -1.8343124618248062e-17 -1.8649654015109236e-18 -1.2613104092117298e-17 -7.744636045485654e-18 8.357460670902919e-18 1.1218809961921755e-17
-2.500168336408549e-18 6.972855993980265e-18 8.541392672752845e-18 2.7116333569339378e-18 -7.85143513256711e-18 -3.2880909905538856e-19 4.5789084786622054e-18 8.545273488053275e-18
7.918744422125402e-20 -2.752213678556351e-18 -5.3914510559249373e-20 -6.6975390776976356e-18 6.889176950280858e-19 4.05140946995074e-20 2.9489213984239195e-18 -3.146533860617061e-18
-1.4834089950023443e-18 5.835056979590839e-18 7.480337046943426e-18 -1.0864071605772433e-17 -7.296387319324931e-18 2.044206056773662e-18 -1.1810393880342903e-17 -7.304323507737561e-18
00000000: d256 0925 f3be 48bc bdf7 9284 a269 50bc
00000010: c9b6 bad4 c8c7 62bc 1bb4 968e 2799 5d3c
00000020: 022d 9055 6a93 6b3c c429 7816 61bf 6b3c
00000030: f0b5 4ca8 be44 753c e0db d02e 6c9d 35bc
00000040: f736 7f67 a77d 503c 4ceb 5b27 8bcc 69bc
00000050: 18ec 4d3d b55e 51bc 924b 8e13 9dbc 4bbc
00000060: 6c75 f2b1 b6e8 eabb 8093 d25d 9fb7 69bc
00000070: 7cfc bf86 9058 613c 5f51 58da 3592 69bc
00000080: 2463 9dd8 76fc 3f3c 0236 3a47 bc99 6e3c
00000090: 121f 8862 b662 67bc 2a8c 5c3c 918b 4dbc
000000a0: 4fc1 23fb e8e2 14bc 15fb 411c 05b8 43bc
000000b0: 636c 6522 bc55 383c 6f7b d982 181b 2abc
000000c0: ad1f 26c3 b525 433c 3304 07b8 40b8 69bc
000000d0: 7a2c 6b6d d22b 5dbc 4d25 98b6 215c 68bc
000000e0: 8bfa b3bf 8751 3d3c e568 3f4b 5416 603c
000000f0: 0120 c282 8c22 44bc 1d7d 6a37 cb3b 58bc
00000100: 7801 a16f 84ee 5abc b776 5dd3 8593 2dbc
00000110: 040d c908 233d 573c 83f7 7e84 02c4 363c
00000120: f9c1 b74d ebe8 68bc 3777 cb8b fb69 533c
00000130: e1f5 deea f02e 3abc b606 c5c1 670e 0b3c
00000140: 35fe f1fd 4e35 603c 76ab c0f2 e280 5fbc
00000150: 3db2 ce58 a7c4 76bc 72fc b423 9c7c 41bc
00000160: 61b0 7da1 55ae 6b3c 7710 dfc3 b01f f63b
00000170: db9a def0 62a4 68bc 5ad1 95ca 2ec7 3f3c
00000180: 7cb3 6161 3a42 f33b 5328 ddf6 6ae5 683c
00000190: bc27 4bdb 6675 56bc 4809 1015 c003 153c
000001a0: 764b f050 2cc1 6dbc 89b2 1cc9 0434 58bc
000001b0: 5633 02d7 21de 4abc 3e08 240c 95b9 523c
000001c0: fe02 999d 542b 463c 0e97 f9c8 0a35 6e3c
000001d0: a356 e143 f988 49bc 8346 79f7 43ae 3ebc
000001e0: 884c 1e4d 1978 613c fbd9 c438 0ae8 5cbc
000001f0: 9f3f 441e 6b99 5fbc b08d d458 a640 2dbc
00000200: 0799 ab6c f184 61bc 32f8 4f16 cf8d 493c
00000210: a924 728f 9d3f 24bc 45a7 4842 9a87 523c
00000220: 11e9 bd2b f6e8 603c 80f3 d132 d4ba 543c
00000230: fda1 127d 9e8a 3a3c 6da5 2c0e 608a 56bc
00000240: e263 b3da d58f 53bc 41d3 3c04 43c9 55bc
00000250: d0ae fc10 af68 4e3c 4832 180f 6ca7 603c
00000260: b1f3 59f3 0307 463c f199 3dda de14 71bc
00000270: 5f26 da05 1968 5bbc 510f c22a 26e8 47bc
00000280: f05a 8a0d 9231 57bc 7e67 6eb2 551c 2ebc
00000290: b831 53db 59cb 543c 4232 b807 541a 5e3c
000002a0: 5f6d aab4 f703 3bbc 7690 3c0e 0192 2cbc
000002b0: 503e 85db 461e 65bc 993c 74cd cba6 5cbc
000002c0: 0d3e 8846 6a8d 67bc 5cbb 0219 656d 51bc
000002d0: 1c3e ba4a daf0 66bc ad76 49e6 00e4 3f3c
000002e0: 991e 44bb 95da 603c 68de 487a 3fb8 483c
000002f0: 7ba2 dab0 4b2e 69bc aae9 24f1 db74 65bc
00000300: 0b67 5a72 e086 61bc 7434 9017 bce4 713c
00000310: 9ba8 6b0c 7799 313c 2085 c196 a68a 37bc
00000320: 7db9 de1d 8783 2fbc 6960 744f 5b98 4e3c
00000330: 65c2 9659 f03b 6ebc b0cd 3205 f380 38bc
00000340: 4bd3 4ac5 02db 4e3c 14b8 c05e 11f1 d83b
00000350: 9603 2f35 b73a f0bb 6f3f 8aac 4437 4d3c
00000360: b6ed 9e9b 5520 4b3c 44d9 52d9 c009 403c
00000370: afa3 89a8 d803 57bc 867f 26ab a817 42bc
00000380: 6576 7bab b449 113c 9a99 0b1c 3829 663c
00000390: 62f7 c49a 1e17 3f3c 05d3 7a1e ba0c 2b3c
000003a0: da2f 6162 39a1 6fbc 69e0 8f1a c4c0 453c
000003b0: f1ac 302a d6fc 5abc 1b7b 5fc8 fdc8 543c
000003c0: 2a21 1779 970f 62bc 2387 94a0 b1f6 673c
000003d0: 2b06 84e4 641a 6fbc ccf2 478f 0cd7 3d3c
000003e0: 5dcd 119f 4865 49bc 7089 c8fe 1f0f 613c
000003f0: 5817 fa12 c1cf 64bc 1fac 0e3e 233d 7dbc
00000400: 6d83 9a61 db8c 503c 5e47 9b9f bbda 423c
00000410: 13c2 b457 6c4f 4a3c 7c08 c890 092c 5b3c
00000420: bd6c 66a7 462d 67bc 6132 23c6 898d 573c
00000430: b79c 78dd 3903 54bc feb6 0cee 870a 4f3c
00000440: 7d88 4227 0d80 4ebc 5f89 4e36 62bb 653c
00000450: dc9c 290f aecb 36bc 6231 2b52 5db4 503c
00000460: 7d1a 51d3 bc80 543c 0e0f ac1c 67ee 503c
00000470: 6671 0967 407e 54bc 8d67 11e9 7346 473c
00000480: 67aa 654d de0c 33bc f304 9010 e08d 69bc
00000490: 1543 1ffb d561 4b3c d9bb 0bc5 bb9e 713c
000004a0: ebc1 f736 398a 62bc 0d22 90f2 18fc 703c
000004b0: 5698 f1b6 3463 5ebc 4f46 d5d6 17ca f33b
000004c0: 19d8 1e18 0c41 23bc 2336 cef3 9059 31bc
000004d0: fc71 ced4 2c53 5f3c b699 e9c8 b4b6 6c3c
000004e0: 8219 efdb 5f4f 663c 18de 02c1 21ea 6ebc
000004f0: 48ad f6d0 d715 603c 7e6f dd24 3503 433c
00000500: 0598 26fb c75c 753c 4039 5622 21ba 0bbc
00000510: 2771 acaa c444 56bc 38e4 0fd3 8351 753c
00000520: ab85 961d f6d7 31bc 52c8 10ac 4656 66bc
00000530: 036e 1b42 65ba 403c 411d b4e9 d971 513c
00000540: 3154 9125 4d2d 5c3c 2f4d 5d9a 4588 773c
00000550: 2b81 bacb 34e4 59bc e91a 67b1 31ce 453c
00000560: 2da9 28b0 21af 5bbc b56d 308e 9eaf 63bc
00000570: 7bea ca0f cd89 4c3c 50dd 845b 5223 58bc
00000580: ace9 0ef1 8b4a 453c 34f0 dd71 ebc3 4c3c
00000590: 8958 a7cd 6f68 3d3c d897 a800 67c8 66bc
000005a0: a930 b2b5 2299 54bc 50ea aba8 cc73 623c
000005b0: 4a69 d756 3c1d 513c a0ce 4168 2e00 433c
000005c0: 86ff e2b2 e27a 61bc 911b cb90 b6e2 553c
000005d0: fa6f c76f 45c1 5e3c 2b80 a4a6 35d5 403c
000005e0: a2c3 1703 7ddc 043c edb4 945f b880 5cbc
000005f0: 9a71 83a6 62a1 3a3c e5d1 b69e b85a 59bc
00000600: 3cbd dced 62f3 51bc 5f89 148c 3b90 4dbc
00000610: 22d8 c63b 6033 58bc ef70 bc26 f776 653c
00000620: 1310 b46c bfa2 633c 8ded 4475 1330 6fbc
00000630: d4a6 5f1d cdfb 59bc 4d1c 8751 b4fe 333c
00000640: cb3b 0df1 4f6a 48bc cabb f9a9 9f68 69bc
00000650: 7acf 649f ae9c 54bc 9498 31b2 4fec 673c
00000660: 4736 9324 bd8b 533c 3299 75be a66e 54bc
00000670: 400f 8d3b e832 063c 52df 2fce 43a8 7e3c
00000680: 114d 1e62 7c2a 693c 8c92 9cc0 8584 7abc
00000690: 5557 8b00 99b6 32bc bc3b 8f12 1cb0 66bc
000006a0: 8bdf 2071 c102 4ebc 31ee 4d23 7312 5a3c
000006b0: 43f6 9d18 4b40 523c 5e08 d15b e0b4 4e3c
000006c0: 4f87 a063 41c0 74bc cb7a 66c2 8c09 53bc
000006d0: b27b 4de0 7324 12bc 5d2a f90e 9ea4 60bc
000006e0: 2018 b620 2db8 65bc 573b 98b3 ab7b 66bc
000006f0: ca77 865a 7145 56bc 1cbf 1fc0 50cf 463c
00000700: 50e7 00e6 47e6 453c 6cd5 7182 6144 4ebc
00000710: 5e1f 6a4f ef25 75bc a031 cd69 8633 41bc
00000720: 4273 7a66 7615 6dbc 2432 534f a0db 61bc
00000730: d01b babf 5f45 633c 1bf9 e7a0 6ade 693c
00000740: 4aff 1207 5b0f 47bc 2ef4 b834 0c14 603c
00000750: 4ae0 66c4 f2b1 633c 8f21 0dca a902 493c
00000760: 69a7 e354 ab1a 62bc 4484 003d 0743 18bc
00000770: 1859 df2b d21d 553c 380a 2c38 3db4 633c
00000780: b29c 3def 3b5f f73b 6a52 ab16 7b62 49bc
00000790: 2ae3 8e9a 54d3 efbb b85d cffa 0ee3 5ebc
000007a0: 7146 39c7 a46a 293c 5911 df1f 51ea e73b
000007b0: 9c0f fa9b f132 4b3c 53cd 6003 8b05 4dbc
000007c0: d22a 636f 335d 3bbc fcc0 a8c2 d1e8 5a3c
000007d0: 9716 0e93 9c3f 613c c797 7315 040d 69bc
000007e0: c8cf a5e0 06d3 60bc 845a c7bd beda 423c
000007f0: faa8 4143 a03b 6bbc 5ff9 1029 b6d7 60bc
