2layer_test/bias1.npy (npy, 4224 bytes, 1 tensors)

array f8 [1, 512]
9.008698943243827e-17 -6.8810286127578116e-18 3.2252290526270534e-19 1.270914090317698e-17 -5.506667304288493e-18 2.775028380799311e-18 1.7370275376306018e-17 3.876794791921766e-17
1.0811394167081946e-18 -5.975681971921063e-18 1.5278555284717995e-17 1.2515408235298184e-17 3.242037868372199e-18 7.375256738261097e-19 1.9915079655302837e-17 -5.60391322536499e-18
6.2160410772658175e-19 -2.013259585350228e-17 4.531031163467021e-17 7.014689263329452e-18 -1.7453631158612968e-17 1.1629371919890584e-17 -5.2087485965661394e-17 -1.376073529040131e-17
8.087433979109901e-18 3.5773914307185034e-17 6.685608495029678e-18 5.724335510583625e-18 3.549266972530733e-17 8.066950296360277e-18 -2.6171047160619413e-18 -1.9161439597781718e-17
2.72730721291547e-17 9.239679491324042e-18 -2.4868944057573105e-17 -3.1516388869888514e-18 9.295280620637503e-18 7.50201088948817e-18 5.18406644838321e-18 -6.630563366088982e-17
3.0536988929433795e-17 -2.073048588230242e-17 -4.0778475018204356e-17 1.1237328890167578e-17 -4.2802665233968645e-18 -1.2085660098200108e-17 2.6072152329432567e-17 5.175197801584946e-18
1.6351788334528558e-17 -4.938270341317748e-18 -1.2091856892292729e-17 2.2128693566298355e-17 4.410699983142507e-19 1.1509753695871638e-17 -2.4987595843443413e-17 3.871155334445165e-17
2.9301055621444355e-17 1.2297331951424165e-17 -1.2113845997243162e-17 5.1562634187924046e-17 -6.327768478175067e-18 1.849393244642978e-17 5.1886584381495695e-19 -1.9387233541923063e-17
-4.330122169426765e-17 2.863356897029192e-18 -5.645989217406149e-18 1.5534930793784485e-19 -6.379545950413906e-17 -3.321632071298142e-17 1.8875281973967313e-18 -3.677753619357913e-18
-9.746607816149688e-18 9.444993692491927e-18 -3.2239720647719116e-17 8.753151099536561e-18 5.0391592859498947e-17 5.524641530513089e-18 7.501958550344183e-18 -6.893186798375648e-17
1.5296483847670758e-18 3.818707291950774e-18 -1.8106373541723794e-19 1.3976316631596233e-17 2.3764574856090052e-17 -3.476343057407674e-18 3.1836042805398324e-17 2.963630203242234e-17
9.64271165185922e-18 7.846390167023187e-19 4.0704289127785795e-17 6.902416526061842e-19 -6.337352752101039e-19 -2.2275635433527683e-18 2.0627257830391664e-17 3.288076684037587e-17
1.893743929191844e-17 2.49481511892788e-17 1.4494140887317177e-17 2.9796964764683627e-17 -2.5528790615299764e-17 1.2814765113169496e-17 5.418742069553e-17 2.7520430426830247e-19
1.661924198672272e-17 -5.0603019982437556e-17 -2.082107440235965e-17 1.0514222516653012e-17 1.1730991751391903e-17 -2.6212421194373704e-17 -3.279696210088017e-17 5.056251293543004e-19
-1.8291006268640328e-17 1.2247468772603879e-18 1.1279264466549243e-17 6.667919261482704e-18 -1.0454698798039275e-17 -1.1428411800167962e-17 2.0707854634395208e-17 -1.5706842258492295e-18
-7.844293468566651e-18 -1.4913308150535912e-17 -6.007868602299947e-18 1.903611662293015e-18 -1.0919979766469527e-17 1.5045058611856387e-17 1.1320972337587145e-17 -6.035633072967891e-18
-3.4106429704732555e-19 2.030006351272396e-17 1.1269738252188354e-17 -2.030505118705728e-17 -1.1836543041624661e-17 1.1724545377435562e-17 -1.7020103834420794e-17 -1.1518124351795223e-17
3.587484090372343e-17 1.402835459569089e-17 -1.129191120170946e-17 -1.9535287129842915e-17 4.797234338747527e-19 -2.434069161178796e-17 -3.1078741863948467e-18 4.356708773859846e-17
1.0497771201749007e-17 -3.1765213562977448e-18 -1.2743540761328666e-17 -9.586203991747438e-18 -1.196889651153236e-17 1.8893375961871913e-17 1.15458139643671e-17 2.1986077931591804e-19
8.52560921062247e-18 -2.9736551174603573e-17 -2.7612744020814694e-17 -9.967708021990987e-18 -1.9156275915003587e-17 -3.1558861325267694e-17 1.1829859639826689e-17 -4.100214361015069e-17
2.7499027325698224e-17 -1.76403966821498e-17 -7.367533827116403e-18 9.54224180251487e-19 -7.954362156580723e-17 -1.0781819990557785e-17 2.114399080001283e-17 4.695099418246664e-18
-4.743162619312286e-18 2.083689208294923e-19 3.4585197690047613e-18 2.3325704197531363e-17 -1.8808777292814582e-17 -2.555874516632922e-17 -9.573969131148296e-18 -2.8096190087836057e-18
1.8904350884714428e-17 1.2952386163883933e-17 -2.1296345830443462e-17 2.716851618245754e-19 2.2829667169869647e-17 -2.4520932338819393e-18 8.89666599330483e-19 2.168614375253383e-17
1.3067971595798214e-17 3.2449980706270414e-18 -1.4876914608876124e-18 -5.860670851954507e-17 -3.4872792464687343e-19 2.9531890247122266e-17 -1.0963933649589947e-17 9.810193383061727e-18
3.2523799812351835e-17 2.957596923441502e-17 -1.5549648922747266e-17 1.4280491882992238e-17 -7.890921971374469e-18 -3.298706884683923e-17 -9.471325265890874e-18 -1.5069989863217863e-17
-1.3638629947836782e-17 1.3812792303449761e-17 -9.579206018329945e-18 2.5202180458335647e-17 -4.467766912419482e-17 -4.7668118112750925e-17 4.521427708456761e-18 2.211110022690956e-17
-1.5825364759566125e-17 -1.210344106995935e-17 9.126319265946516e-19 2.8751663990331e-17 -3.376594912538175e-17 -1.653613577585184e-17 -7.025284994097341e-19 3.9393906846276554e-17
1.9330194007229277e-17 -4.0474486015281316e-17 -2.894029195263675e-18 2.0456154771581737e-17 3.314336721338459e-18 -3.088162395441008e-17 -8.121640959587962e-18 -1.8122180542159428e-17
-1.2687024050106428e-18 -3.5315317587884493e-19 2.166988742116277e-17 -5.349214362850729e-17 1.2789312435083833e-17 1.8299962850769954e-18 3.6276726742922064e-19 -3.413680983696047e-18
-1.1838285909754176e-17 -1.1112944392393784e-17 -1.1368961359669556e-17 2.505911245411957e-17 3.8420402873636465e-18 -2.967601517677841e-17 -2.956952107438501e-19 -2.036121029610738e-17
-1.7343310894569327e-17 2.9415999045612563e-17 -1.6385458914482023e-17 -2.0134099942010094e-17 -1.3552125643917831e-17 -1.1556026195381735e-17 -3.0033177714385535e-17 -1.633588313522189e-17
-5.23230331589787e-17 -2.0144438531762772e-17 -1.5485931051142482e-17 -3.714170016603069e-18 -2.948826862658041e-17 -4.5498590964540063e-17 -4.574165261315334e-19 -3.079866714738335e-17
00000000: 2218 251e 3ff7 993c 3e38 f349 afbb 5fbc
00000010: bbe7 0212 49cc 173c e1b2 a712 274e 6d3c
00000020: e509 3012 2065 59bc f2d4 d7ba 5998 493c
00000030: f5f7 56e6 cc06 743c 8042 b4a9 2359 863c
00000040: a788 ff5a 89f1 333c fb3a 710e d78e 5bbc
00000050: f48c 85ff 6e9d 713c 23d2 1305 cbdb 6c3c
00000060: 5765 c4a4 0be7 4d3c b7ac d0a8 bb35 2b3c
00000070: a46d ebdf e4f5 763c 5fc3 e5d8 eed7 59bc
00000080: e6fd c482 e2ee 263c 8734 17ef 1736 77bc
00000090: e91c 0a2d 9f1e 8a3c 31c4 f1de bd2c 603c
000000a0: dba9 a815 671f 74bc 3bfd 5aff c4d0 6a3c
000000b0: 1237 4d95 c106 8ebc 00f6 0f86 e7ba 6fbc
000000c0: b089 0e78 faa5 623c 2da8 6545 4c9f 843c
000000d0: 48bd af2e f9d4 5e3c 67ac ed3f 1a66 5a3c
000000e0: 122e b426 cb75 843c cc50 f60f e399 623c
000000f0: 6680 60bb 7623 48bc f5c4 2171 7517 76bc
00000100: c0fe 3b11 9771 7f3c c4ca 43e3 244e 653c
00000110: ce78 3e49 04ac 7cbc 5f50 f2cf 9811 4dbc
00000120: eb71 c517 f76e 653c c904 3ad5 674c 613c
00000130: 0250 ecf1 43e8 573c 0501 1302 7e1c 93bc
00000140: c6eb f5d2 769a 813c 802b 2e3a 8fe6 77bc
00000150: 4e11 ac3a d781 87bc e80d 3e21 59e9 693c
00000160: 5403 c22d 3fbd 53bc 750b 4651 1dde 6bbc
00000170: 06cf fb21 240f 7e3c e1db 9c8f cbdd 573c
00000180: 16ee d431 32da 723c d352 45a1 14c6 56bc
00000190: 7639 22c0 c5e1 6bbc ab30 1bd0 3c83 793c
000001a0: 2b37 85d1 c945 203c 8775 73cd 288a 6a3c
000001b0: 7451 905c 09cf 7cbc a10e d822 d150 863c
000001c0: 563a 7695 12e4 803c 4169 7843 105b 6c3c
000001d0: 42cb 6da6 c0ee 6bbc 4583 603e 4db9 8d3c
000001e0: 935f 67ac 822e 5dbc 0a19 0d07 7252 753c
000001f0: 9fbe 89a1 8c24 233c a217 32f3 195a 76bc
00000200: 029d 6ae7 21f6 88bc 9115 b30a e968 4a3c
00000210: 109c 1989 9b09 5abc 7b39 be50 eeec 063c
00000220: 65c8 ac28 4663 92bc 22b0 f01d dd25 83bc
00000230: 65cd 5ac9 cc68 413c 687a c0d3 ecf5 50bc
00000240: 9c96 f6ba 6179 66bc 77de b517 57c7 653c
00000250: ca5f aa35 be95 82bc d13f c0cb f22e 643c
00000260: 3348 988d 7c0c 8d3c e322 9572 587a 593c
00000270: 343e 74ec 5f4c 613c 7ed3 ff2b 46de 93bc
00000280: 0102 626d 8f37 3c3c 4345 f075 559c 513c
00000290: 0e9d 78ff 64b8 0abc c0ee 9fa0 141d 703c
000002a0: 3ecb 2b82 1066 7b3c 4ee8 5038 2408 50bc
000002b0: 6569 22b1 2b5a 823c a394 ccd5 8b15 813c
000002c0: 2af6 c862 0d3c 663c d3a5 94bb b4f2 2c3c
000002d0: 87de c390 e476 873c 2498 45e9 2577 293c
000002e0: 7ebc bedf 7561 27bc 44cd 8b8a af8b 44bc
000002f0: 709e 4389 17c8 773c 7737 0440 58f4 823c
00000300: 1102 1475 58d5 753c e369 fd01 65c3 7c3c
00000310: 24d0 6d52 eab5 703c 4dc1 6680 412d 813c
00000320: 89d9 e4e1 c46e 7dbc 2c0a 5d8d 808c 6d3c
00000330: 1832 d1df a63c 8f3c c7c6 3c5b 764e 143c
00000340: 3fbf d76b 2229 733c 0709 420b b02b 8dbc
00000350: d57b fee6 4b01 78bc b690 5a62 803e 683c
00000360: b598 2c5a c10c 6b3c fd82 6c8c 8a38 7ebc
00000370: 9f35 4f32 fae7 82bc 908e 3f8c 7ea7 223c
00000380: 3814 eb5b 8d16 75bc 7c6c 561f b497 363c
00000390: 2da4 4641 1a02 6a3c b02f 88f0 16c0 5e3c
000003a0: ac17 066a 5d1b 68bc 98f4 46c3 245a 6abc
000003b0: 027a 2e42 e1df 773c 9a2c 10b7 58f9 3cbc
000003c0: ca25 251d 7416 62bc 65ff 76b4 a131 71bc
000003d0: 72d7 58de d6b4 5bbc 9519 00a5 c68e 413c
000003e0: 6fca a8af 042e 69bc a40c 047d 8458 713c
000003f0: 0dbb 62f8 b81a 6a3c 6664 372a 9ed5 5bbc
00000400: 871d 49bd 852a 19bc b5bf b96e 8567 773c
00000410: 3533 b5b1 7afc 693c 15ca 604a fe68 77bc
00000420: 8c9d efcf 0f4b 6bbc 9b2a 2934 f308 6b3c
00000430: 4fb2 a5af 729f 73bc 3371 84bd 198f 6abc
00000440: 9f6c 8b2b 31ae 843c ff31 3d81 702c 703c
00000450: ba35 2560 9109 6abc 2de0 1390 cc85 76bc
00000460: 15dc 4917 dcb2 213c 3c85 e8a8 1a10 7cbc
00000470: fbc9 8cac 42aa 4cbc 2357 050a 5e1d 893c
00000480: 8037 ef54 ca34 683c 0165 9357 594c 4dbc
00000490: 62b6 b56e 7562 6dbc c721 9130 b21a 66bc
000004a0: 1d83 cd80 3099 6bbc 88e4 5120 57c8 753c
000004b0: db0a 8513 729f 6a3c 119e c87d 0d39 103c
000004c0: ca09 49a3 a1a8 633c d799 0224 5724 81bc
000004d0: 339e 27f3 d7d5 7fbc 39a1 e272 e5fb 66bc
000004e0: df1f fb48 ef15 76bc 869b 5912 4431 82bc
000004f0: 0424 5ad8 1d47 6b3c cb11 8f30 d9a2 87bc
00000500: d689 5fc2 47b4 7f3c 43d7 46b0 8656 74bc
00000510: c903 db3b 06fd 60bc 6701 cc3f 329a 313c
00000520: ab13 9687 48ed 96bc 996e 3592 76dc 68bc
00000530: 6d78 86c6 9a60 783c 615e 64ba fea6 553c
00000540: 489d 74f0 bcdf 55bc 0935 138c f4bf 0e3c
00000550: aac0 56ec 32e6 4f3c c39a 0a61 88e4 7a3c
00000560: 7f1b 1308 5faf 75bc 9829 2d2f 9c77 7dbc
00000570: 5ba5 524f 7913 66bc 7289 437b 06ea 49bc
00000580: 4e8d 335e 94cb 753c 9076 e441 bddd 6d3c
00000590: 9be5 6765 928d 78bc b501 e7d3 fc0b 143c
000005a0: f68f 84e1 2052 7a3c 2a10 4969 d79d 46bc
000005b0: b644 3bec 5469 303c 2dd7 c3b1 9e00 793c
000005c0: 1e76 b508 f821 6e3c 860e e1f9 08ee 4d3c
000005d0: 7e49 629e 6c71 3bbc 8c12 876c 69e4 90bc
000005e0: 0cbd bcc4 48bb 19bc 5e63 f944 2306 813c
000005f0: 5b2a 27cf f647 69bc 6832 7082 ea9e 663c
00000600: 4ad3 c26a aabf 823c ece8 c786 a40c 813c
00000610: d032 1941 72ed 71bc 7895 aa75 db76 703c
00000620: f0ed f969 fa31 62bc d754 f039 0804 83bc
00000630: b9ee 1d35 e2d6 65bc 7535 8d3d e05f 71bc
00000640: 0164 6b7c d372 6fbc ea2f 3628 a2d9 6f3c
00000650: a53b 95af 9016 66bc 56ad aaea 5e0e 7d3c
00000660: e691 1d9e 42c1 89bc 6c51 1296 927a 8bbc
00000670: 0b87 b0ac f5d9 543c 712c 6e7f 0b7e 793c
00000680: aba6 00c1 d23e 72bc f211 4d4d 9ce8 6bbc
00000690: 7df2 c34c c8d5 303c bb6b a327 ff92 803c
000006a0: 0491 c57d f976 83bc 15f2 ef17 9b10 73bc
000006b0: fa45 14af 31eb 29bc b7c4 f9b8 83b5 863c
000006c0: 51d0 222a 4449 763c 38a0 6fd9 fa54 87bc
000006d0: 23b0 f54e 55b1 4abc 263d c65a 9795 773c
000006e0: 4799 609e c191 4e3c 34a3 66c4 52cd 81bc
000006f0: b597 84ae 2bba 62bc bd30 713f b9e4 74bc
00000700: d56b 4618 4767 37bc b0d4 6bf8 df0e 1abc
00000710: 25db 9566 d2fb 783c f6dd a10c 0cd6 8ebc
00000720: c290 9240 7a7d 6d3c 444a 21e1 f4e0 403c
00000730: 98f3 4add 7ac4 1a3c e40f 628a 537c 4fbc
00000740: 8b8a e12f 174c 6bbc d591 0dad ec9f 69bc
00000750: 52c9 c1dd 0c37 6abc 5fa3 ff00 25e4 7c3c
00000760: 4366 046d e1b7 513c 998c c327 681b 81bc
00000770: 7b03 ce4c 86d1 15bc ba71 878d 9179 77bc
00000780: 99a5 6885 d7fe 73bc e549 0c06 09f5 803c
00000790: 2136 9145 22e4 72bc 41c0 6494 8936 77bc
000007a0: a341 4053 c33f 6fbc 9959 124e 79a5 6abc
000007b0: f438 df5f 1d50 81bc 3db6 886e 80d5 72bc
000007c0: 73b6 f84d 8429 8ebc c091 cdbd 9639 77bc
000007d0: be49 37de a3da 71bc 4b42 0402 eb20 51bc
000007e0: f617 8c4a b3ff 80bc f424 fc2a 683a 8abc
000007f0: 661e 2a4c 2de0 20bc fabc 64bf 14c1 81bc
