2layer_test/bias1.npy (npy, 1152 bytes, 1 tensors)

array f8 [1, 128]
000000 bd 33 46 20 ae 4b 90 bf ff 9b ff e9 2e fd b4 3f
       -0.015913696975576864 0.0819882699284875
000010 8a e0 c9 d9 23 93 a0 bf 5c 26 44 ce e6 82 68 3f
       -0.032372589431305235 0.002992106239734933
000020 09 6b a2 62 7c 0b b4 3f aa a7 5f 1a 39 10 97 3f
       0.07830026062076113 0.022522823557586648
000030 44 a7 b9 86 9b fd ab 3f 9b 11 d0 67 72 20 93 3f
       0.05466924686045485 0.018678462587574534
000040 10 0f 7a 36 ab 05 b8 3f a6 4e c1 ee 0e c7 79 bf
       0.09383649902343572 -0.00629335244237309
000050 33 80 d7 b5 7b c0 92 3f 45 a9 33 ca 81 ff 78 3f
       0.018312390302412673 0.006103045455555571
000060 3b dc b8 98 2f 7c 72 3f 8f 15 8b a1 f7 b2 b6 bf
       0.0045129641762776075 -0.0886683244126145
000070 b5 e5 5d 95 fe 3a a0 3f 7f 85 a8 f3 db 95 a0 3f
       0.03170009206128147 0.03239333485931705
000080 9f ec 52 e8 5a 6f c2 3f 9b 77 ac 8e 9e e1 8b bf
       0.14402328819219165 -0.013613928536468303
000090 66 ef 38 1d a8 2e a1 3f f9 84 af 31 2c 96 a4 3f
       0.033559087340534074 0.04020822626604032
0000a0 aa f0 8e e2 50 21 9f 3f 6b 6e 3b 1f 22 03 55 bf
       0.030400527790093314 -0.0012824853155767545
0000b0 a6 c7 ef 95 90 86 c0 bf b9 cb 5f 3d 47 e1 8c bf
       -0.12910659142613418 -0.014101559219829573
0000c0 de 0e 4d df 94 9e ba 3f d8 21 4c 3e 22 b6 c1 3f
       0.1039822621506192 0.1383707813440782
0000d0 65 ef a3 ee 0d d7 87 3f 20 3b 69 2a 05 33 a8 3f
       0.011640652508951363 0.047264253070002704
0000e0 dd a8 2f ad 65 51 b2 3f 13 a4 e2 6a 30 12 7f 3f
       0.07155452230623234 0.007585705882015697
0000f0 45 8f ce 65 7a 6d 8a 3f 66 7f 0a 2f 4a ef b9 3f
       0.012904125434779376 0.10130752228223869
000100 1e cf 36 41 97 44 a1 3f 01 cf 71 c4 cb b2 72 bf
       0.03372643157072573 -0.0045650443708955555
000110 48 7a 04 04 6f 67 a2 3f 39 32 59 fa 65 01 8b 3f
       0.035945386162201276 0.013186260893371148
000120 19 e7 dd 81 6c 62 ad 3f 3c 77 ca 74 34 47 97 bf
       0.05739153943336656 -0.022732562664365505
000130 39 55 39 21 30 34 b1 3f c4 00 b3 42 75 a9 7a bf
       0.06720257578975443 -0.006509264039039123
000140 84 21 c4 48 04 36 b8 3f c0 24 eb 3c a3 7d bd bf
       0.09457422997014048 -0.11519832837361133
000150 7e f0 05 8b 73 0a b9 3f 3b be 78 79 54 bb a8 bf
       0.09781572479363551 -0.04830421431358586
000160 3d cb e7 dd 74 07 be bf 32 e5 95 21 d8 68 be bf
       -0.11730127732861902 -0.1187872964855117
000170 48 76 0c a9 ec 34 c1 bf 3b 8f ea 87 4b 15 c3 bf
       -0.13442762617425985 -0.14908737312827633
000180 89 e3 66 04 bf ba a6 bf 16 81 0e 2e fb fd ac 3f
       -0.04439351013883825 0.05662522256102613
000190 f5 12 63 cb a8 b3 77 bf 25 0a c2 3c 2c 8a 9b 3f
       -0.0057865708860773595 0.026894274910327937
0001a0 be e4 01 60 b7 97 b1 3f bc c0 b8 77 de 82 3c 3f
       0.06872125715189534 0.0004350464948599355
0001b0 97 2c 72 0f 60 31 99 3f d7 86 5f 2d 62 b6 b9 bf
       0.02460241407656535 -0.100439201428823
0001c0 c2 ed 83 1c 50 be ac 3f d4 f3 21 8d 16 00 64 bf
       0.05613947246635177 -0.0024414482550682935
0001d0 56 34 07 87 b0 8b 8d bf 04 32 f0 b7 41 3f ae 3f
       -0.014426592941982157 0.059076360419656054
0001e0 d6 a5 b4 ac 2b 6e 8d bf 4a ff a9 1d 35 59 83 3f
       -0.014370290000971158 0.00944749352242948
0001f0 5e fc 2e cd 52 13 a5 bf 71 b6 f2 64 49 13 a0 3f
       -0.04116305117303719 0.031397145817533174
000200 08 28 74 63 8b 26 b6 3f 4c ac 9b 34 40 86 a4 3f
       0.0865256421858761 0.04008675234020895
000210 1b cc 17 02 4d 77 c6 bf 35 d8 b7 e9 c4 34 b9 bf
       -0.17551577188678 -0.0984614439583716
000220 06 dc f2 91 9e 42 b6 bf 50 d5 d0 fc 53 fd b5 bf
       -0.08695403159332224 -0.0858967296815838
000230 9f 50 4d 10 6d dc a8 bf 4f 1e ea 64 9b 5a 73 bf
       -0.048556717147819166 -0.004725081451972437
000240 5c 0d 90 36 d5 ba 93 bf 69 26 f4 5c 1a f4 95 3f
       -0.019267398314707904 0.021438991473621636
000250 92 a0 77 29 93 5a b2 3f d6 1e a4 b7 d6 13 6d bf
       0.0716945625532637 -0.003549498910732622
000260 64 90 c1 a8 87 1b b4 bf dd 19 80 1a 30 0a 9f bf
       -0.07854507322332577 -0.03031230127091954
000270 b8 b7 d6 10 9f c1 aa bf ff ea d8 9e 5a 93 ad 3f
       -0.052258463674078326 0.057764846697372356
000280 f4 c1 ea d2 f6 83 b1 3f ce c8 17 5e 9e 90 aa 3f
       0.06841986321774823 0.0518846025332934
000290 52 34 d8 e8 90 e9 b3 bf df fb 85 0d ea 9f b5 3f
       -0.07778268513375622 0.08447134809647093
0002a0 29 e5 dd ce 77 37 b2 3f 3e 46 e9 6b 4f c5 80 bf
       0.07115887451609083 -0.008188839417161305
0002b0 e9 0e f3 47 e1 67 84 3f d2 55 49 a2 38 d3 7b bf
       0.00996376038381848 -0.006793233133597325
0002c0 5b 15 d4 10 d2 bd b0 bf 44 48 9e 2b 11 1a b0 3f
       -0.06539643202639438 0.06289775195026076
0002d0 13 d7 bb db 01 de 8b 3f b8 d6 08 72 57 d2 c0 bf
       0.013607038992158793 -0.13141911571590525
0002e0 25 6c dd 22 42 80 93 3f a3 d7 ec 00 8b 44 8f 3f
       0.0190439542560449 0.015267454114660078
0002f0 0a 55 51 29 e7 e1 ae 3f 75 8d 9f 7e 26 47 9b 3f
       0.0603172529160166 0.02663860462042807
000300 be 02 27 9c 3e db 91 3f 43 4e 27 18 d1 03 af bf
       0.017437914162431005 -0.06057599468081467
000310 6e c2 fe af 2a d2 b1 3f d2 ad 06 bc a6 21 8b bf
       0.06961314007527061 -0.01324777852354134
000320 fb 54 e5 9e ac c2 ab 3f 86 d6 b0 a3 63 bb bf bf
       0.05421962203642213 -0.12395308252674839
000330 56 df 6f 9a b2 7d ba 3f 0e 99 67 81 25 19 66 3f
       0.103480494217249 0.0026975376633685605
000340 8f 56 e0 36 a1 6f ab bf cb 93 b4 e4 be 56 b1 3f
       -0.05358604235531771 0.06772988399150319
000350 1a 8b 14 92 c1 43 aa bf 67 64 cd b9 dc b0 ae bf
       -0.0512981882877936 -0.05994310157866139
000360 0b a7 f7 8b b4 0f 80 3f 6a 92 a0 46 7f 8c 78 3f
       0.007842455407586898 0.005993363543926303
000370 23 b1 8b 2f 2a 79 9e bf 27 14 f0 47 16 1f c5 bf
       -0.0297590819854331 -0.16501120102489716
000380 7b 78 fe ed bf 17 c0 bf 90 40 95 40 be 1d 5d bf
       -0.12572478409578366 -0.0017771108562847672
000390 e5 13 58 f3 f7 28 c2 3f 3c 39 96 0a 61 35 b6 3f
       0.14187526113542429 0.08675199993578969
0003a0 3d be 10 02 7b 11 b0 3f 13 b8 bd bb 6e 46 9a bf
       0.06276673126625894 -0.02565930386429478
0003b0 66 0f b7 ff 26 20 a5 bf 96 90 a2 98 11 18 c8 3f
       -0.04126092788240392 0.18823451950914166
0003c0 32 42 d7 9a 2d 78 75 3f da fb 23 c9 dc 93 8a 3f
       0.005241563934263159 0.012977337730715566
0003d0 4c 15 fd c4 9d d8 8e bf 1d ba 39 ce 7d 70 71 bf
       -0.015061600278964214 -0.004257670810700745
0003e0 c2 21 0a ec 88 ce 62 3f c0 31 5a ad bc 14 88 bf
       0.002295749116744101 -0.01175830272702505
0003f0 08 08 47 d1 96 f5 c0 3f 31 dc 22 2e 32 4d 75 bf
       0.13249478548647198 -0.005200572983247873
