2layer_test/bias1.npy (npy, 4224 bytes, 1 tensors)

array f8 [1, 512]
2.735889115451729e-18 -1.0859245078738465e-18 -1.8960878930577177e-18 -1.2205345148019127e-17 1.93495989178407e-18 -1.157516206855173e-17 1.89505416670471e-18 1.9342294232586208e-18
1.4230306439715828e-20 5.806467452514663e-19 4.073547845260854e-18 -3.457531524600138e-19 -9.931861046176943e-18 2.8638353587135598e-19 -6.595644869117753e-19 7.978122367762552e-19
6.228347010469986e-19 -6.341910633994185e-18 -1.0149424864425942e-18 -1.7607230965945912e-18 4.177911160320736e-18 -3.039451739962689e-18 7.524866523449596e-20 7.179334739580771e-18
-4.537231712123503e-19 -6.320107012037398e-18 3.0928909767936614e-19 -4.007092124215846e-19 5.192505856426012e-18 -6.290525173067616e-18 -4.046314587061097e-18 -1.7500402177718965e-19
1.8344093671357558e-18 5.323499399627361e-19 -3.673394691882245e-18 -5.032333173380871e-18 -1.2139926959172641e-17 5.5839075909114756e-18 -7.447326316900152e-20 -7.875060166764779e-19
-2.239929467506005e-18 -1.015685936671856e-18 -1.2113049846341225e-18 -5.108677497274169e-18 -5.710789852797173e-20 -1.7278457013715288e-18 -5.886200702689651e-18 9.41976422539661e-19
-3.0292488839454703e-18 1.1377217223528879e-18 -3.3693176690024324e-18 5.205287275637529e-19 8.130711973890779e-19 3.1433488879805104e-18 -4.490920847304549e-18 -4.903521019119002e-18
-5.031422824859345e-18 -5.6852396145431115e-18 1.3810605376872198e-19 3.1411271596012553e-18 3.9639551979604035e-18 6.050790923076492e-18 -5.07201429432471e-19 -2.7472764314923395e-18
3.512890234603809e-18 3.1461414049166317e-18 5.680954648556573e-18 -5.000413826236168e-19 4.242558185063e-18 -2.4753159379515798e-18 -3.917009928169423e-18 -8.753782229276615e-19
-1.6971378072425005e-18 2.7734813054274424e-18 -3.513711236510679e-18 -6.38407921447031e-19 -2.1741085846869976e-18 1.9811686904781485e-19 2.982292738380808e-20 5.648130131489773e-19
2.648473597357452e-18 1.6199564137979105e-18 -3.9930654698363205e-19 -1.713206020991102e-18 3.6371657378747514e-18 -2.1675957865826014e-18 1.2537653401050193e-19 -5.24884712766408e-18
-1.846948644143363e-18 -8.529613466575512e-18 5.703720221619717e-18 2.4458181881714724e-18 3.2778945565688555e-19 1.3817084250793357e-18 2.8060526824918067e-18 -6.7682603394885916e-18
-1.3546394470156942e-18 1.5919593241532234e-18 -3.3579309862192205e-18 3.003354961626127e-18 1.2200611272053884e-18 1.0257018731240425e-18 -4.604656438008304e-18 -9.925592712637575e-19
6.074597185789631e-18 -1.6524734128869922e-18 -6.269753326453845e-18 1.2049192774405981e-18 5.794877485252062e-18 2.042649954003417e-19 2.36866178803856e-17 1.4548588174878907e-18
-1.7898856559218987e-18 -2.2805108496659264e-18 -9.303982871633372e-18 -1.452669444093656e-18 2.541107933816179e-18 7.629548644656935e-18 -2.8545854885819016e-18 1.5114651445879235e-18
-1.0360726252768126e-17 -6.029720763156909e-19 4.6664749004356816e-18 5.6049032721665965e-19 -6.6989994797116e-19 -8.264404401544872e-18 -7.742175058226914e-19 -4.0423656297743293e-19
-9.823265963289874e-19 -8.435798278331348e-18 -9.441164827012901e-20 5.994688831395058e-18 -3.981876346891993e-18 -9.429804837239969e-19 -6.604872842302807e-19 -1.276414816291149e-20
-3.199906232398218e-18 -4.256466889495066e-18 -1.3997763631946742e-17 -5.253712511545744e-18 3.5307519981660456e-18 -2.524512102568086e-18 -1.0683954996140077e-17 -2.1535956953945435e-18
2.6619580893452543e-18 2.7342501104908393e-18 -4.835251249399828e-18 1.6850482193010313e-18 2.8675886145234665e-18 -2.7168842061736824e-18 3.840184591761581e-18 -8.993572938039978e-19
-9.714761093368477e-19 1.7571951422934404e-18 3.199983167620665e-18 3.1495181856527023e-18 -3.0248917344740165e-18 -1.0654125774488258e-17 2.3778591208181093e-18 4.385184945712378e-18
-1.0096976525228592e-17 9.923157386889273e-19 -5.352023142589288e-18 -2.4555097934058364e-18 2.9457715130140978e-18 -2.6962752201148576e-18 8.946634142078092e-19 -5.912103534630608e-19
-3.683218270949455e-18 -7.809452778995235e-21 4.6271304658965115e-19 -1.6854674776728242e-18 4.2992501832480585e-18 -6.035054641949591e-18 2.494067245337626e-18 2.8923602255181667e-19
-1.0414007450348614e-17 -2.553972638619884e-18 -1.9300380425187497e-18 1.2419803583747635e-18 1.838671794065424e-18 4.562082872182635e-18 -1.5880883871268995e-19 -1.8150052997369934e-18
-1.7426544467587432e-20 -2.6356282269487606e-19 7.19794262296076e-19 7.626046552649052e-18 6.542097815758831e-19 3.694586850374046e-18 1.7200005808608413e-18 -2.5774117473007413e-18
1.8760910775826123e-20 1.1026038704071328e-18 2.8546245941243115e-18 4.944137478076547e-18 1.558304437872609e-18 2.788792427118734e-18 5.8513613639969154e-18 -6.319468701627174e-18
-8.727655273269435e-19 -3.735339644062363e-18 2.0948937272965584e-18 -7.414650435828638e-18 -5.133595013611216e-18 -1.3895136142747969e-18 3.825045072844336e-18 2.9313364703634436e-18
3.598594934529413e-18 1.4880903314543606e-18 -3.4459187281858803e-19 1.213999245107121e-18 -7.470838208093222e-18 -4.150745191963324e-18 5.7291266188162635e-18 -1.2491996183568061e-18
3.5101858937039387e-19 -6.156884897885201e-18 2.5879871061129216e-19 9.827708667829457e-18 2.7967793493360343e-18 2.450912225106903e-18 4.1396934341683754e-18 -7.58296583001371e-19
-4.6678735220249e-18 -2.190003050818646e-18 -3.374119080881533e-18 -5.3940978642826795e-18 -1.8747719237760562e-18 -4.675347151985715e-19 -9.133643563344204e-19 8.135929534319018e-18
-4.746431532579399e-19 1.0628934293149414e-18 2.818163166883829e-19 4.2840519728312735e-18 1.2172593734037774e-18 5.010915305939818e-18 -2.0455089394931666e-18 -9.921077475600079e-18
-2.2023486200164997e-18 -3.6474792079550856e-18 -2.5117474150976127e-18 9.225165553367763e-19 -3.481801379019119e-19 3.6177774821298626e-18 5.073640455778418e-18 6.619303181104599e-18
5.072263666156066e-18 6.380389850524959e-18 2.6715801740922247e-18 -1.4105799716294482e-18 6.366454440469043e-19 -4.063147308560272e-18 4.799417187241852e-19 -1.6507813835392267e-18
00000000: 1c02 e27e ef3b 493c 380d fc2c 2208 34bc
00000010: c240 1ace 027d 41bc 4f3e 609c c324 6cbc
00000020: 026d 8e7c cbd8 413c 4505 4f09 c5b0 6abc
00000030: dd81 b2f4 917a 413c 24e7 06f2 11d7 413c
00000040: 1bf3 cea1 d8cc d03b da52 50af 0d6c 253c
00000050: 547d b94a 32c9 523c 4caf 23a7 1783 19bc
00000060: 2573 2d68 bce6 66bc a7b3 a5cd a121 153c
00000070: f55d 6b13 6955 28bc 145b de9f 1f6f 2d3c
00000080: 5326 24e7 81fa 263c 1442 b6e0 343f 5dbc
00000090: 6181 622d eeb8 32bc b9ce 6bce 633d 40bc
000000a0: 3303 1f2b 6844 533c 8303 ccd7 b308 4cbc
000000b0: c4e1 62de a035 f63b e379 4c64 ee8d 603c
000000c0: 5499 3250 4bbd 20bc 654f 2c23 7725 5dbc
000000d0: f152 bb4d 4ed2 163c fbcc 2ada 2e91 1dbc
000000e0: 1f4c 7e99 3af2 573c cdf7 3d93 8a02 5dbc
000000f0: f6e0 6d8b 0ba9 52bc b31a 300b 77d3 09bc
00000100: 6b8f 806c 60eb 403c 2da7 cb2c e7a3 233c
00000110: e1de 126c c7f0 50bc c4a2 6560 2135 57bc
00000120: 2014 c6e4 25fe 6bbc 9857 e783 50c0 593c
00000130: c123 5569 0afb f5bb f068 9cb6 c80d 2dbc
00000140: 1607 a048 e2a8 44bc 3217 16f4 70bc 32bc
00000150: 44ee 10df 3958 36bc 32c0 5a08 438f 57bc
00000160: 95c1 9668 f3da f0bb 27d6 db47 85df 3fbc
00000170: 7211 9200 3325 5bbc dd93 619e 5b60 313c
00000180: 5bb1 4c98 9cf0 4bbc 5595 6a2a bdfc 343c
00000190: 19f4 f08f 9313 4fbc 4b87 b93c 4134 233c
000001a0: 98d1 0487 3dff 2d3c daf9 bbd0 05fe 4c3c
000001b0: 523c a28a f1b5 54bc c5b7 b04a 0e9d 56bc
000001c0: d97b 973d 0e34 57bc 8863 7c3d f237 5abc
000001d0: 4989 41cb 7f61 043c cc6d ebdc c6f8 4c3c
000001e0: 43d1 57f2 cf47 523c c055 1058 83e7 5b3c
000001f0: 0216 bdce 61b6 22bc 0ff1 b0b4 d256 49bc
00000200: 9e7d 30ed 4933 503c a0cb ccc9 9d04 4d3c
00000210: 5c00 4d30 e332 5a3c 03b9 6ce0 c172 22bc
00000220: 3399 6488 ba90 533c 9516 afac acd4 46bc
00000230: 9cbf 059c 6310 52bc 898f eb55 db25 30bc
00000240: a14f f1b6 814e 3fbc f756 8694 b294 493c
00000250: bf9d 220f 4234 50bc 2099 ada3 978d 27bc
00000260: 8d9e 5700 780d 44bc 67e6 4dc9 a43c 0d3c
00000270: 5f4b 2d9f b69a e13b 82e0 d711 82d6 243c
00000280: 5616 a50e 886d 483c dc67 a222 07e2 3d3c
00000290: 39b7 75fa af76 1dbc cb7f 3bfe 629a 3fbc
000002a0: ebe9 86e4 01c6 503c ed4c a641 17fe 43bc
000002b0: 5179 e06e 9780 023c 5bc6 36b4 be34 58bc
000002c0: 63d8 a2f3 fb08 41bc 7936 6fbe feaa 63bc
000002d0: 7f98 33a9 c34d 5a3c 8065 fe60 068f 463c
000002e0: e0fb 9c8b c42f 183c 8b83 81fd ee7c 393c
000002f0: 2d06 00c5 9ae1 493c 88f6 682b 8d36 5fbc
00000300: 8164 909a 1afd 38bc 291c 12bb d05d 3d3c
00000310: 1fee 1fbc b0f8 4ebc 54de e5ad 78b3 4b3c
00000320: a790 ef65 9381 363c 960e 477a bdeb 323c
00000330: 0838 bc03 383c 55bc 8ab9 d087 3a4f 32bc
00000340: c11b 6d58 9e03 5c3c 2fb6 6ac6 957b 3ebc
00000350: 9e28 74ab 04ea 5cbc 38a2 6906 123a 363c
00000360: 51f3 db40 62b9 5a3c 0a6e dcd0 e924 0e3c
00000370: 8487 f53e 0e4f 7b3c b53d 6b63 60d6 3a3c
00000380: 58aa e67d 3f82 40bc 0270 5a39 b408 45bc
00000390: 6bf6 cc23 1a74 65bc 8028 2c99 09cc 3abc
000003a0: 5c56 ed7e 0570 473c ad2b 27cb b097 613c
000003b0: 211d fc0c 3354 4abc dc0e 1e3d b1e1 3b3c
000003c0: c703 43af e4e3 67bc 50ce eb05 e93e 26bc
000003d0: 091d 997f 3385 553c 17ca d874 aead 243c
000003e0: 0550 f4af 06b7 28bc 5b26 ac7b 710e 63bc
000003f0: cc6a c910 4790 2cbc 8422 a712 d0d3 1dbc
00000400: 8309 50fc e71e 32bc ffa5 20cb 9d73 63bc
00000410: 5f2a 46de 8add fbbb a20d f786 47a5 5b3c
00000420: e6d0 1448 f85c 52bc b143 4474 1965 31bc
00000430: 1d34 4b43 205e 28bc 36ef 8042 7423 cebb
00000440: 3a6d e1a1 9083 4dbc 0560 462e 26a1 53bc
00000450: 2bc2 f11d 6923 70bc 15fe 0e2d 7d3a 58bc
00000460: d510 3550 6048 503c e9be 6dee d548 47bc
00000470: b828 9da1 b1a2 68bc 985e 78b8 08dd 43bc
00000480: 3867 b6ee 5e8d 483c 854e 26c7 1038 493c
00000490: f42f 1a05 754c 56bc 6227 b34c 6a15 3f3c
000004a0: 79c2 43f5 e672 4a3c 5295 9dbb 0f0f 49bc
000004b0: 1137 8693 b0b5 513c 62e4 e740 1897 30bc
000004c0: d743 3d8d aaeb 31bc 4573 ef49 0f35 403c
000004d0: 8994 0723 bf83 4d3c fa42 4fed 960c 4d3c
000004e0: 2d7b 13dc 52e6 4bbc 2e92 7ef7 1591 68bc
000004f0: f819 aea4 8fee 453c 5e80 7fd3 1c39 543c
00000500: bc70 e2f3 3348 67bc 004f 221e 144e 323c
00000510: be4a b6bd 8dae 58bc a2a9 4398 e8a5 46bc
00000520: 537c d19e 812b 4b3c ce38 7d5d 66de 48bc
00000530: 436c 88b3 ed80 303c f792 18ec d2cf 25bc
00000540: a292 b06a 60fc 50bc 85fa f548 8670 c2bb
00000550: ba59 897f 3312 213c d991 e126 6517 3fbc
00000560: e8f6 4ba3 a8d3 533c 3fb6 4858 efd4 5bbc
00000570: 778e f524 f300 473c e9db 1e95 8357 153c
00000580: 599f c14f 5803 68bc c4c7 92bb 658e 47bc
00000590: aeb1 4569 2ccd 41bc 0cd7 681f 16e9 363c
000005a0: 004e 1fe7 70f5 403c f834 a0f1 f409 553c
000005b0: 41d8 11d8 a06f 07bc 23e8 8162 8fbd 40bc
000005c0: edf6 4892 d992 d4bb 63c0 149b 8f72 13bc
000005d0: 9a0e acbc 438e 2a3c fbd3 8792 9f95 613c
000005e0: 1b3b 5a31 d622 283c ef1f eb5b cc09 513c
000005f0: 6112 a91c 79ba 3f3c 98a8 f6cd bdc5 47bc
00000600: 8b37 f729 2326 d63b 2279 a949 e656 343c
00000610: 983f 46b0 4a54 4a3c 7a7a fddc 01cd 563c
00000620: 6c78 4278 e2be 3c3c 0828 d995 d9b8 493c
00000630: d81b 4d75 11fc 5a3c c914 4c38 b624 5dbc
00000640: 1de8 cbc7 8419 30bc d26f 9b22 e939 51bc
00000650: ae2e e28e 6d52 433c 5a89 5e4b d618 61bc
00000660: 9d33 cde3 adac 57bc e28b 8fe2 caa1 39bc
00000670: 9eec fbef d0a3 513c f3f8 282c 6c09 4b3c
00000680: e8f9 2995 7898 503c 1f5f d8d2 4e73 3b3c
00000690: 2e10 930c 286d 19bc 8d8a 4b08 f364 363c
000006a0: ba92 8626 013a 61bc fb0a 20c2 5524 53bc
000006b0: da17 f945 c26b 5a3c 16ee 27ac 2d0b 37bc
000006c0: 5ba9 50be 8de6 193c 2fd1 c547 c464 5cbc
000006d0: 912c fbc5 9118 133c 5eb4 3258 41a9 663c
000006e0: eddd 3262 b5cb 493c c47b 0789 0d9b 463c
000006f0: 9b61 c891 4917 533c 8216 e0a2 e8f9 2bbc
00000700: 4bc1 b334 da86 55bc 487f d89d ff32 44bc
00000710: fa47 71d6 e91e 4fbc ff4e a00b 3ae0 58bc
00000720: 000e 9f17 ae4a 41bc 1ca0 d993 bd3f 21bc
00000730: 6066 cac0 3dd9 30bc 2ab4 fae8 9ac2 623c
00000740: b434 e5b9 e082 21bc a01b 694f 5f9b 333c
00000750: cb08 2716 5ccb 143c fac1 b842 b7c1 533c
00000760: ca0b 2249 5874 363c ba0d 2b39 d81b 573c
00000770: c645 1d49 d2dd 42bc 6a2e ffd6 5ee0 66bc
00000780: d4dd 250e 2650 44bc 01d1 9ff2 2ed2 50bc
00000790: 8a11 b726 b22a 47bc 4a52 3015 7604 313c
000007a0: 01ba 97d5 efb0 19bc 5fa8 e526 1eaf 503c
000007b0: f556 92bc e565 573c 7eef 80a1 b186 5e3c
000007c0: 4e5a a2a0 4564 573c 4570 e381 a26c 5d3c
000007d0: c56e 3520 17a4 483c d29f 5f8c 4605 3abc
000007e0: 07d4 013b f27c 273c 9380 2cec eabc 52bc
000007f0: 01e9 10df ebb4 213c 6791 b23c 9873 3ebc
