2layer_test/bias1.npy (npy, 2176 bytes, 1 tensors)

array f8 [1, 256]
0	0xbfaea92ac6c8e168	-0.05988439251490513
1	0x3f8a698025903f4b	0.012896538874002458
2	0xbfa262f52460378f	-0.03591123646775351
3	0xbfa1d8d4e1960db5	-0.034857418572780054
4	0x3f834454269e5b6c	0.009407670429750069
5	0x3fc0e07ceb96983f	0.131850829156237
6	0x3f9cf93ff106fb21	0.028294562421929407
7	0x3f6ae6b5ea66ff73	0.003283839515660186
8	0x3f85859569b2de40	0.010508696830910158
9	0xbfcc9c9e9f2b423f	-0.22352965137408096
10	0xbfa3dbad25d9df01	-0.03878537261056004
11	0xbfa66b073a7beaca	-0.04378531063954012
12	0x3fa7829b8f5d56fa	0.04591833233886962
13	0x3fa23582516c65de	0.035564491691001385
14	0x3fb1acba01ed7016	0.06904184863145732
15	0x3f865276c9551a81	0.010899475115946135
16	0x3fc2e615b4f9ee72	0.1476466306374849
17	0xbf559b62c2afce42	-0.0013187851388892923
18	0x3fc665371af1d517	0.1749638444486343
19	0x3fbf71d3d4e92c62	0.12283061931627651
20	0x3f9e6c228f15a4aa	0.0297093772727847
21	0x3fc71bd4e09068c7	0.18053685154956708
22	0x3fb2a777f8b67279	0.07286786863410012
23	0xbfabfdf6d7e31ba5	-0.05467196832028457
24	0xbfb4de029835ce95	-0.08151260582035953
25	0xbf7c688592ead1c4	-0.006935617230443506
26	0xbf8103f775024e20	-0.00830834699471611
27	0xbfac92f692796d1f	-0.05580874002472513
28	0x3fbdf27028f890d8	0.11698056221263486
29	0x3f6e2249de7c7e0f	0.0036784594302756777
30	0xbf6447bab4c49779	-0.0024756094554900213
31	0xbfad3907e6b5ee04	-0.057075735962794055
32	0xbfc171ac568490a2	-0.13628153061393272
33	0x3fa17e4f1df5e2b1	0.03416678658226625
34	0xbfafd4113d634118	-0.06216482042657584
35	0x3fc592cc3c2cd18c	0.16854241312252005
36	0xbfd19162e7150c6f	-0.27449867788909094
37	0x3fb13444ff36669e	0.06720381956838614
38	0x3fb1099c2c5d5318	0.066552887755574
39	0x3fcb66694b45fd49	0.21406284499605935
40	0xbf9f3bb605de4e92	-0.0305012169915942
41	0xbfc2354e47fc95b4	-0.1422517634866104
42	0x3fb445596b1b6aae	0.07918318619651174
43	0x3fc584b722a6a7f5	0.1681126517481172
44	0x3fb7092949d676db	0.0899835400836894
45	0xbf7df0fe84b25549	-0.007309908115663185
46	0xbfad9d320c1035fd	-0.05783993146188136
47	0xbfc234973669d125	-0.14222994000341163
48	0xbf777fe1f61bb13d	-0.005737192784846021
49	0x3fb6807ddc7a8fff	0.08789812691480846
50	0x3fccf00bc58d3c45	0.2260756220443644
51	0x3fadbaeade38db2e	0.05806669199630786
52	0xbfb3aaf3145ec81f	-0.07682723281212177
53	0x3fa53a8596975b6d	0.04146211112281759
54	0x3fba4a47740aa6ab	0.10269590933844579
55	0xbfa5b3760000b324	-0.042384803295453716
56	0x3f96f8be5af0f14d	0.022433256435975314
57	0x3fb0f4f14c4cb872	0.06623752701554667
58	0x3fb4479fc0433208	0.07921789592655426
59	0xbf83aeecb5e41cfc	-0.009610986042857032
60	0xbf9a601b7f252179	-0.025757245669667726
61	0x3f9959d241b30e28	0.024756703624701754
62	0x3f90abd02559226c	0.01628041484790048
63	0x3fca56a5683ecdfa	0.20576922979454065
64	0x3f884ce852b3d33b	0.011865439437750083
65	0xbfb7d43281505b74	-0.09308162362172628
66	0x3fa94b77201a6d18	0.049403879803515405
67	0x3fa9d18ddf4589c2	0.05042689657672696
68	0x3fb458bb80625111	0.07947894939781387
69	0xbfbda799bb627aab	-0.11583863091298478
70	0xbfc8b8351301fcd6	-0.19312156131852615
71	0x3f6b9ac976908fec	0.00336970661420998
72	0x3f9462dfed7e01da	0.019908427114843842
73	0x3fb2274d28862733	0.0709121917663225
74	0x3f5818a2cbf9ea8f	0.0014707174122167465
75	0x3fa41ae93d953db1	0.039267815368130406
76	0x3fc179be0020b064	0.13652777677760064
77	0xbf9b723a3aa602dd	-0.0268029306694214
78	0xbfabfd07991ba0fe	-0.05466483825677136
79	0xbfa02eb2a03850f4	-0.031606275613883655
80	0xbfa0861ea889290f	-0.03227325255700652
81	0xbf982f64f6044242	-0.023618295207656688
82	0xbf9e59633faf0087	-0.029637861978472315
83	0x3f794afde227d1b5	0.006175033313855873
84	0xbfb10c6cebe19eb2	-0.06659584769078711
85	0xbf9b106001c391df	-0.026429653270399697
86	0x3f9a66a19eb586b0	0.025782132446130646
87	0xbfa58f55c585bd4a	-0.04210918461000775
88	0x3fa74aa432d1d430	0.04549134369236929
89	0xbfbf79a219e95ab5	-0.12294972546201673
90	0xbfc5d4afae55792f	-0.17055316936871054
91	0x3fbd15e9dfb4b5a2	0.11361562453813304
92	0xbfa6252a8a3c6c64	-0.04325230538798833
93	0x3fa3fdf6c87af5a2	0.0390469665266935
94	0x3f9e6c7e1ca657fa	0.0297107415186346
95	0xbfadc7bb083dbbd6	-0.058164448505401076
96	0x3fba661cd15e3bcb	0.10312061416173816
97	0x3fb9fab73d635f4a	0.10148186920866667
98	0x3fac4a9ee6d74291	0.0552568108356627
99	0x3faa029bbc365ab0	0.05080115005983055
100	0x3f7838a3da144f72	0.005913391157509428
101	0xbfb4a15d9ef82da5	-0.08058724528398516
102	0x3fa96fb2ddefdd0b	0.04968031844321715
103	0x3fad767862016e15	0.057544481242725855
104	0x3f9f91b5cfeee58d	0.030829277816996337
105	0x3fb962e0f12bf843	0.09916501892073008
106	0x3fa6117530c8ebd3	0.043101942258054436
107	0x3f8f3cafc8fd780a	0.015252469369155381
108	0x3f9f815316826239	0.03076677155385907
109	0x3f8dae4089e6cae3	0.014492515762730423
110	0x3fa89293d33684aa	0.04799329713137841
111	0xbfa0dc6614b8b5e8	-0.032931509046061624
112	0x3fafa5eb98e69872	0.061812746443408964
113	0xbfbaa10fb93b7661	-0.10402010223648396
114	0xbfaba2f61dfb2bd0	-0.05397767177563362
115	0x3fb479064cf04277	0.07997168901807493
116	0x3fc1e8df15291df9	0.1399191716502484
117	0x3fb382e4e1a6ef9f	0.07621603497585604
118	0x3f8999e8a6502975	0.012500588965868012
119	0x3fc5b2018c30827e	0.16949481339635847
120	0x3f975e5525a78386	0.0228207878334419
121	0x3fbb7deb8408d848	0.10739013646602402
122	0xbf963843d83c424b	-0.021699009011231046
123	0x3fc8c4016af9efca	0.19348161433651817
124	0x3fb5d5253d008634	0.08528359164531524
125	0xbfc873aa076f91da	-0.1910297905261718
126	0x3f9c28ea9aa60c57	0.02749983376407913
127	0x3fb941fb9f00609c	0.09866306907531669
128	0x3f801ebeb0463fb2	0.007871141199558316
129	0x3fb0bda0d764a899	0.0653934980261134
130	0x3f99bb7b55aa3b32	0.025129248717855997
131	0x3fa57e68d8f29106	0.04198005340848181
132	0x3fab12f5c1d329e8	0.05287902823473073
133	0xbf908195b8823d45	-0.016119326960106112
134	0x3fa4edac695e66ae	0.04087580476989437
135	0x3fbaf32ff65ca0fb	0.10527324452107571
136	0x3fab85453c715771	0.05375114786936209
137	0xbf9ad57b0153051b	-0.02620498843748918
138	0x3fb0aba730da9acb	0.06511921828005567
139	0xbfb91f273d820d03	-0.09813161136303354
140	0xbf9ad49a44f23c96	-0.026201639612335535
141	0x3f9c3901d79f574c	0.027561215196178865
142	0xbfbc225f7b574bcd	-0.10989948998694317
143	0x3fb980e258fd1ca4	0.09962286636901979
144	0xbfb3af3599a83101	-0.07689223290816828
145	0xbf7d42e17829779c	-0.007143860568786933
146	0x3fa612a479005e3c	0.04311098076885542
147	0x3f3f3cce85df20cf	0.00047664682449212193
148	0xbfc56974d526ef6f	-0.16728077323738996
149	0x3fa58392a64e0ce9	0.042019446183099
150	0xbf97107fa72ad8bc	-0.022523874834143184
151	0x3f9397ebb8587a25	0.019134219290316907
152	0xbfb2ec031f30fde2	-0.073913760294992
153	0xbfbbdb426d298ffe	-0.10881438412758368
154	0xbfb7c0e32e5eee44	-0.09278697855091261
155	0x3fc85caf17b00e5b	0.19032848984362513
156	0x3f902672b2b00d5d	0.015771667629463127
157	0x3fb431ac1833129a	0.07888293829734963
158	0xbfb7041dbebf6314	-0.08990655810283626
159	0x3fa518d41b477b6d	0.04120505173681619
160	0x3fa7c9665c655d22	0.04645843389396932
161	0x3fa9241488ba63f0	0.049103395166817054
162	0x3fa2152e5290779e	0.035317847803738575
163	0xbfc40277bfec5c1e	-0.15632531043294845
164	0xbfab81595fbc8773	-0.05372123044641244
165	0x3fbfa2652f80f452	0.12357170495757089
166	0xbf5d9df3dda19c42	-0.001807678365844515
167	0xbfb936f83ab1e951	-0.0984950202272661
168	0x3fb3b8e4b37b3ebb	0.07703999883528471
169	0x3f78306d35ec67e1	0.005905558208519652
170	0xbfb0082adb09e510	-0.06262462470649077
171	0x3fc3b08f43f8634f	0.153825672329527
172	0x3fad12edfa3484ea	0.056785046379681806
173	0xbf866718dbd84bf6	-0.010938829621442974
174	0xbfb913058a5ab799	-0.097946497228547
175	0x3fac04a428cac7e3	0.05472290990782349
176	0xbf882b9b373bf4aa	-0.011801922438730312
177	0xbfa6c48425aca42c	-0.044468049620555256
178	0x3f9e8031a8ca09cd	0.02978589623172372
179	0x3f8175cad26fa688	0.00852545218181723
180	0xbf99916120e947c1	-0.024968640931838374
181	0x3fb192ff89c68c19	0.06864926446591858
182	0x3fad3d4cfdde885d	0.05710831259718028
183	0xbfc1fc691dc2f7ed	-0.14051546052172573
184	0x3fac51dfe835867a	0.05531215390761886
185	0x3fa9dadf781c30ad	0.05049799290836297
186	0xbfc3377ee79c7f5c	-0.15013109501978306
187	0x3f961f0efa4e68d0	0.021602853801234556
188	0x3f7ac9a49b7d76c0	0.0065399579978852596
189	0x3fc4f9575fa4d1c7	0.16385929269894303
190	0x3f9b885a38f0d237	0.026887330747017848
191	0xbfb64d867bde4f2f	-0.08712044262057071
192	0xbfb57730de004ffe	-0.0838499586100738
193	0x3fa51d126cd6ab42	0.041237426553684134
194	0xbfc0e53892d8b7a6	-0.1319952694915944
195	0xbf7c4020cf4d32a1	-0.006897094882174188
196	0x3fa48bed1f723c9e	0.040130052651073486
197	0xbf92555a65f73982	-0.0179037213072717
198	0xbfafef02d108b21d	-0.06237038423237016
199	0xbfc0affd39287489	-0.13037076273841233
200	0x3fa7403ca4a2046c	0.04541196355513297
201	0x3f8b0d93112d200c	0.013209485017469567
202	0x3fa6d0073eebdadc	0.04455588000376107
203	0xbfb94bf3d33c7450	-0.09881519229061664
204	0x3fa394e3e7392413	0.03824531743573103
205	0xbfc22588ac194213	-0.14177044299368954
206	0xbfa390114fe6f6fc	-0.03820852375382164
207	0xbfb66d8ee3a2f1cd	-0.0876092248681239
208	0xbf960309a4f335fd	-0.021495962803603764
209	0xbf3639106691478f	-0.00033909464270209187
210	0x3f9e2605f6d5a792	0.02944192236956373
211	0xbfc1151a6b454bd1	-0.13345651853396004
212	0x3fa0ae23914917db	0.03257857464318167
213	0xbfb67cdaf19f696d	-0.08784263991348036
214	0xbfa9dd0970a4461b	-0.05051450252552688
215	0x3f9d326ce8d58245	0.028512670241413813
216	0x3fa39e7691e429ec	0.03831835299395778
217	0xbfc0c14676276d05	-0.13089829224814067
218	0x3fb64135e199188f	0.08693253286137036
219	0x3fb455423037967c	0.07942594220329541
220	0x3f938e2064f8c2d4	0.019096857226204758
221	0xbfc6312edc8ee7c4	-0.17337594766087083
222	0x3fbc040b674b8e22	0.10943671485761589
223	0x3faa052be476cdbe	0.050820705069237956
224	0xbfa49186f3c8f476	-0.040172784098538125
225	0x3f91c85bc6a73e5b	0.017365869521937288
226	0xbfb61c7d38a6ea55	-0.0863722098646716
227	0xbf7f7a080a4aa0c4	-0.007684737593685213
228	0xbfc44bc28e5856e0	-0.158562011246139
229	0x3fbe0472d011287c	0.11725537853013351
230	0x3fb1133845a3c55d	0.06669952106655815
231	0x3fb0859837df851c	0.06453849186029398
232	0x3fc0500c6a185ef5	0.12744288616590152
233	0x3fb4dee5666fb7e2	0.08152612448586141
234	0xbfa6037c9c4dfd1f	-0.04299535186782521
235	0xbf8eb9cb2d9fda10	-0.015002810792776905
236	0x3f6de25eb55f461d	0.0036479806685541087
237	0xbfb0b375c6187357	-0.0652383431083313
238	0xbf85015ca1d2b370	-0.010256503761718355
239	0xbfc13db37d3b52c7	-0.13469546904402405
240	0x3fb8a1a923855f97	0.09621674649440447
241	0x3fc2b29bbad2c471	0.14607569334251339
242	0x3f70ae6c02ee9dd2	0.004072591705074529
243	0xbf693db6d5b9b779	-0.0030811854356249083
244	0x3fb102437a6e1c66	0.06644078959480879
245	0x3f775d60b9779fa5	0.005704286413198566
246	0x3fa65191b06d24a7	0.043591072832506676
247	0xbfa8c2d6a481c5c5	-0.048361499387179964
248	0xbfc5c026fd53cf1e	-0.1699265229177564
249	0xbfc92169dab330f4	-0.1963321988936354
250	0x3fb43a613641fc6b	0.0790158040490369
251	0xbf825ee28d0d0979	-0.00897004120782151
252	0x3f5bc728d3d417c4	0.0016954325395217443
253	0xbf8a9b53525573e0	-0.01299157233250442
254	0xbfac2a5fc0c1c9ab	-0.055010788230805595
255	0x3f94dfd06f2a79f7	0.020385033402471078
