2layer_test/bias2.npy (npy, 2176 bytes, 1 tensors)

array f8 [1, 256]
000000 05 c8 67 51 cd 59 1e 3c 9a 70 b3 5b a0 b4 54 3c
       4.113298942163146e-19 4.4898052012466565e-18
000010 83 ef bd ce 2e 48 37 3c df fb 82 9b 32 7b f2 bb
       1.2621178097363083e-18 -6.261687999255699e-20
000020 59 3e 73 60 f6 a3 33 bc 8d ce 80 43 38 da 33 3c
       -1.0647124545398377e-18 1.0762018997153384e-18
000030 51 f3 29 ea 55 a9 3a bc e3 3c c0 9f af ac 34 bc
       -1.4453210332289848e-18 -1.1207698620077274e-18
000040 f1 28 95 87 68 c5 0c bc 3e 3d 5d f6 86 f0 25 3c
       -1.949607348758594e-19 5.946729480964171e-19
000050 5d 3e 19 99 ec 84 53 3c 09 52 40 c5 77 93 3f bc
       4.232559441733863e-18 -1.7117409000101902e-18
000060 6b f1 37 c1 dc aa d9 bb df a2 63 a8 1e d9 45 3c
       -2.174115968629194e-20 2.3687783560231297e-18
000070 ba 83 50 f7 2e de 52 3c 48 49 d0 a6 67 e5 52 3c
       4.091324532936103e-18 4.097441320296905e-18
000080 ce fc 1c 90 5f 6c 4c 3c de cb 9f 41 13 09 3e 3c
       3.0816639577374667e-18 1.6282250113344583e-18
000090 d7 0e 59 9a 1f 4d 4a bc 69 f6 42 5d 42 02 04 3c
       -2.851588699579394e-18 1.3558507302799413e-19
0000a0 e9 a3 14 82 5f a0 03 bc 1b 42 7b 80 db 67 22 3c
       -1.3299404802784568e-19 4.988873106644726e-19
0000b0 2d c5 8f aa b5 c0 37 bc 03 9c e2 d0 5e 18 18 3c
       -1.2876403506316694e-18 3.2655080864704295e-19
0000c0 98 51 e7 df 49 98 40 3c 1f 47 da a6 c8 b0 3c bc
       1.7992201952805957e-18 -1.5553184664113879e-18
0000d0 6d ec 30 19 51 42 04 bc 52 a7 7e cd 7e ae 51 bc
       -1.3728066239270947e-19 -3.834090674258962e-18
0000e0 c1 63 f0 18 1d 58 54 bc 9e 33 97 c5 6f 61 46 3c
       -4.4114438645807585e-18 2.4265107884054573e-18
0000f0 ba 9d d5 78 14 16 36 bc fe 18 68 ce e7 cc 4a bc
       -1.1972980049933312e-18 -2.9057065003968415e-18
000100 34 f3 f8 39 ab 9a 30 3c cd ee e1 55 ee 9b 45 3c
       9.001141416615649e-19 2.3428639086063144e-18
000110 13 6f fb 89 a6 37 30 bc cc 20 cd 5b 35 e5 14 3c
       -8.791461988392504e-19 2.831847364785544e-19
000120 aa cf c7 4b f4 af 55 bc e1 5a d3 eb b6 79 35 3c
       -4.70268819792664e-18 1.164186336629335e-18
000130 7c c8 29 70 f4 89 40 bc 8b 7d 0a c6 9b 81 06 bc
       -1.7931496218404433e-18 -1.5250850689785804e-19
000140 43 59 13 42 db ab 45 3c 02 13 13 a0 e4 44 0d 3c
       2.349608611321533e-18 1.9833522807695004e-19
000150 91 6b ae 13 86 1b 35 bc 48 a4 50 ad 07 7a 32 3c
       -1.1442406592996316e-18 1.001622810403488e-18
000160 0f 0e 49 d5 10 a4 3e bc be 8d 78 ed 1d 1a eb 3b
       -1.6610455336176855e-18 4.591260633000784e-20
000170 be 61 4a 22 cb e5 3d 3c 00 ed fd 62 7a ad 0a bc
       1.6207538147973939e-18 -1.807747793868385e-19
000180 b2 5a 5a 7b af 79 0b 3c 52 8f f1 b9 11 36 44 bc
       1.8618010433649208e-19 -2.1913035603200086e-18
000190 8a a8 a9 26 a0 57 45 bc 77 30 2e 5b 17 23 49 bc
       -2.3139354430731617e-18 -2.7253671473385878e-18
0001a0 0b 09 20 c0 f4 d3 33 bc 05 38 ca 94 1f ef 0f bc
       -1.0748755046881585e-18 -2.163937136645147e-19
0001b0 27 80 e8 b2 97 30 4c 3c cc 73 13 23 a2 c6 52 bc
       3.056345838405686e-18 -4.071376810887591e-18
0001c0 10 08 b1 80 24 b2 16 bc 8e 25 b3 b8 c3 9e 3f 3c
       -3.0758638755342026e-19 1.714133065785739e-18
0001d0 ba 80 3f 38 2b 58 40 3c e2 26 11 b8 6c 07 d0 bb
       1.772064426683231e-18 -1.3577093373512606e-20
0001e0 bc 5d de 57 77 66 65 3c d7 5d c7 4d 85 68 3a bc
       9.280882717411799e-18 -1.4315959471980155e-18
0001f0 01 cc 55 0b 6d d9 02 bc ed c7 d5 e8 98 7d fb bb
       -1.2772796149226175e-19 -9.314182476506007e-20
000200 b5 bd 57 f0 d1 89 4c bc d4 28 84 ae 47 36 d8 bb
       -3.094135154520923e-18 -2.0508388210725616e-20
000210 23 5d ee 26 0a 99 41 3c 23 e2 24 5f 9c e1 4f 3c
       1.9079585088889556e-18 3.4565766364764665e-18
000220 8f e5 b4 52 7a 0f 27 bc 21 82 04 a4 12 cd 43 3c
       -6.250550275923963e-19 2.146835843257042e-18
000230 3a d1 70 0a c9 8f 52 bc 6d fb 89 14 67 e2 49 bc
       -4.024918720560462e-18 -2.8063906861898124e-18
000240 75 ae ab 84 35 f4 34 3c 6e a7 b3 57 4f 23 4b 3c
       1.1359154515224102e-18 2.9423002035840233e-18
000250 44 68 23 60 5f 4e 2e 3c af 79 a0 9b 53 08 3f bc
       8.214496469987703e-19 -1.6822765920953773e-18
000260 51 83 ca 22 f1 33 46 3c c5 77 d9 e5 d7 a5 47 bc
       2.407243045510341e-18 -2.5639023878960127e-18
000270 cc 72 3a f2 10 0c 0d bc 8e c4 ef 97 dc cb 40 3c
       -1.968310333146801e-19 1.8210622614598608e-18
000280 9f ac c6 ea a9 aa 26 bc 90 7d 29 ed 4b 9e 0f 3c
       -6.143809210591425e-19 2.142542467033754e-19
000290 81 1c b7 6c 44 05 4a bc 8f 73 2f 0d 78 f3 3e 3c
       -2.8211564299497765e-18 1.6778598145516481e-18
0002a0 ee 0e f6 0e f2 5a 56 3c 05 72 95 ce be a6 34 bc
       4.847523428390587e-18 -1.1195118716211081e-18
0002b0 e3 dc 44 d9 78 5e 4a bc e8 33 16 9a 87 db 2f bc
       -2.858936124398251e-18 -8.635002942392375e-19
0002c0 45 d3 26 79 7a 57 f8 3b ce bd b3 0b 5b 15 52 3c
       8.24729300676405e-20 3.921216757829416e-18
0002d0 a7 ee 5e 81 ec 3c 63 3c ba 05 79 00 b7 e5 20 bc
       8.3431455257144e-18 -4.5800287489916325e-19
0002e0 1d cc fe 5a dd 8b 01 3c 4b 96 9e 1b 5e ec 38 3c
       1.188986678083523e-19 1.3510953950915446e-18
0002f0 49 31 9f 18 49 1d 5f 3c 1e 75 e8 5d af 8d 42 bc
       6.746859279849266e-18 -2.0115698533361955e-18
000300 51 9c 20 71 a5 05 2e 3c c7 ef fe ab 56 9f 43 3c
       8.137494501238459e-19 2.1274666335916393e-18
000310 be f3 6b b4 b3 be 23 3c 6d d6 33 56 44 ab f5 bb
       5.351873885796855e-19 -7.341746665136401e-20
000320 50 bf 5f 5e d4 2b 3f 3c da e8 3e 01 f0 92 5a bc
       1.689794638764259e-18 -5.762312216712621e-18
000330 e9 6e a3 33 14 15 40 3c da ae c5 74 87 3d 42 3c
       1.7436507428528898e-18 1.9776225087532044e-18
000340 af 49 bb dd 7d 84 32 bc d6 ee f4 61 42 32 45 3c
       -1.003838156526333e-18 2.2981102067725588e-18
000350 b6 5b 63 b2 b6 58 18 3c 6e 10 49 ed e9 cc 44 3c
       3.299571137741954e-19 2.2551887051773993e-18
000360 bc d9 21 be a5 b2 39 bc 73 cc fd 70 ae 1b 4f bc
       -1.3930827809111327e-18 -3.3727502685359794e-18
000370 97 05 e9 cc a2 91 4a bc d5 cb 27 14 cb 89 2e 3c
       -2.880604867858115e-18 8.277410599809245e-19
000380 49 10 1c 05 b3 bb 02 3c 0e d7 1c e5 02 a3 39 bc
       1.2694110342010293e-19 -1.3897717028716384e-18
000390 10 da 5f 8d cf 9e 04 bc 01 3f 43 ff 60 9f 27 bc
       -1.3972895713677993e-19 -6.402911460743486e-19
0003a0 60 17 c8 98 78 8f 3a bc 2d b3 ff 68 8e d8 43 bc
       -1.4398440074329994e-18 -2.1516992838589087e-18
0003b0 9f a4 32 a8 88 76 43 bc 9b be 18 dc 0d 4e 29 3c
       -2.110185151690041e-18 6.858906612984808e-19
0003c0 0f 35 aa fa 69 98 37 3c 61 0f fc d1 8c b5 3b bc
       1.2791074142601962e-18 -1.5021176575013129e-18
0003d0 fd 9c e4 ff 89 94 45 bc 54 b0 f6 2c 89 69 2f 3c
       -2.339733301474103e-18 8.514307256235975e-19
0003e0 6c 89 d3 d6 2a 08 53 3c 64 40 6d 77 9f 72 40 bc
       4.126886261930913e-18 -1.783268169182466e-18
0003f0 22 65 61 d9 05 46 49 bc 54 fe ba a1 6d 9f 46 bc
       -2.740161260962016e-18 -2.4527652693068562e-18
000400 84 13 8a 95 a1 d5 52 bc d6 a1 14 52 fc 4f 03 3c
       -4.084080475778398e-18 1.308662099125712e-19
000410 59 58 c7 3b b4 2e f5 bb ae 2a 0a 4d bc f0 5d 3c
       -7.176889035430215e-20 6.49228354329256e-18
000420 31 5e 35 63 0a 1b 21 3c 6a 54 3e 18 42 98 fb bb
       4.636489556863107e-19 -9.349467856915108e-20
000430 87 06 93 61 2e f0 20 3c 78 78 89 4c c4 d1 5c 3c
       4.591110402057328e-19 6.249211550712683e-18
000440 0b 05 99 00 bd 81 28 3c c3 8a ab ba 7d 0a 54 bc
       6.642578792993546e-19 -4.345695022375152e-18
000450 63 c8 04 7c af 00 17 bc 0d 99 39 6b 10 1e 23 3c
       -3.1174441392287575e-19 5.1817919615903555e-19
000460 e0 ea 29 34 e0 18 2a 3c 5d e4 9a e0 d9 7f 58 bc
       7.073652394610142e-19 -5.312464507955607e-18
000470 95 1f 91 17 a2 9f 38 bc 86 ee 42 04 68 49 09 3c
       -1.33484624604392e-18 1.7134963843093392e-19
000480 b3 55 c5 14 2c 08 29 3c 4a c4 1d a2 0e 6b 3e 3c
       6.7849162228127085e-19 1.6489734944218256e-18
000490 d1 63 aa 14 0c d0 52 bc b4 b0 c6 cc d7 31 5f bc
       -4.079350645742546e-18 -6.76427210582188e-18
0004a0 01 5d 53 22 24 b1 ff bb 62 06 87 7d b7 f4 2c bc
       -1.0737652904266903e-19 -7.848519154576767e-19
0004b0 64 e9 a8 a0 e7 8c 55 3c 6c 8a 41 88 7b bf 40 3c
       4.673000128420112e-18 1.8158194894041618e-18
0004c0 18 be 5c d0 cf 81 15 3c b2 6b e9 67 5a d5 43 bc
       2.9147524832508815e-19 -2.1503427006295666e-18
0004d0 0d 1f c4 2b cc 79 32 3c 57 eb d8 a4 c2 87 47 bc
       1.0015735881522496e-18 -2.5511617320349688e-18
0004e0 c5 d6 64 af c5 0b 3c bc 30 82 dd cf 58 f0 34 3c
       -1.5203759033935917e-18 1.1350976128635715e-18
0004f0 87 65 65 16 19 be 47 3c 89 3e f5 a5 2a fc 02 3c
       2.574174630467724e-18 1.2864753859235929e-19
000500 24 77 34 03 4e c2 4d 3c 13 9c a6 c4 d8 3a 09 bc
       3.2264775569786466e-18 -1.7096424997093068e-19
000510 d2 f9 f8 b1 67 3e 37 bc fc 30 a1 6e 28 73 3b 3c
       -1.2600472837042273e-18 1.4880585747771845e-18
000520 17 cb f4 6b 5e 98 29 3c 3d d8 ed ea 44 ed 05 3c
       6.937590357027483e-19 1.485819988266314e-19
000530 71 00 be de 6c 1a 05 bc c2 96 63 7c dd 72 16 bc
       -1.4300100631149184e-19 -3.042365093921936e-19
000540 b3 a5 c7 4a ba 35 23 3c 70 0d e9 bc b2 c5 4b 3c
       5.20684673816541e-19 3.011074308118076e-18
000550 df f0 a1 49 9b 4e 3a 3c fe de 2b e9 1d b1 39 3c
       1.4261084176172634e-18 1.3927586651779824e-18
000560 74 9b b9 4c a4 1b 44 3c 07 53 b4 8c 99 fc 40 3c
       2.1801111008237334e-18 1.841703653879111e-18
000570 67 c7 4c 8e 36 07 38 3c 19 5f 10 e3 5d 8c 51 3c
       1.3025700421892104e-18 3.80518264498697e-18
000580 1d 33 37 0d 43 4d 36 3c 86 90 6a ac 6a 6e 18 bc
       1.2089832377717244e-18 -3.3110606282100923e-19
000590 b5 63 12 12 2d d6 06 bc 84 c4 68 34 c5 98 45 bc
       -1.547469917416212e-19 -2.341525314059063e-18
0005a0 5d 89 3e c8 6b 35 31 3c 2a db 1b fe c2 e8 49 bc
       9.328841885135175e-19 -2.8090838413126456e-18
0005b0 10 d8 af 3b 2f c2 54 bc 02 bf dc 29 8f 19 32 3c
       -4.501289363099492e-18 9.811943332492412e-19
0005c0 13 88 23 8d 37 69 63 bc b7 c2 70 f2 a4 8c 24 bc
       -8.418181037635103e-18 -5.569923833136377e-19
0005d0 d3 37 24 fd 4f 2a 46 3c 4e 27 bc 57 50 83 54 bc
       2.4031648017856854e-18 -4.448035837776319e-18
0005e0 0d ab 7b 9c 45 e6 05 bc dd cf de ad 97 41 39 bc
       -1.483967820829082e-19 -1.3691424670776891e-18
0005f0 51 30 81 ac de 69 2a bc b5 57 88 25 3f d9 46 bc
       -7.159408152925665e-19 -2.47725232155105e-18
000600 e3 d0 28 0f 63 05 48 bc 71 24 c3 e5 35 f8 29 3c
       -2.6043666760601997e-18 7.039066706555313e-19
000610 ef ce d4 7f ca c1 16 3c 9a a2 5a 4a 02 46 00 bc
       3.0841480824199035e-19 -1.1027333864718141e-19
000620 ab 5c 3d c5 de d4 18 bc b7 b5 bd 2c cc ad 4a bc
       -3.3652990614972447e-19 -2.892531777222015e-18
000630 43 de ef b0 40 d1 27 3c 27 f8 de e6 24 33 55 bc
       6.455717405629021e-19 -4.596969902694697e-18
000640 33 94 b9 e2 89 38 45 bc 56 89 10 04 ab cb 05 bc
       -2.3007695974059584e-18 -1.4769258302513733e-19
000650 a6 08 f3 e0 6e bb 1c 3c 20 fe 55 ab a8 e0 45 3c
       3.893933871204448e-19 2.3719712922302187e-18
000660 e9 fb 9a 27 b4 94 21 bc 78 af 51 0f 53 48 24 bc
       -4.765305430716586e-19 -5.497587355127764e-19
000670 67 fa a5 37 ce a5 1b 3c a9 7f 2c 74 a3 43 65 3c
       3.7469590523634503e-19 9.221882310352021e-18
000680 af fc a5 24 66 06 08 3c 40 a0 da ea 6f 35 50 3c
       1.6279970590541148e-19 3.5147100017669714e-18
000690 6d 73 62 0d 0f 97 3b 3c 0a 3d 0c 26 5e 4f 27 3c
       1.4956608775713594e-18 6.318196384916377e-19
0006a0 d4 fa d3 9a 73 28 14 bc fe 1a 65 cd 1c 4f 39 3c
       -2.7319203200122237e-19 1.3720054410391594e-18
0006b0 f3 89 12 f8 0c 05 20 bc 3e 27 99 ed 40 da 10 bc
       -4.342156284525169e-19 -2.283946852235835e-19
0006c0 90 53 ec b7 63 fe 44 3c 5e 44 bf f3 74 96 41 3c
       2.27614249960909e-18 1.906864645350496e-18
0006d0 66 64 a7 7f 71 a0 f8 3b a6 e7 6e 78 d3 36 45 3c
       8.343861304711964e-20 2.3000443002953798e-18
0006e0 ca 20 b5 cf 45 ba 23 3c 00 35 44 20 a3 96 49 3c
       5.347184212550258e-19 2.7743027716544666e-18
0006f0 26 68 e4 18 c4 b2 21 3c d5 46 e8 bb cf 21 1b bc
       4.797135102983187e-19 -3.6770819705460237e-19
000700 47 23 78 6e 46 78 3c 3c 01 2c 16 ee 81 cb 41 3c
       1.5433522894857356e-18 1.9293324885683564e-18
000710 1f c0 36 85 9a d8 1c 3c 87 fc bd ae 84 41 52 bc
       3.9093765922074933e-19 -3.9586239723719276e-18
000720 a8 5e 53 05 c8 a9 52 bc dc 59 f2 a6 f2 e9 3d bc
       -4.046938202356417e-18 -1.6216335364236105e-18
000730 80 1d 92 6a d0 97 64 3c a0 b7 32 f9 e7 de 3d 3c
       8.93080051328377e-18 1.6192953626006297e-18
000740 64 11 be 76 5c 31 38 bc 12 aa a0 51 a8 5b 36 bc
       -1.3114952448803836e-18 -1.2120316193799838e-18
000750 41 06 62 6b 2d 1b 3b bc 97 f4 b9 c9 42 79 57 bc
       -1.4694279753498513e-18 -5.090041962985266e-18
000760 78 05 ab ea 6a 6a 58 bc ab c9 d8 b6 fb 6e 42 bc
       -5.2943096779325865e-18 -1.998567148860322e-18
000770 c8 6b 92 ea 99 12 32 3c f6 3f 3f e9 4e f4 ff bb
       9.797209200761907e-19 -1.0826547818029706e-19
000780 06 cb de c0 21 4e 47 3c a6 9a 5e 3f 88 dd 1f 3c
       2.5267551219750128e-18 4.318561597524224e-19
000790 f8 40 c3 4c 70 39 55 3c dc ee fa 4f ac ff 41 3c
       4.602301571481812e-18 1.951425460990974e-18
0007a0 7c e4 c3 9d e2 eb 40 3c df f8 c2 15 44 7b 0b 3c
       1.8346247524498038e-18 1.8622193932258856e-19
0007b0 ce b6 47 92 c2 37 34 bc cf 78 70 80 d8 ad 20 bc
       -1.0960098212056884e-18 -4.520874994896824e-19
0007c0 e8 ff 9b cc 30 5f 22 3c 2d c5 e5 02 98 eb 34 3c
       4.979696767660945e-19 1.134091098952259e-18
0007d0 ab 36 dd 43 f0 69 4a bc 80 11 fa 13 aa 4b 35 bc
       -2.8637923634487546e-18 -1.1544348341235493e-18
0007e0 04 8c ce 01 93 38 16 3c e0 36 9d ed 31 15 3c bc
       3.0115061309595587e-19 -1.522371264075432e-18
0007f0 67 16 72 af 06 b8 5b bc e4 a0 e3 97 ba ee 5d bc
       -6.010567913633151e-18 -6.490583827359748e-18
