2layer_test/bias2.npy (npy, 640 bytes, 1 tensors)

array f8 [1, 64]
0	0x3f83ae171e44c291	0.009609394656395128
1	0x3fa5554052512246	0.04166604046674087
2	0x3fc959959a9b3f51	0.19804639863149956
3	0xbf78650f1fc00384	-0.005955752447335597
4	0x3fb59d41d325e7f5	0.08443080334646409
5	0x3f7d5c4fd0d9fbe2	0.007168113499232272
6	0x3fb49e5d180491c9	0.08054143749593047
7	0x3faf7c039dc3ece4	0.061493027695144226
8	0x3fbd86b79a6092fb	0.11533687132812169
9	0x3f9809f6df70eeda	0.02347551096703069
10	0xbfa32f3bfc44d086	-0.037469744247943956
11	0x3fb6bb2891ff6356	0.0887933117331959
12	0xbf96a8e9d2d8b4df	-0.022128728384065318
13	0xbf84e9bfbd58acf2	-0.010211465803044526
14	0x3f9bc8b32f5f4991	0.0271327970184046
15	0x3facfec2fdabaeea	0.05663117739262964
16	0x3fa3b7f817a6e8af	0.03851294792862469
17	0x3f9c0028920e4b4e	0.027344354548016363
18	0x3faeea84795a03f4	0.0603829763540559
19	0x3fb2851a604a4bdb	0.07234349108539055
20	0x3faf53238ae80077	0.06118117399819394
21	0xbf7d173afeb56d23	-0.007102232407614015
22	0xbfa695ba2e2e9e9a	-0.044111078393425276
23	0x3fc2f6f79550bf9d	0.1481618384436815
24	0x3faf2de091ea4bb0	0.06089689046088809
25	0x3fb68ee1b4da396e	0.0881177011999392
26	0xbfc08f18bb69bd15	-0.12936696196582234
27	0x3fab91f71635614a	0.05384800096607252
28	0x3fb506c2d3c63c17	0.08213441534302067
29	0x3fc033ad1b7b1d43	0.12657703248826566
30	0xbf730478c0797968	-0.0046429364079741756
31	0x3f99f33266027b63	0.025341784931352317
32	0x3fb50ddbe44e74f2	0.08224272083176112
33	0x3f9a66e1f6fa6b3b	0.02578309125838561
34	0x3fa186e3c54feaf2	0.034232251964530294
35	0x3fc0332609554080	0.12656093078340191
36	0x3fb9ba8f4ced5a30	0.10050292614082745
37	0x3fa19c399e3d3b9f	0.034395027700717444
38	0x3f708c8541011290	0.004040260813842025
39	0xbf9eee1961ce6414	-0.03020515117131957
40	0x3fb3b59e83766135	0.07699003896266705
41	0x3fb0b79c16854861	0.06530166196651656
42	0x3f7591a6fddb2f2d	0.0052658579931621876
43	0x3fa64369a3f4acb2	0.04348306776440704
44	0x3fb083c22fd6b43f	0.0645104758065864
45	0x3faa7b9a9f487910	0.051724273627984485
46	0x3fb6528600668d93	0.08719670781879633
47	0x3f7872e311a322fc	0.005968939769623868
48	0x3fcd4a6ee4555c6f	0.22883402012914497
49	0x3fcb53c4a8c8e26e	0.21349390260162998
50	0x3fb929808eeba09d	0.09828952302234702
51	0x3fc289e6870209e6	0.14483338920770378
52	0x3fa28f8c8315e53c	0.03625144100346708
53	0x3fb0015175df4ebc	0.06252011420957165
54	0x3f8842e3a93e874d	0.011846331217217143
55	0x3fb8b01215456a73	0.09643662471118279
56	0xbf9c5f33d9c9e0bb	-0.02770691887641939
57	0xbf954875b58dcf65	-0.020784224706815197
58	0x3f8fc1140fb4300b	0.015504986504787174
59	0x3fa608b3ab78dd56	0.043035139733940284
60	0x3f99557780278031	0.02474009246532222
61	0x3fabb4b099eb7daa	0.054112929142998326
62	0x3f98bed2657eaf31	0.024165427632097895
63	0x3fa861e0ad85f993	0.0476217471905215
