2layer_test/weight1.npy (npy, 802944 bytes, 1 tensors)

array f8 [784, 128]
0.02508785327896964 -0.006983401782440269 0.0327132112419858 0.07692462424397774 -0.011826531364613256 -0.011825702141796306 0.07976229219871261 0.03876130722157737
-0.023712037277713923 0.027403420430036025 -0.023406128079251173 -0.02352290478213345 0.012220940215403119 -0.09663524537912754 -0.0871215068828262 -0.028399808921637206
-0.05115569667037422 0.01587188713199304 -0.045862141520121 -0.07133210887921751 0.07402644166729615 -0.011403425221802925 0.0034106893897274393 -0.07196065028248351
-0.02749547971946892 0.005602436812187105 -0.05813395454981955 0.018975615460755182 -0.030336835048899356 -0.01473275917918272 -0.03039077327087078 0.09355417606501264
-0.0006817127956708497 -0.05342246931427427 0.04154479179847555 -0.061661915975931826 0.010549204597918804 -0.09897828810600506 -0.06708352584667482 0.009942993916844403
0.037298194742456624 0.008655405264979371 -0.005841120336378689 -0.015208033213679716 -0.07467663753730279 -0.036357622939554336 -0.023265771330221615 0.053392735335886767
0.01735534447811298 -0.08904697495436953 0.016368712316636648 -0.019449592271225502 -0.03418972405362183 0.030894317980742783 0.05207333955406995 0.04703674910080569
-0.042386885825807616 -0.015617583413656948 0.01673132990747034 0.049272469624408045 -0.024201953782164293 -0.009377194384795718 -0.05587835445596466 -0.060417558256264964
0.041038751350293834 0.06850046579421898 -0.003637060377394415 0.050686065517374104 0.018265377545180733 -0.0325834680827632 0.018253234524715563 0.0776825775614972
-0.0018094882284072282 0.07902643851189958 -0.13231710914872258 0.04151234530842334 0.004396540873829929 -0.015102151795645533 0.004634619095371222 -0.10038738982784837
-0.011095105823282525 0.018036908640208696 0.07464492149371006 -0.026176598987737727 -0.0408350935108369 -0.0253425577161957 0.046234788924261624 0.016604438497354657
-0.026756930891888592 0.025923920179761913 0.00490315667464079 0.0489239600977275 -0.035459035959547976 -0.016549437556958754 -0.019804452431305845 -0.07391866744229281
0.014956332568514356 0.013185282373064258 0.0002582685619419636 -0.011848439484905673 -0.07148701782834883 -0.02124579715727067 -0.017309697046224842 -0.04052112124703087
-0.008146158601966665 0.020407650056985346 0.09526677438031608 0.008817511092722085 0.013008259126950824 -0.0037600865621356676 -0.09691258127739322 -0.001339152937548341
0.0030420849915420854 0.12441251438875872 -0.009715695902308455 0.01523044075806276 -0.0017532091246830936 -0.05902715467318272 0.05772126870273336 0.037978353315070275
0.03995314670638117 -0.0459310025722382 0.07085181213377328 -0.07080417090814217 0.02964075932954292 0.11063471620703275 -0.050029639465108036 -0.02860235462661899
0.005033154000569105 -0.025429360656278367 -0.07832033053177577 0.0034629531731188807 -0.0536544399753844 0.02392002994433975 -0.046437936486712204 0.0782835091558742
-0.03956026531411732 -0.01626656300487531 0.04108882435815029 -0.06216803606221386 0.011488461586202038 0.06602067896656899 -0.0811901639858521 0.009325418100345
0.013126063294769183 0.03948801816574834 -0.06247544540395802 -0.06669313038389378 0.02636203003077369 0.014999991167975485 0.012651799508451165 0.01749827701894637
-0.034346435143046056 0.011730583158442314 0.014802395232043634 -0.03608019513119077 0.09423584349967665 0.02393217653758243 -0.060169912951660146 0.03316096491981997
-0.04922885846542637 0.039753775762415317 0.05851791361206355 -0.041450716607599386 0.048657842415850555 0.020848585184376198 0.04152030811967158 0.09580251289583311
-0.012393971489158634 -0.03806942521733707 -0.04492726322510653 -0.04120464176148508 -0.003894224397699125 0.017230776772002226 0.013974995749870192 0.04177906319123522
0.0006566947082230248 0.07341455733169065 -0.013367188676422571 0.1373892902621485 0.0316009731694027 -0.043292994334803145 -0.0540882390929153 0.02436853689670772
-0.011286575060481635 0.03606247079593312 0.023902109532040507 -0.0036784155718655367 -0.042769541450881327 -0.07651133893121403 -0.022552410750555488 0.04325467106186504
0.010813367020291773 -0.0629193098581639 0.008746957645823962 0.019461466579663744 -0.04464154190999838 0.007764290346621659 0.0029399842526675 -0.0577287177350601
0.018070990623221855 0.028323895812818915 0.05470234845869706 0.05322504121586992 -0.06958281087967456 -0.04736731752075199 0.026013209285247772 0.025950109283457246
0.026013836544389154 0.19459232593806491 0.028834325101870683 0.057354726046724605 0.04818436544499773 0.032900226500280016 -0.015923501484624927 0.038333734465904094
-0.03903356784796182 -0.011961145909786464 -0.024514561143622875 0.0041352685117058054 0.11690791204474088 -0.0943111342825164 0.03466137387658497 -0.0814544520460981
-0.02383615875412343 0.05500031082091168 0.0032466312426573203 -0.05443433149015729 -0.03612829310182958 0.034324869767915864 -0.036889085574254646 0.010932809752820728
0.0023017255019381734 -0.032910787458256055 0.10828552886048248 0.032017745671729436 -0.10228514684966139 0.009417365025353808 -0.03342526406679995 0.04305438511027661
-0.040028342026909476 -0.005795065415032691 0.025505709241430294 0.04372724061751207 -0.06062412349021342 -0.016894863727029658 -0.023988360729619067 -0.032998109335733904
0.089168904655522 0.020454665291215857 -0.06368425674282996 0.04635902906825143 0.1071850741174777 0.05214737050537511 -0.07673977186123261 -0.02445751404323622
00000000: 56a9 7055 a1b0 993f 7498 53a4 a09a 7cbf
00000010: 72e9 dc38 c9bf a03f 998d 6209 55b1 b33f
00000020: df32 7d2b 8238 88bf 292a 9cdf 1238 88bf
00000030: 2c8d 7234 4d6b b43f 25d8 bba5 85d8 a33f
00000040: ef6a 84e2 f747 98bf d2a2 2e6a a40f 9c3f
00000050: 6c67 81aa c6f7 97bf f717 fc6a 6316 98bf
00000060: 4c87 69d4 4a07 893f 7456 8b62 16bd b8bf
00000070: c308 d756 984d b6bf a7d3 1fea d614 9dbf
00000080: ef1d 6858 1431 aabf 9b7f a150 b840 903f
00000090: bc29 e81b 3e7b a7bf ba7b ca32 d242 b2bf
000000a0: eb12 009a 65f3 b23f 7cc5 1ed3 ad5a 87bf
000000b0: 009a 57ec bbf0 6b3f b5e9 8f5f 036c b2bf
000000c0: 5157 bb68 c627 9cbf 9814 2eae 94f2 763f
000000d0: 9641 28d3 bbc3 adbf b739 4dff 576e 933f
000000e0: d6bf 9889 9e10 9fbf 47e1 d576 352c 8ebf
000000f0: b8b4 3145 c21e 9fbf 0b7c 9a9e 2af3 b73f
00000100: 8167 d214 9f56 46bf 2b1a 279d 305a abbf
00000110: eae9 2fe4 5b45 a53f adf7 0c91 2692 afbf
00000120: 2099 f945 d29a 853f 60ea 6d1e a456 b9bf
00000130: 7ca1 9ccd 622c b1bf c8cf 930d fe5c 843f
00000140: fbc4 3cbd bf18 a33f ddaa 5fd4 ecb9 813f
00000150: 4a65 11cd dbec 77bf 0c5b 50aa 6325 8fbf
00000160: 677a ff13 021e b3bf bdab f862 779d a2bf
00000170: 4f06 eb7b fbd2 97bf e525 39e8 4a56 ab3f
00000180: 0ef9 c673 99c5 913f 889b 3c55 c8cb b6bf
00000190: ea72 4fb0 f5c2 903f d0db e60a 98ea 93bf
000001a0: ebd1 56c5 5081 a1bf b424 7095 c2a2 9f3f
000001b0: d8a7 c154 5ba9 aa3f 813c 3266 3315 a83f
000001c0: de60 cde0 bbb3 a5bf 899e 0890 1cfc 8fbf
000001d0: 11ae 158b 0422 913f 858d 42bb 3d3a a93f
000001e0: 458c f99f 65c8 98bf 5afd afb9 5934 83bf
000001f0: dea4 e271 169c acbf c431 a1d9 0cef aebf
00000200: b81c d6fd 0703 a53f e0d0 581c 3f89 b13f
00000210: f7ca fbeb 77cb 6dbf 5223 8523 86f3 a93f
00000220: 5894 d2bc 28b4 923f 5a88 9cc3 c7ae a0bf
00000230: d2c9 51d5 f9b0 923f 277a 1862 01e3 b33f
00000240: 5e48 dd30 8ba5 5dbf 068f eda0 133b b43f
00000250: 025d 3f5c c4ef c0bf 57ba f52a 1b41 a53f
00000260: a04b 4c74 1b02 723f f200 7e80 e0ed 8ebf
00000270: 05c6 1a17 c0fb 723f 2acd 3dec fcb2 b9bf
00000280: b3d5 40e5 07b9 86bf e42b ec72 4478 923f
00000290: c9c2 a0f8 ed1b b33f a296 4ad2 09ce 9abf
000002a0: 8ef8 505e 56e8 a4bf 902a 5a42 66f3 99bf
000002b0: 46fd bb14 16ac a73f b021 4201 c100 913f
000002c0: e5eb 7c3c 2b66 9bbf 8fbd 6cd5 cc8b 9a3f
000002d0: 6c33 0919 5515 743f d399 38b1 8f0c a93f
000002e0: 2980 96cf af27 a2bf af1d 4cf4 55f2 90bf
000002f0: 6ed4 074e 9e47 94bf 1882 3a73 55ec b2bf
00000300: 3cbb fff9 6ca1 8e3f 7b8d a5a4 e200 8b3f
00000310: 75b5 f106 07ed 303f 883b c5a0 fe43 88bf
00000320: bd4c a923 f94c b2bf 5528 df4f 75c1 95bf
00000330: 986a de1a a2b9 91bf 5d43 1b35 2fbf a4bf
00000340: 048f 44e6 eeae 80bf acf4 5436 bee5 943f
00000350: cade 5b40 6763 b83f 33ef 334e ea0e 823f
00000360: 4ba5 39fc 12a4 8a3f 0166 101a 79cd 6ebf
00000370: d047 284f 43cf b8bf 411b 8d84 d0f0 55bf
00000380: a144 9cf1 b6eb 683f 044a 83a0 7fd9 bf3f
00000390: b530 44a1 d2e5 83bf ee25 ad27 2331 8f3f
000003a0: 56c5 a0f6 7db9 5cbf cb64 cba5 ce38 aebf
000003b0: c746 b962 a48d ad3f f168 e312 e671 a33f
000003c0: 20d0 f324 bd74 a43f a82b d7b3 4484 a7bf
000003d0: 9c15 fa27 5823 b23f a08a 78de 3820 b2bf
000003e0: 03c5 cbaf 255a 9e3f 9454 e987 8e52 bc3f
000003f0: 9aa7 aa22 7c9d a9bf 04f6 d686 ef49 9dbf
00000400: 5835 40fd a49d 743f 4df3 8181 270a 9abf
00000410: 77f2 3e1a cd0c b4bf 5637 09d4 565e 6c3f
00000420: 3b7d f541 9878 abbf e734 5209 7e7e 983f
00000430: 7b20 0295 b6c6 a7bf 1efe a357 630a b43f
00000440: 178d 7d3b 3e41 a4bf c93e 7f90 2ea8 90bf
00000450: 2ddd b229 9809 a53f bdcd 7c23 7dd4 afbf
00000460: e14b 5a36 4387 873f b468 0531 bbe6 b03f
00000470: 107c 13eb e0c8 b4bf e99d 196e 3419 833f
00000480: 052e 9c64 d6e1 8a3f f323 3605 c637 a43f
00000490: e345 a015 c8fc afbf 3fdf dd0d cd12 b1bf
000004a0: 8e76 5ae3 a5fe 9a3f 90cf 0dbc 50b8 8e3f
000004b0: 72a9 fec8 2fe9 893f 2582 217e 11eb 913f
000004c0: e4dd 581f db95 a1bf b667 3a38 3406 883f
000004d0: 428b 64db b750 8e3f b157 3e74 1a79 a2bf
000004e0: 822c f119 d71f b83f 4a3d 342e ad81 983f
000004f0: 7a3d a940 97ce aebf 6a3a ab57 79fa a03f
00000500: 23c0 4162 8634 a9bf fc8c 955d 9b5a a43f
00000510: 894f 635a 0ff6 ad3f 1468 7340 0739 a5bf
00000520: 9c70 bd43 aee9 a83f ac99 23de 5459 953f
00000530: a3d7 fc5a 2642 a53f f220 c373 8386 b83f
00000540: b03b b5b1 0262 89bf 066c 92f0 d57d a3bf
00000550: bf50 80cc b400 a7bf df31 9e59 c618 a5bf
00000560: bf0d cecd c7e6 6fbf 5bb7 e1da f1a4 913f
00000570: d5d1 a82d ec9e 8c3f ebb3 20bc 1064 a53f
00000580: 218b cb25 c184 453f bf38 cae2 4bcb b23f
00000590: e737 a3b1 4160 8bbf e78f 3fe6 f895 c13f
000005a0: 6197 91b4 002e a03f 8eb6 a0d5 7f2a a6bf
000005b0: 742d 0124 74b1 abbf 4546 17d4 10f4 983f
000005c0: 1d21 2676 6a1d 87bf f9eb 5cb9 c776 a23f
000005d0: 9a6a fb6a cb79 983f ecde a152 3222 6ebf
000005e0: 84c8 97ab e3e5 a5bf 9494 7b42 3f96 b3bf
000005f0: 0477 7aaa fa17 97bf 194b 38eb 7925 a63f
00000600: 38c3 b18d 5125 863f 3bb1 20da 7a1b b0bf
00000610: 27fb 39c8 ece9 813f 40a8 f7e9 b4ed 933f
00000620: 23c9 1795 41db a6bf a5a1 d8d1 72cd 7f3f
00000630: f528 e906 9815 683f 2798 6c55 9e8e adbf
00000640: 6ba7 eea6 3381 923f 0171 d878 f000 9d3f
00000650: e3fb 493b f201 ac3f 6269 b306 5040 ab3f
00000660: 618a 17d9 2dd0 b1bf d43f 4d6f 8740 a8bf
00000670: 269a 93ec 34a3 9a3f 6de0 cc5a aa92 9a3f
00000680: ff7a ce04 5fa3 9a3f 9a70 fabd 66e8 c83f
00000690: 2352 42cd be86 9d3f ba8f 4841 995d ad3f
000006a0: f390 8703 9fab a83f 400b b369 4cd8 a03f
000006b0: 9703 7518 404e 90bf a7ad baaf 7aa0 a33f
000006c0: bad5 b432 35fc a3bf 3aaf 0ad4 157f 88bf
000006d0: cef4 8c59 581a 99bf 368b 49b0 24f0 703f
000006e0: dc34 e04a aded bd3f db5e 6445 c624 b8bf
000006f0: 30fe 77b6 22bf a13f b5ce a6ef 32da b4bf
00000700: 91b1 3e89 8168 98bf eac5 7d30 0029 ac3f
00000710: d6e1 4ce0 ad98 6a3f 4e48 0f13 d1de abbf
00000720: 7852 aa5a 687f a2bf d670 2f82 0793 a13f
00000730: 72d5 3d50 20e3 a2bf fae9 bbe2 f063 863f
00000740: da8b 2a78 11db 623f f23b a3c7 aed9 a0bf
00000750: 60f9 15b5 99b8 bb3f 807b 1a45 a164 a03f
00000760: 78fa 9500 5c2f babf ad19 6356 6949 833f
00000770: 16dc 0dc0 1d1d a1bf 72fd fe6f 390b a63f
00000780: 095d d647 987e a4bf e0d0 f806 91bc 77bf
00000790: 6c81 362c 2b1e 9a3f ec06 cbb8 6a63 a63f
000007a0: 836f 7a07 200a afbf 853d b61c e34c 91bf
000007b0: 5e01 46a3 6790 98bf c386 dad0 20e5 a0bf
000007c0: c3cb 50f9 c5d3 b63f fdd4 e759 11f2 943f
000007d0: 8003 fb87 9c4d b0bf 64e5 71e3 5ebc a73f
000007e0: f932 f423 7b70 bb3f d134 c965 0fb3 aa3f
000007f0: 814d 72ba 37a5 b3bf d421 d4fb 630b 99bf
