2layer_test/weight2.npy (npy, 262272 bytes, 1 tensors)

array f8 [256, 128]
00000000: 79e4 facf 9422 a5bf 37ac 7f7f 5a46 a2bf
00000010: 306d a6c7 2fa3 bbbf 3598 2218 ad51 abbf
00000020: a0b6 e9b7 ea60 bbbf 00bb fe79 b733 ce3f
00000030: 26c8 4a5f 4e24 cc3f 76d4 f07c e007 b4bf
00000040: 2b65 1ca9 cc24 b13f 16a1 b58d b5a3 bb3f
00000050: 884f 4ecb 985b 933f faad 1843 eca9 c9bf
00000060: d2d8 a464 09a7 99bf 8385 65a8 f520 c03f
00000070: 80c6 7399 c4f9 b6bf 5e7a da63 659f a23f
00000080: 8f84 7b66 60be b23f 6b34 b853 4d0e c1bf
00000090: b044 e77e 8060 a13f 898e e792 6148 ba3f
000000a0: 285e 51e9 b2c9 c1bf 736e cc39 a6ba b7bf
000000b0: a3ce 5910 d86c 813f 82b2 2f9a d22f 88bf
000000c0: 2d77 cf5d 1bfb c6bf d4a1 f4fe 1dc6 9abf
000000d0: e3ab f2c3 76ba abbf f7e7 e991 274e 60bf
000000e0: 6953 7a8b a54a 96bf 5b34 896c ac95 b3bf
000000f0: 82fd b25f 5777 bcbf 8745 109d f265 bf3f
00000100: a9c5 5ea7 95f1 913f 10bc 8e98 ce12 b5bf
00000110: 9c2e 0a1a d0c2 a73f 670d 4f28 1eef bcbf
00000120: e881 cc0b 567e a83f a239 7d46 23d2 b6bf
00000130: 9c63 8ee9 882e b4bf 921d 65bb d59b 93bf
00000140: da39 ee2e cba7 c0bf 1461 52c8 b580 c33f
00000150: 8552 91e0 0ced bf3f 8d48 3511 55e3 b7bf
00000160: 7a8a cec6 11a4 ba3f 15a9 c2e7 37db b13f
00000170: f9b8 d88f 3718 c03f bd90 9e39 f76c 913f
00000180: cd67 17b5 a000 a43f dbd3 7a4d 0170 72bf
00000190: fab1 5754 301d c6bf 1585 ce12 0523 c8bf
000001a0: bb08 1ade 81fe b8bf 1dea a774 dc67 b0bf
000001b0: dbb6 be46 3141 943f 62f1 b564 8eec 93bf
000001c0: 677e 4def 8ae7 cabf 8fe7 d23a 62e6 b1bf
000001d0: f6e7 8ed5 84e1 a63f 150e 44d8 0c79 ccbf
000001e0: 5115 6a7e cb79 aabf 25df 1f15 fafa afbf
000001f0: 57df 3038 4630 c7bf b204 f354 2062 65bf
00000200: 25e6 cbf2 3873 d03f 5e9d 5f39 be40 9e3f
00000210: 60f2 aa32 0f71 bf3f cb55 ed07 ee73 b2bf
00000220: 9fda ff7c 8afa b3bf a2ea ff0a c0aa 913f
00000230: 4671 ae53 bfda 993f 645c f31c 8aa5 9e3f
00000240: d5a2 8b92 05bf b93f 1b64 ccfc 6e8e b03f
00000250: a337 b66d c25d bdbf b559 a413 54ac c3bf
00000260: 7cc8 fe38 bd89 9b3f 8b23 ea2a 1938 c6bf
00000270: 8b21 bbf5 1317 b6bf aa7d cd5b ef1c 773f
00000280: e7cc c1d0 162f c1bf 0240 77cd 041c c4bf
00000290: ec81 0f2d 6aeb 87bf be6a 3ab4 d902 69bf
000002a0: 5ebf dc98 28fb 803f 0635 65ab 3ce6 b1bf
000002b0: 1794 49e5 8e75 8d3f 3278 fd1a 9b6c abbf
000002c0: 319c 2520 d1b8 b1bf 9fcd dad8 3127 a7bf
000002d0: c4c7 961d 7d0b 96bf b33d ecde 3e78 d5bf
000002e0: bc87 2c95 629a b5bf 9369 105c 7726 89bf
000002f0: 5c2c 2727 a2ff a2bf cd69 941a d91a c63f
00000300: 83c7 3d1d a777 8bbf 96ee f970 cbf7 b4bf
00000310: 8652 f0db 9074 c53f 8121 6641 f5ec 70bf
00000320: 1d3d eaae a455 be3f a353 6ef8 070f b1bf
00000330: 5a15 0630 dae2 a2bf 3335 a361 6c3b 943f
00000340: 79d3 791a 65ff a9bf 78db 9b01 beb7 b2bf
00000350: e46f 09bf 86b9 c33f 9a83 5154 4969 b63f
00000360: 579d 235b e9de 65bf 62d9 76c1 9479 ac3f
00000370: 9588 7364 f8d8 c63f 8276 02ef 2cd4 a93f
00000380: 9e82 2a11 4d6e 903f 9888 086f f0a8 86bf
00000390: f344 097b c226 b6bf f6c9 b453 a7a5 a43f
000003a0: e533 c52c 91f9 87bf 13d5 cd95 29a0 8f3f
000003b0: bab6 73b4 a665 b9bf e944 ee99 28ce b23f
000003c0: d9fb a231 2114 9b3f a724 8a25 691b b03f
000003d0: ed29 ed57 2658 c2bf e4db c887 edca 943f
000003e0: 3dd9 7577 8898 c4bf dd98 b282 a53f b3bf
000003f0: 6ce1 ad58 e518 b63f c103 f0a9 e24e b0bf
00000400: 1b97 84ce 76bd b6bf 4e6f d7d9 0b5e b23f
00000410: d3bc eca7 f59f b9bf efae 8cd2 fa43 d13f
00000420: bf55 dcb4 1e5b a5bf 1122 ca24 f8f9 b8bf
00000430: 6506 697b fbe6 453f 6214 d513 2224 89bf
00000440: 15b5 4486 b094 c1bf f262 b736 c75b 69bf
00000450: dcbc 5763 8f5e 71bf 2d3b b087 7a4e 83bf
00000460: dbcf 2317 877a ba3f 9f86 3ef5 2804 bebf
00000470: b8ca 4891 94a3 a33f e50b 79b1 294e 90bf
00000480: c65b 8718 5364 8c3f 20ce 66cf 43f4 9a3f
00000490: a721 ea9b 06b8 c0bf cea2 9fe4 7499 b03f
000004a0: e848 8e0e 15f1 7dbf 0276 1baa 4800 7c3f
000004b0: 6076 73ae fff9 433f ff60 9474 faae ad3f
000004c0: 9591 f02b 391c b23f f519 91eb 7bf3 b23f
000004d0: 84cc f5f7 8a6a b4bf 7e44 e1ee 74c3 c13f
000004e0: d67b 8b19 6579 ab3f dfb6 4d5b 5bb7 adbf
000004f0: 9a53 e524 a29b bc3f 89e6 f9c4 c782 9e3f
00000500: 3fa7 0468 b84c 6a3f b2ee a979 4724 be3f
00000510: cc06 3141 38f1 833f f6c6 b1e9 6808 bc3f
00000520: 9c4f 9aab 9983 acbf d68e 3303 cb94 be3f
00000530: daa7 a82c 2ec1 b23f 65dc d742 a798 a13f
00000540: a267 5508 9f83 a63f 69b1 fa88 0a1f b4bf
00000550: 29e7 10f1 0033 9d3f 7da5 ab52 7f9d 8e3f
00000560: 1e49 6a0f b2a6 9f3f 89bf 8817 4708 95bf
00000570: 35c2 340a 1a8d 9fbf b693 b562 04c6 c13f
00000580: e4f3 854b 95bd 9dbf e582 2789 151b 6fbf
00000590: e754 f067 9837 c83f 1ed7 3caf 5ee3 c03f
000005a0: 3d0b bf01 e5c2 c0bf b4f6 fade 6991 c03f
000005b0: bdef f149 df65 a03f 6712 0623 ee1e bdbf
000005c0: 8f4e 7274 63da a0bf 6b68 6925 9947 913f
000005d0: cd63 079e 5e0c a33f 5d02 5699 7c95 a6bf
000005e0: 9e2e be37 49d2 a9bf 2402 6c99 949b b9bf
000005f0: c4bd 6529 a804 a1bf ccaa 2269 1e99 b9bf
00000600: ed77 18c6 585c b2bf 5e76 1128 9937 ba3f
00000610: 8320 a5a6 76bc aa3f 0237 09f3 1809 b2bf
00000620: 2106 1162 5b4a 9abf e229 f279 1b5e b7bf
00000630: 4dcb d91f 3587 aabf 5112 a710 f68a c5bf
00000640: 24dd fb02 2325 543f eb2d 6b56 8213 9b3f
00000650: 4ce0 40e1 84c9 a6bf b336 d2cb 7956 b5bf
00000660: cacf 6961 0667 9b3f 2290 7661 8794 c3bf
00000670: 2593 2b73 19e1 b73f c541 d4a1 bf72 ab3f
00000680: 01c8 68c2 2b03 bc3f ea51 e2db 50e6 7f3f
00000690: b18d 75ae 5214 923f 76b4 4bfd 7325 b73f
000006a0: 09c2 d948 6754 c0bf 3b33 3056 8c1c ba3f
000006b0: 4ade 459f df02 af3f 546c 8296 c0e2 a9bf
000006c0: c3bc 75c1 920f bb3f 1730 280d 1bba c2bf
000006d0: fd35 116a 5842 b93f 62f4 c1e2 6742 a63f
000006e0: 3eff f847 b45f 9d3f 6f87 3fc8 92d7 ad3f
000006f0: a981 daf3 e88c a9bf f6fb c208 0a38 bebf
00000700: 5c49 c65c da2f ce3f 4abf 73a8 214d 9b3f
00000710: d67d 75de 9943 b53f daa3 8f22 b050 823f
00000720: b611 8bf6 0240 c13f cc6a f260 28c8 aa3f
00000730: 1950 a00b 0d7d 923f 189e 017a e71f a3bf
00000740: a7a9 88aa 5728 c83f fa6d d786 85ce 943f
00000750: 8ec9 8e75 1889 b8bf 214b 6925 d0fb c03f
00000760: 4bb3 8469 5330 973f ab00 f6da 8eea a93f
00000770: 0f20 20f9 213f a93f d4ed e03b e11f c4bf
00000780: 4df7 afdf 16a4 9bbf 4e67 bbf9 8f35 ad3f
00000790: 3366 a30b 2ffe 9c3f 10f1 0bbe ad77 823f
000007a0: 70be 2c0c 6b4e 953f 4462 8807 70eb ae3f
000007b0: c7bb df19 a9d7 b43f 8392 4b7e b7ec bf3f
000007c0: 5515 73ac bf51 b7bf e97a af3b 6d08 b7bf
000007d0: a76e 9dd6 0dcd bc3f 047d ee93 be6c c1bf
000007e0: 01e3 cdfb 0ee2 b63f c6fd 6167 3515 a1bf
000007f0: 2e97 82d6 1503 b33f dad2 2f80 3109 673f
-0.041279459369840184 -0.03569300466900709 -0.10795878052015406 -0.05335751456850383 -0.10694758405744631 0.23595326859273058 0.2198579755109346 -0.07824519205390054
0.06696776512798823 0.10796675405220343 0.01890410176163429 -0.20049813533965716 -0.02505125691205807 0.1260058471917028 -0.08974865671532406 0.03637234538949906
0.07321741582883788 -0.13324896419399876 0.03393937634576483 0.10266694866691685 -0.13896786110375214 -0.09269179259393372 0.008508384703623867 -0.011809964495079987
-0.1795381744440702 -0.026146382032637153 -0.054156981868196195 -0.0019903920031625294 -0.021769129407931773 -0.07650258683971016 -0.1111960037842348 0.12264934858855812
0.017523134556261564 -0.08231822228002295 0.046408179453547777 -0.1130236481104042 0.0478388680842306 -0.08914394827772879 -0.07883506490760656 -0.01914915043132976
-0.13012065688640356 0.15236542016351307 0.12471085054978388 -0.09331256551857532 0.1040660009735265 0.0697512570210715 0.1257390453697054 0.017017233745392647
0.03906728945339886 -0.0045013476262072095 -0.17276577108658825 -0.18856872003838335 -0.0976334731331318 -0.0640847954563601 0.019779939597063794 -0.019457077881712144
-0.210191122862841 -0.06992162643555687 0.044689322537536144 -0.222444158171229 -0.05171047132629759 -0.062461676672624734 -0.18116071456619906 -0.002610266826736118
0.257032620531023 0.029543850185203772 0.1228188990307415 -0.07208144849331359 -0.07804170181030166 0.01725292269837076 0.025248517496593757 0.029928358094221244
0.10057101085443361 0.06467336341701506 -0.11471190622816478 -0.1536965461643384 0.026892620662416253 -0.1735869845909089 -0.0862896418503906 0.005642828936145797
-0.13424954598631375 -0.15710506470213664 -0.011679486751689581 -0.00305311699214647 0.008291546978938132 -0.06991938766914893 0.014384380695625905 -0.05356297211140805
-0.06922633204304486 -0.04522090694572544 -0.02152820103737675 -0.33546420831495566 -0.08438697950307888 -0.012280399796556185 -0.03710657813970705 0.17269433782423818
-0.013411813335298955 -0.0819060469456708 0.16761980761716105 -0.004132230786474956 0.11849431295762654 -0.06663560691079211 -0.03688699566104488 0.01975793214733308
-0.050776633722228355 -0.07311618365552686 0.15409931495639662 0.08754404362254178 -0.0026697690710652355 0.05561509000419808 0.17849640755509158 0.05044689576719198
0.016045765087826618 -0.011064413441151097 -0.086528925932061 0.040326336830179985 -0.01170648019674476 0.015442204364925638 -0.09920732408110214 0.07345823057245905
0.026443976072865503 0.06291825453276322 -0.14331511777193331 0.020305358326563452 -0.16090493996643743 -0.07518991890774225 0.08631738104839365 -0.06370369576326508
-0.08882849256459872 0.071747532543154 -0.10009703969693655 0.26977415620306905 -0.04171081502697004 -0.09756422899420893 0.0006684043826867379 -0.012275949697718672
-0.13735014492105138 -0.0030955210583950505 -0.004240570172881788 -0.009427029863244474 0.10343212428034525 -0.11725097644241565 0.038357393965630704 -0.01592316766460646
0.013863228975351204 0.026322421582973488 -0.13061602223411947 0.06484156209593125 -0.007309992078164941 0.006836208196288053 0.0006096361584259739 0.05797560380068666
0.07074315378901581 0.07402777196066508 -0.07975071481432577 0.13877736724910855 0.05366054474665531 -0.05803952683969071 0.11174977684761558 0.029795762441131166
0.0032104112325627428 0.11774107666308956 0.009737433900343893 0.10950332360678403 -0.055691530416111606 0.11945790126952302 0.07326019850066193 0.034367777738162165
0.04397294022301358 -0.07859865040035675 0.028514876092436445 0.01494883986511541 0.03090933055006772 -0.0205393894304389 -0.030811697838716696 0.138855503271001
-0.029043514952252894 -0.0037970944042487902 0.18919663500916004 0.13193877750898592 -0.13094770989672525 0.1294376696368339 0.03202722337388717 -0.11375320773192642
-0.03291617199388696 0.016874688061172465 0.037203747549660805 -0.044109243123789034 -0.05043247991042431 -0.10003021951343577 -0.0332386541875809 -0.09999265734465296
-0.07172159992521161 0.10241086223819582 0.05221911224595124 -0.0704513161992644 -0.025674274311546456 -0.09127971389003833 -0.051812801492721584 -0.16830325902096147
0.0012295572195720273 0.02644160892923068 -0.0445062184302861 -0.0833507654772017 0.026760196395528436 -0.1529702402013991 0.09327849447033694 0.05360983705952863
0.10942338463135572 0.007788005690731551 0.01765565099539196 0.09041523870446774 -0.12757578904303582 0.10199811081129166 0.06056879824876356 -0.0505581077315688
0.10570637915747043 -0.14630449430876588 0.09866859998256668 0.043475386076331515 0.028685395138608565 0.05828531927524138 -0.049903182761457394 -0.11804259027393002
0.23583535699851665 0.026661420732977427 0.08306276017309897 0.008942962698670277 0.13476597822422115 0.05230833228525497 0.018055156550033844 -0.03735278477034515
0.18873115374419777 0.020319067339967113 -0.09584191198408673 0.1326847250625969 0.022645285907106055 0.050617660740500746 0.04930978933413154 -0.15722289489518337
-0.02699313869742719 0.057049273714894086 0.02831338413748181 0.00901733146883335 0.020806954019632007 0.06038999645187862 0.08141571885765507 0.12470576127413761
-0.09109113655275299 -0.08997233111538673 0.1125038765871361 -0.13613111708853165 0.0893868794208963 -0.03336493384358223 0.07426582800925693 0.0028120009242179446
