2layer_test/weight3.npy (npy, 20608 bytes, 1 tensors)

array f8 [256, 10]
0.049390242209964325 0.08315408369017882 0.09976446551138075 0.09277568327778694 -0.06327481702027843 -0.06103950327708881 -0.13160862727640152 0.09131522651073339
-0.0182117984833218 -0.002664965325734243 0.08148453988920468 0.1161533714068631 0.03198283324883195 -0.07130152068136617 0.019929158955911488 0.09114745761512476
0.09353511722459132 -0.008153551050728158 0.07874845004405741 0.014884789715608018 -0.05903620557630898 0.12248016642576032 0.07858994206022586 -0.11137110851301624
0.12505313717658184 -0.012125563985962786 0.08716080675016816 0.13022599209942548 0.11224259014999569 0.1038167547925305 -0.12026516548523075 -0.017255030817630912
-0.06482777381213121 0.0495814660407113 0.07065850382239058 0.10962267360599534 -0.0980033556956599 -0.03362522044559457 0.03455187455042513 0.03125314264470102
0.01845601135334078 0.017956380204978004 -0.08649265299420436 -0.12559704699403643 -0.014333957818852104 -0.0849358344354318 0.027937378729772838 0.05399051142875743
-0.12151954352706731 0.008280913625861742 -0.06365692308085007 -0.059535788861766956 0.049153987777592854 -0.11327341392271342 -0.0403751366990998 -0.041744960095579584
0.05159591711614887 -0.0935204504666905 0.07187582899466573 -0.041265066798142104 0.02895779991483277 -0.10745245362061606 0.005313095347805579 -0.053483254370323315
-0.13059900618584822 0.010400572491705087 -0.06515876824341371 -0.0108204236107088 -0.13754044430836065 -0.07923980919681456 -0.01452375584485831 0.06179094837329885
-0.030543059737701796 -0.029832634582405416 -0.09944129742642559 -0.09771932059678531 -0.1855808989271192 -0.09894621829222072 -0.07906587010387302 0.013488753515038863
-0.027879956529703688 0.09190635767476141 0.07982423995645611 0.06363834037864968 0.0026912331468993476 -0.03468204783366279 -0.1432332063480837 0.05642401431793649
-0.026489884661204003 0.10078038442583531 -0.08410643160713545 0.05513417934714715 0.13104781502589266 0.10548517939692724 -0.16764866891110927 0.07091479716168894
0.0274046735453324 0.10737312491088756 -0.012879015695470187 -0.1351757234165721 -0.1628338927296308 0.13574863234868928 0.0054429752464044264 0.10719909274535759
0.09816498290224149 0.10816747722431956 -0.19372017501137367 0.01455889633147539 0.010591796215499197 0.12185032664160098 0.03625740899751047 -0.0717440690710067
0.013573615723973816 -0.004785747050614571 -0.1061443360753116 0.029708848438785327 0.05875692758327146 -0.11150670288334028 0.009810995185775861 -0.149001902749133
-0.04435814578168323 0.12674656715862478 -0.028796234009845226 -0.04947364781068399 0.04995028392839114 0.02711679322058323 -0.13434060705213471 0.07839345000268425
-0.10913501961537736 0.052255291103603295 -0.00206316791245717 -0.03882896846714854 0.10228094470514332 0.05251302483850692 -0.056553578564115116 0.07312795503145973
-0.012119389482805798 0.06672982371891831 0.026995777103868336 -0.04764684693840608 -0.09964923504351728 0.01664517636648275 -0.003139868229743906 -0.08282152045299628
0.05662023968195705 -0.09960707646020389 -0.09022900401574759 0.05901167988669904 -0.08301557265920788 0.06313644136551418 0.03273351038213395 0.14258053565296583
-0.004998189409218113 0.09831341387363611 0.1119216119273388 0.049267410003838615 -0.08584284000199498 0.14333323699611908 -0.033975571116025206 0.134700157735101
-0.03170735087970213 0.011710489390402982 0.04159391671846208 0.04469906943848642 -0.14009001740594562 0.07366014889398387 -0.13272808634181552 -0.006289853900696444
0.08607783365914126 0.04300222241746323 -0.015033950937014992 -0.15443323343364468 -0.042728847281601035 0.07187881787257554 -0.06624647956921383 0.02354867215071157
-0.12159200994379225 0.035093500691638066 0.0479458772584669 -0.10722980787506084 0.06276251511513667 0.07290579046419973 0.021334162539647462 0.03294906900327866
0.09471114865518618 -0.16588378424522998 -0.015667140132164272 -0.010307549359261063 0.05348593633688456 0.0565539880639932 0.08778799132831774 -0.0878848904672621
0.010270238859629504 0.016201059433889865 0.03391483867191507 0.011409146274355478 0.05518966048780399 -0.012868099473923101 0.023154197122478633 -0.057125647343865445
-0.008065788945147836 -0.03888704984585675 -0.03420722602869288 -0.11783083815775611 -0.05988168187172532 -0.024309839652033382 -0.09724496820522723 0.1310068396725617
-0.05395742340091918 0.06094818842364096 -0.07648818013880758 -0.01860764911404163 -0.04508985583429134 0.05323558002001109 0.11707637400373007 0.049514800535883405
-0.023049765200562213 0.009786195326803093 -0.0551546885571927 0.05223425647306242 0.05679071797621369 -0.0709968072656785 0.03732693400313366 -0.034573310478449956
-0.03458163060747547 -0.06509957475102714 -0.04604890451846274 0.020987795414703903 -0.01870599807836504 -0.169683730537477 0.09623470523842872 0.01422570449033727
-0.011147839696511026 0.022842604267152566 0.12167189864028295 -0.00819261215278958 -0.00961992979401989 0.08414208471493494 -0.07935218380842382 0.061540448545159235
0.019628261271848798 -0.1103961449590874 -0.014926695935982495 0.005363183144655853 -0.030405115281783184 0.014243666151186113 0.038678007180593874 -0.14430171027044933
0.044821536521153255 0.03130211703040827 0.0617062736814474 -0.11620086243658502 -0.053038351561942046 -0.1222807826180766 0.04160870876530161 0.03473665976849951
00000000: bc0e 1186 ad49 a93f 0669 fa05 9649 b53f
00000010: f19e acfc 298a b93f 47ca 8aad 25c0 b73f
00000020: e431 c345 c732 b0bf 2ba9 addc 9140 afbf
00000030: 4305 032f 8dd8 c0bf f58c 7d47 6f60 b73f
00000040: a880 8c1b 1da6 92bf 0f78 685d d6d4 65bf
00000050: 6828 f4b9 2bdc b43f f83a 8333 3abc bd3f
00000060: 899f accd 0d60 a03f e645 7b03 d140 b2bf
00000070: 9748 cf37 4f68 943f bf0c 9295 7055 b73f
00000080: 52d4 81dd eaf1 b73f d386 df18 cfb2 80bf
00000090: 51c7 8cc1 db28 b43f 3b7e 4aa8 ea7b 8e3f
000000a0: 24da 7558 fe39 aebf 2810 3535 dc5a bf3f
000000b0: e175 f16e 781e b43f 305d c824 d182 bcbf
000000c0: 6cc2 37bf bd01 c03f 8e43 1fa6 49d5 88bf
000000d0: 9225 7cae 2b50 b63f eefd 93cc 3eab c03f
000000e0: be9d e92d eebb bc3f 685b 9c1e bc93 ba3f
000000f0: 846a 9ba8 b2c9 bebf 4079 3684 4dab 91bf
00000100: 4f45 6590 8d98 b0bf cae2 43ee bd62 a93f
00000110: 30f9 19fb ac16 b23f 62af 0946 3b10 bc3f
00000120: 0272 9c77 bf16 b9bf d0ec 442c 5337 a1bf
00000130: d84c 6b86 c8b0 a13f 0fc8 1c73 6900 a03f
00000140: cc74 b5f4 21e6 923f 798f f046 2863 923f
00000150: 8652 f4eb 6124 b6bf c922 a864 9013 c0bf
00000160: 5f07 6f40 1f5b 8dbf 4d9d 28d7 5abe b5bf
00000170: 58de ebbf 9d9b 9c3f cffb c2f1 a4a4 ab3f
00000180: d20a 46a1 e71b bfbf 1af3 a169 95f5 803f
00000190: 4bd6 cbf2 d14b b0bf c6a8 3494 797b aebf
000001a0: a30b f223 b62a a93f 42e8 4d88 7cff bcbf
000001b0: 5669 63c7 0cac a4bf 0e45 c46c 985f a5bf
000001c0: e2f1 3db1 c76a aa3f c4f9 42cc f4f0 b7bf
000001d0: a1ac e74e 7466 b23f 6d05 bbe0 b120 a5bf
000001e0: 90ad 640e 1da7 9d3f c0ed 2c06 0182 bbbf
000001f0: 1f51 262c 2fc3 753f b1f1 ce38 2862 abbf
00000200: 39aa 3ade 77b7 c0bf 6e41 b135 e54c 853f
00000210: e831 a7ba 3eae b0bf 897d 4bac 0429 86bf
00000220: 8c42 17df ec9a c1bf 34a6 0a65 0f49 b4bf
00000230: f935 f382 a1be 8dbf 487f e72c 10a3 af3f
00000240: 27d7 c50a ae46 9fbf 4d30 8a37 728c 9ebf
00000250: 8f7c 5120 fc74 b9bf 4689 2626 2204 b9bf
00000260: bebe d369 1dc1 c7bf 50c2 a013 8a54 b9bf
00000270: 696f 532e a93d b4bf bfea afd9 fd9f 8b3f
00000280: ca31 0936 908c 9cbf b0f0 81d0 2c87 b73f
00000290: 4d81 0a84 5c6f b43f 38b1 b22e 9a4a b03f
000002a0: 0f4e 42cb ec0b 663f 2f64 686a d8c1 a1bf
000002b0: b9ad 7b38 7755 c2bf cabd 68c0 9be3 ac3f
000002c0: 71c1 2d11 2a20 9bbf f4f0 2f47 becc b93f
000002d0: d5ca 22c5 ff87 b5bf c026 6012 8c3a ac3f
000002e0: bfcd dfbf 2cc6 c03f 77f5 b8a3 1301 bb3f
000002f0: 7b77 18f7 8275 c5bf 4aa7 9cde 7827 b23f
00000300: 46fe 8982 f80f 9c3f 6f2a f61b ce7c bb3f
00000310: 27d5 bb39 5060 8abf dbc6 a427 704d c1bf
00000320: 2521 fab1 bdd7 c4bf 5c09 3510 3660 c13f
00000330: cfe5 d18a 5f4b 763f fb8e 8055 6671 bb3f
00000340: 5e72 2d1f 5721 b93f c355 2b21 ddb0 bb3f
00000350: 4ee7 1f9c d2cb c8bf 2057 e0fc 0dd1 8d3f
00000360: 35cd cfd2 26b1 853f 76be ee3f 9531 bf3f
00000370: fa95 c3c3 5490 a23f 4e89 57be d15d b2bf
00000380: 64c7 fbdc 7bcc 8b3f 3bed 1b31 389a 73bf
00000390: 605e 1974 462c bbbf 091e c911 ff6b 9e3f
000003a0: 1266 c454 6315 ae3f 3e32 2b0a b48b bcbf
000003b0: f384 b67b c917 843f d2b5 ac8d 7e12 c3bf
000003c0: 5716 e362 1cb6 a6bf c1cc 6944 3b39 c03f
000003d0: 24ef 478d c27c 9dbf f2ae b826 9c54 a9bf
000003e0: 1af5 cb67 1593 a93f 5b1d 3830 81c4 9b3f
000003f0: 8127 e8b0 1232 c1bf 866d fbd7 9711 b43f
00000400: 54ab 18cc 45f0 bbbf 9376 aa9c 34c1 aa3f
00000410: c0a1 b9d6 c6e6 60bf dd5a 68fb 63e1 a3bf
00000420: 1c38 8380 152f ba3f ac41 97b8 fce2 aa3f
00000430: 1d2d cf34 97f4 acbf 0792 487f 83b8 b23f
00000440: 0d21 cfeb 0cd2 88bf b664 8aaa 3415 b13f
00000450: 9a35 2aef c7a4 9b3f 1648 b7e2 2a65 a8bf
00000460: b654 95bd 9c82 b9bf fa51 85e0 6e0b 913f
00000470: 3a36 89eb c7b8 69bf 3f28 c089 ca33 b5bf
00000480: 3e8d 73fb 53fd ac3f 6cc4 d86f d97f b9bf
00000490: 3df6 657d 3f19 b7bf 990a 6466 c736 ae3f
000004a0: 4f48 a131 8240 b5bf cdc7 d9b6 b529 b03f
000004b0: 572a 2659 72c2 a03f b57b d638 1440 c23f
000004c0: da31 d440 fb78 74bf cf6a 5861 112b b93f
000004d0: c48a f10e e5a6 bc3f a141 73f5 9339 a93f
000004e0: 1b82 67de cbf9 b5bf c700 aa56 be58 c23f
000004f0: ddcc 9cfd 3e65 a1bf 9f80 1ed2 da3d c13f
00000500: 8369 2426 f23b a0bf 8290 9d47 abfb 873f
00000510: 2964 0940 cc4b a53f ecc3 cce2 cbe2 a63f
00000520: f896 a03d 78ee c1bf 90a5 843a 64db b23f
00000530: 3ba4 0ce3 3bfd c0bf 5e3f cdcc 63c3 79bf
00000540: 82fe 7968 3209 b63f d36b e025 6304 a63f
00000550: 854b d5bc 1eca 8ebf 38ab 81db 77c4 c3bf
00000560: a82b 5733 8ee0 a5bf afb0 0974 a666 b23f
00000570: 6993 397f 87f5 b0bf a791 01a3 241d 983f
00000580: c7da 296a a720 bfbf 6ea4 8b7b c6f7 a13f
00000590: e235 9bad 5c8c a83f ded0 faa5 6973 bbbf
000005a0: 4a8f d545 3411 b03f 9696 bb31 f4a9 b23f
000005b0: 7ad2 9469 9fd8 953f 51ff 9a4b b3de a03f
000005c0: 0266 0a66 fd3e b83f cc8e 220a ae3b c5bf
000005d0: 173e f5f9 0b0b 90bf 8f0f 33db 1f1c 85bf
000005e0: 6cc8 b936 8262 ab3f 68ee 62f2 a4f4 ac3f
000005f0: 8295 bc17 4679 b63f 2793 5eca 9f7f b6bf
00000600: b698 3120 9008 853f 6a68 b7b1 0297 903f
00000610: e6d5 e325 495d a13f 6835 fdb0 ad5d 873f
00000620: 48b3 beb5 d141 ac3f 47a7 3713 975a 8abf
00000630: 72ee 9fdd bbb5 973f 599f 35a6 923f adbf
00000640: 6e04 e3dd cb84 80bf 4cd9 a6de 00e9 a3bf
00000650: f304 290a 9c83 a1bf 7a0b 596c 292a bebf
00000660: 987d 89d2 cfa8 aebf 831f 1bb9 ade4 98bf
00000670: d15a 24d6 0be5 b8bf 7915 f905 d5c4 c03f
00000680: 7649 c4b1 4ea0 abbf 075a 0fd8 9934 af3f
00000690: 530b 3ab8 ba94 b3bf b5db 9931 e20d 93bf
000006a0: fc17 6180 0416 a7bf c5cd 56a6 b141 ab3f
000006b0: f9f3 7a9d b7f8 bd3f 1e6d f001 015a a93f
000006c0: 5a19 de8e 5b9a 97bf a60e 0ce7 c80a 843f
000006d0: 9afe 253f 3c3d acbf 5bbb 90ce 72be aa3f
000006e0: 5d30 d948 ac13 ad3f ca95 53c5 d82c b2bf
000006f0: 7b58 9b11 841c a33f f687 a3cb 97b3 a1bf
00000700: 55bf 00f9 aeb4 a1bf f906 8aa0 5daa b0bf
00000710: 0bcb d8d5 b893 a7bf 2d67 af1b d37d 953f
00000720: 8145 f147 aa27 93bf c92e a94c 32b8 c5bf
00000730: 923f bd6f d6a2 b83f dc72 63bc 5d22 8d3f
00000740: 8a2c 57b7 add4 86bf 00ae 2139 0d64 973f
00000750: f192 80b9 e325 bf3f 13cf 1eca 49c7 80bf
00000760: 284f d71e 9db3 83bf 5b62 11ee 558a b53f
00000770: cac7 52ba 6c50 b4bf 0ae8 c3cb 3a82 af3f
00000780: 3fb1 f550 6e19 943f 5429 34f8 eb42 bcbf
00000790: bb1d 0f37 e391 8ebf d30f 5783 b4f7 753f
000007a0: eec2 10bf 8422 9fbf c31b 5b82 c82b 8d3f
000007b0: 7e88 d48f 9acd a33f 4729 2f7b 7a78 c2bf
000007c0: dc96 0733 d9f2 a63f cbe0 e1c1 d406 a03f
000007d0: 8bf5 d6f6 f697 af3f e99f eef7 56bf bdbf
000007e0: 72da c8c2 d727 abbf e61f 461a cb4d bfbf
000007f0: 7a63 c096 bc4d a53f c320 5be3 00c9 a13f
