2layer_test/weight2.npy (npy, 65664 bytes, 1 tensors)

array f8 [128, 64]
0	0x3fbb2ce2f4903c5e	0.106153664310328
1	0x3fc902b92af609d7	0.19539560888013227
2	0x3fcd0e030298b559	0.22699010493071617
3	0x3fbb8b17f06f08f6	0.10759114856685756
4	0xbfbecb8feb896f5c	-0.12029361248408804
5	0xbfc60bf36ccc5217	-0.172239711879812
6	0x3fc119d5d8568a6e	0.13360093177205407
7	0x3fc5a584d67d7d6e	0.1691137358966261
8	0xbfaf100530f0956d	-0.060669100021452184
9	0xbfc271075b3ddcb8	-0.14407436328085566
10	0xbfb1f15603b87071	-0.07008874502975161
11	0x3faec2ce143b5297	0.060079994172757605
12	0x3fc97905e654cb0d	0.1990058302559067
13	0x3fc04cd433d9c315	0.12734463245171726
14	0xbf948eb4f8de4dbe	-0.020075633706779554
15	0x3fc122c23353d4aa	0.1338732481596357
16	0x3fd7833d902c5d1f	0.36738528327392034
17	0xbfaebe74f54d5593	-0.06004682058725588
18	0x3fd21fd74211c89a	0.2831934113702431
19	0x3f9093b2f54fc681	0.01618842718375513
20	0x3faecc9a5e10f1b5	0.06015474699276827
21	0xbfbb48d3e95c6225	-0.10658001372610977
22	0xbfb0a323137f56d7	-0.06498927331935121
23	0x3fb44211fdb6e3c6	0.07913315242957628
24	0xbfd058705b0e418b	-0.2553978814330768
25	0xbfc78b77e6180fd8	-0.18394373641069595
26	0xbfcad65e6a1c538e	-0.20966701680358962
27	0x3fd0e223abfd38bd	0.26380245014014375
28	0x3f917e1e45f1df2d	0.017082665461628444
29	0x3fc8951f26844e4d	0.19205083256439295
30	0xbfca4cc3909aaf1d	-0.2054676490855564
31	0x3fad44311a4a1833	0.057160887202414655
32	0x3fa3ae7327e9bd1d	0.0384403215620017
33	0xbfc0e73a633a67d4	-0.13205652089237552
34	0x3fcdb3b29418b942	0.23204643470075764
35	0xbfc53d4529856493	-0.165932317041357
36	0xbfb92997513a1d7b	-0.09829087956506115
37	0x3fd3d198b2e2f0fb	0.30966775388129947
38	0xbfc6c69595e8480e	-0.1779353124589424
39	0xbfb7136269a3fa5c	-0.09013953284373016
40	0x3f6ca942d593fca0	0.0034986787183011875
41	0xbfc94900d1a32ce5	-0.19754038082314831
42	0x3fc0c872e0df2313	0.131117210198021
43	0xbfc91e86aed58d47	-0.19624408280206238
44	0x3fadc3b37acecf3f	0.05813370584601651
45	0x3fba96eb7a26d0b0	0.10386535389153795
46	0x3fa138359972fb99	0.03363196848066891
47	0xbfa706b66cc3d44f	-0.04497308805176969
48	0x3fb057aeadeea7a3	0.06383792635338507
49	0x3fa7b1c96280b982	0.046278279566069905
50	0xbfc0a6049e942602	-0.1300664686498721
51	0x3fc71f1b00b65c51	0.1806367639044049
52	0x3fc15bf53998a3a5	0.13561883270565747
53	0x3f7a941acd7f41c4	0.006488899896752224
54	0x3fb0be5ec19b3736	0.06540481783596594
55	0x3f9adfab0f76de38	0.0262438514889409
56	0xbfc4f24ae75070df	-0.16364418310775528
57	0xbfd2990590b65fe5	-0.29058970577307114
58	0x3f9cc0ded9fcbc79	0.028079492621313016
59	0xbfc01da599c37f18	-0.12590475090018383
60	0x3f8dd3b0c643e506	0.014563923883985651
61	0x3fcfc10fc9329f13	0.24807927440746677
62	0xbfc341529adf2a17	-0.1504309898576401
63	0x3f9e2e49d70133d9	0.02947345137390642
64	0xbf8f0e6c09b55f93	-0.015164226576118078
65	0x3fb9b0318231c05f	0.10034474781582635
66	0xbfca5cdd421b861b	-0.20595899322420128
67	0x3fcd4cedc2c9af49	0.22891017924427562
68	0x3f9141ade26e4d74	0.016852108903163424
69	0x3f9e02ac8b8c7f3e	0.029307075517066787
70	0xbfd028d5b7794888	-0.25249236028060595
71	0xbfd552644f0e756e	-0.33315379829749403
72	0x3fb1b63504911e06	0.06918650971885407
73	0x3fcc1925212923a2	0.2195173656384926
74	0x3fad80a01ceda97e	0.05762195923928724
75	0x3f91566557eb5fa1	0.016931136599708577
76	0xbf9e27e35c24ea00	-0.02944903612044847
77	0xbf93a7156ac201ec	-0.019192061081868703
78	0x3f96054c21e6555c	0.021504582947803427
79	0xbfc3a86ade45374d	-0.15357719281240137
80	0xbfc39ccc64b84d0d	-0.15322260778393862
81	0xbfb58fb95f800feb	-0.08422430593060397
82	0x3fa4d5d48e3ae018	0.04069389568525156
83	0xbfce2d856cea302b	-0.23576419656854006
84	0x3faff0326f046871	0.06237943272772462
85	0xbfb8206a2aaa1d18	-0.09424460927595069
86	0xbfb17766e707aecf	-0.06822817936307078
87	0xbfad0e2e8b7c3355	-0.05674882366847692
88	0x3f5b597d5a2b407b	0.0016692852156446048
89	0xbfb6f3df45dcd248	-0.08965869384412273
90	0x3fc5b756d2ab3125	0.16965756689604308
91	0x3fb0a5771dc7c33d	0.06502480008181251
92	0x3fb66f7124616fde	0.08763796938131871
93	0x3fda05f0103d204a	0.40661241136377113
94	0xbfb2eb926da00cf9	-0.0739070432319301
95	0xbfc751c47c5d8a63	-0.1821828467610259
96	0xbfcc371a3799d3eb	-0.22043159212958527
97	0x3f80d6ac56997bef	0.008221956627663089
98	0xbfc4b4ef167767b5	-0.16177166554444758
99	0x3f9b6ffc70658f28	0.026794380531455136
100	0xbfabbc1c5ca24c79	-0.05416954642091638
101	0x3fb2895add8614c4	0.0724083700971106
102	0x3fcbaa6f63734f68	0.21613876682260558
103	0xbfa71cd635ea0458	-0.04514188202029662
104	0xbfc2dee0b0d72525	-0.1474266875723426
105	0x3fc35c318502d0b3	0.15125102038076008
106	0xbfc4dce44d923c14	-0.16299108302743603
107	0x3fc13c0f9737443c	0.1346454132422269
108	0xbfc3d675072bfd03	-0.15498221254527075
109	0x3fce4320b0ea502f	0.23642357481424045
110	0xbfb92f2d8bb44779	-0.09837612782237483
111	0x3f9c1ec1f73e6972	0.02746108123356223
112	0xbfd389845c00d2a0	-0.30526837334336143
113	0xbfc630546247dad3	-0.1733499030958315
114	0xbf8d9620a5e06db7	-0.014446501791147577
115	0xbfcf861306a859bf	-0.2462791235454471
116	0xbfbd532cc9bdd23c	-0.11455039906815839
117	0x3fd864ee3bb09eee	0.38116031483740087
118	0x3f96b56ffcfb907b	0.02217650395950031
119	0x3fbd51c2ec65c345	0.11452883025573353
120	0x3fd34b1fc10ea785	0.30146020749327135
121	0xbfb14238d8e456e6	-0.06741671843732497
122	0x3f7e97ac2fbacd81	0.007468865016267202
123	0x3fb549cf8f0bc997	0.08315751306853368
124	0x3fb162790923242b	0.06790882561757942
125	0x3fc1af984250299e	0.13817122686334654
126	0x3fcd76301bf6ea95	0.2301693092866414
127	0x3fc2dc6c1790c780	0.1473517527643331
128	0xbfa04ec189155489	-0.031850860580257274
129	0x3f92c9ff0bc2abd5	0.018348679631042437
130	0xbfc331a7b1ba3a21	-0.1499528520402729
131	0x3fbadb14f3ac6fc0	0.10490542363225952
132	0x3fd3011ad38d0bab	0.2969424310614907
133	0x3f9db19a9404a927	0.028997817310633025
134	0x3fc581cd1a6c0ec1	0.16802371778623207
135	0x3fb57fdf9d5826e6	0.0839824446813072
136	0xbfb292fae0d80f74	-0.07255523671488878
137	0xbfbe21efdffd1058	-0.11770533770055758
138	0xbfc33a3b68bf8d59	-0.1502146016565387
139	0x3f99e2728630be95	0.02527789062531712
140	0x3fb156c2726b89dd	0.06773009580096052
141	0x3fb59ab988ab09ad	0.08439216219543395
142	0xbfc03913ec42eba7	-0.12674187694741798
143	0x3fc3f4b207b813f2	0.15590501191050482
144	0xbfb3bd83aa944ab1	-0.07711050905735807
145	0x3f4e35a2e99a67a7	0.000921921298146379
146	0xbfb3e8fe127fdbd2	-0.07777393294951132
147	0xbfc1f7e465265a3c	-0.14037756861644535
148	0xbfc1ad580a3e2cca	-0.13810253620281393
149	0x3fb677079f314b87	0.08775375019585684
150	0x3f6e5ce68c53e6f7	0.0037064078229577207
151	0xbfc1bade1d4db21f	-0.13851524763903542
152	0xbfb3ce18d11cb01c	-0.07736353974604565
153	0x3fc79a4928a75114	0.18439592824018602
154	0x3fb6981a2e7b2466	0.08825839648047093
155	0x3fb2caa131d13b7d	0.07340438333743111
156	0x3fd10b460edc9971	0.266313089860339
157	0x3fc833082b65ddef	0.18905737036742162
158	0x3f716a36fcdd8444	0.004251684947889581
159	0xbfadab14ae9f3658	-0.057945867839958864
160	0x3fd42c2bd6692ea3	0.31519599855958286
161	0x3fc384a63b5ed910	0.1524856367011087
162	0xbfb010d189edc7b4	-0.06275663010981597
163	0xbfc5aeb412f86cd4	-0.16939402509965495
164	0xbfd16faf8438e761	-0.27244174873668753
165	0xbfc579bc03aa1b9f	-0.16777754000596887
166	0xbfb156bf2d5dc9f1	-0.06772990090920651
167	0x3fc4353975f81262	0.15787428150374
168	0x3fbf5040b5781412	0.1223183100738228
169	0x3fa6c5ddc59256d9	0.044478350036269716
170	0x3fb4c2916e912227	0.0810938734949863
171	0xbfb8240ee242e9db	-0.0943002035518598
172	0xbfc47ff84bcbdf45	-0.16015533162112142
173	0xbfa037a763e5c766	-0.0316746053166657
174	0x3fc09e119e360ef3	0.1298238775744874
175	0x3f6571ef73544010	0.002617805172697281
176	0x3fb9b10d4a69828d	0.10035784784987296
177	0x3f8202ee6cd6a559	0.008794653603063795
178	0xbfc69ff718e6ed45	-0.1767567512123184
179	0x3fa5e829f40e83da	0.0427868948384071
180	0xbf9d44458471f05b	-0.02858074780350282
181	0x3fc13ac49b98c1a7	0.13460595700736386
182	0xbfc902a1ec9b3afb	-0.19539283803029392
183	0x3fc80fa51fcb8023	0.1879774480103161
184	0xbfc41eb8644faef1	-0.15718750856409927
185	0xbfa9e314a820fa37	-0.05056061317781196
186	0xbfc7111779875ed6	-0.18020909723303785
187	0x3fc0a160a8c17ab2	0.1299248527529549
188	0xbfc02c46bd02ae00	-0.12635120610262618
189	0xbfb0982cf034d806	-0.06482201446928579
190	0x3fbea3826bfc38b6	0.11968245636328131
191	0xbfb03ca30cab21f0	-0.06342524585046028
192	0xbf7881215f5ab9ff	-0.005982523308985409
193	0x3fb29f76fa255e75	0.07274573905066879
194	0x3fa56512e833945f	0.04178675732126957
195	0x3fa06cfae75998f5	0.032081452122655486
196	0xbfb2e0c497d686e0	-0.0737421866129142
197	0xbfa9077bd90882c3	-0.04888522171336753
198	0x3fabfad7f618d6a1	0.05464815978159022
199	0xbfa30990b5b1dd8f	-0.03718235223726218
200	0x3fa0015708bbabbe	0.031260223213244384
201	0xbfce6a0d7af114a7	-0.2376114702512144
202	0xbf72a5a775d9886f	-0.004552511350626272
203	0x3fb0e8ce539d1949	0.06605233708714765
204	0x3fb5719e9c45588c	0.08376494708258714
205	0xbf97c31ca868e003	-0.02320523050204316
206	0x3fa4233f89d1f960	0.03933142239928844
207	0xbfb33e91cc785cff	-0.07517348520228849
208	0x3fc651ed74d6e338	0.17437523083733608
209	0xbfa55902ad41e2e4	-0.04169472088773832
210	0x3fc49909645bbfdf	0.16092030906975105
211	0xbf8c34a15645698d	-0.01377225918320304
212	0xbfc2b809d26e4ed0	-0.14624140524812512
213	0xbf9de8c0f08594ff	-0.029208197288785872
214	0xbfbf102ec292db47	-0.12134067774136979
215	0xbfa090138439693a	-0.032349214449555366
216	0xbfc08f6499546edb	-0.12937600600058982
217	0xbf9cf8f2dcc2b5f2	-0.028293413852841405
218	0x3fbf9a0784376c30	0.12344405153218996
219	0x3fc72e307abbd35e	0.18109708779197836
220	0xbfb390d1a1d92ef6	-0.07642851067901887
221	0x3fb826cba42d1aa8	0.09434197195251193
222	0x3fc84ee519a781f0	0.1899076819672838
223	0xbfc2b70bdfc2bb22	-0.14621113229574073
224	0xbfcc146f5ed5dcdd	-0.21937362795481521
225	0xbfc614023fa16ae3	-0.17248561961135697
226	0xbf8423f0666ff481	-0.009834173322810226
227	0xbfd153a34ce49263	-0.2707298518091987
228	0x3fc2460996a331c6	0.142762373498398
229	0xbfd20fc93b353430	-0.2822135046197358
230	0xbf334272e33e7c75	-0.00029387764811334506
231	0x3fa539e66edca43d	0.041457367928451984
232	0x3fb5730ca40a37af	0.08378676419144314
233	0x3fc1ed146a60e505	0.14004759973776273
234	0x3fca1f31ff9615c6	0.20407700519369437
235	0x3fabb30bfa532037	0.05410039358827173
236	0xbfb3711b5c7f5792	-0.07594462402570759
237	0x3f9acbac1235f8d6	0.02616757260465693
238	0x3fa6327a374d044f	0.0433538620477597
239	0x3f9c16549c33de28	0.027428934129572508
240	0xbfaf8ee9cb9198f5	-0.061637216663074236
241	0x3fc33c7782947508	0.15028280139896588
242	0xbfa7f4945c662981	-0.04678786876600594
243	0xbf8e411c65e21ea8	-0.014772626742583242
244	0xbfbb24c6451beeef	-0.10602988421663516
245	0x3fbf16fe79ea7b5f	0.1214446113249159
246	0x3fd18bae3106174b	0.2741504172084787
247	0x3fc31a1cefc17f1d	0.14923440653637324
248	0xbfc0f246aa96dbb5	-0.13239367799334692
249	0xbfba52f01b073407	-0.10282803211084977
250	0xbfc8e47a6b6f8e76	-0.194472601374503
251	0x3fa441db71b5153a	0.0395649505904125
252	0x3fae6db0c2be7424	0.05943062188382722
253	0xbfb48941f1f72163	-0.08021938474042183
254	0xbfb121d0a7c85ca3	-0.06692222687012132
255	0xbfce628758227600	-0.23738185695121672
