2layer_test/weight3.npy (npy, 5248 bytes, 1 tensors)

array f8 [64, 10]
0	0xbf7fe21ebe3075ce	-0.007784004296835302
1	0x3f969eb7a8fc5434	0.02208983391672721
2	0xbfc030f1de1f46bf	-0.12649367662247887
3	0xbfd1a4426d06384f	-0.2756506027880094
4	0x3fe2de521740e1ed	0.5896387533348936
5	0xbfc28b501ffe41ae	-0.14487649500052896
6	0x3f79fd8b212a3051	0.006345313525013622
7	0x3fd318a890d6525a	0.29838003296143756
8	0xbfd27a666708d3f2	-0.2887207037159093
9	0xbfd6fee263b33247	-0.35930690513922453
10	0x3fce294708cd9713	0.23563468866193968
11	0xbf9c73583e750fc3	-0.02778375512322363
12	0xbfcb3ed634df0ec5	-0.2128551252518404
13	0xbfc44cbf734565e8	-0.1585921585890866
14	0x3fd659e7fceb2483	0.34923743914675515
15	0x3fe6df041545e410	0.714723626660204
16	0x3fe183c7c4bdde85	0.547336467991912
17	0x3fd18a7750a26429	0.274076298469995
18	0x3f77db041a0f473c	0.005824104330672427
19	0xbfd760c3ae2c5f30	-0.36528102883447655
20	0xbfe1d8c91a28d77c	-0.5577130804947354
21	0x3fdc7b66cf69c819	0.44503183608242264
22	0xbfda53430252ca3d	-0.4113318941773832
23	0xbfe13b66063dbb62	-0.5385007974526668
24	0x3fd721979e135690	0.36142530858101285
25	0x3fdacd0c686e7567	0.41876516531359304
26	0x3fd6e812dc9f2ed9	0.3579146532544946
27	0xbfcc9bb738f5681b	-0.223502066432787
28	0x3fdc38b8a3be0e42	0.44096199026555294
29	0x3fc28dec308407db	0.1449561344998632
30	0xbfd79a9183367fa5	-0.3688091069579918
31	0xbfc61f36292ba424	-0.17282750139500636
32	0xbfb14fb644d67dfe	-0.06762255840884987
33	0x3fcadf6ee77fd329	0.209943640743995
34	0x3fb7e79f54e5836b	0.09337802717847203
35	0xbfc163ec9e1ace87	-0.13586194724995357
36	0x3fdc62c0d4f44956	0.4435274200087823
37	0x3fdc62102a37e2db	0.4434852993286264
38	0xbfbb66d5ff903406	-0.10703790177667835
39	0xbfe1058815c55683	-0.5319252419673862
40	0x3fd6c8471ec762d8	0.3559739876341559
41	0x3fdb2997714f457d	0.4244135481395331
42	0xbfd2bedfc2204710	-0.2929000278246443
43	0x3fd784c41febddb6	0.36747840039557944
44	0xbfc805e375acb763	-0.18767970319589286
45	0x3fd4c57ce5dd023d	0.3245537037619533
46	0x3fd8669828b2df66	0.38126186346516133
47	0xbfd0be03a29dbe84	-0.26159754639136445
48	0xbfe0925bd3c681d1	-0.5178660522688522
49	0xbf7990b6bd77aeca	-0.006241525486511976
50	0xbfdbe56ea2aaf6eb	-0.43587842832117357
51	0x3fc5636485252ae6	0.1670957231638887
52	0x3fd94693b1ff1755	0.3949326742407398
53	0x3fda6720afef73cf	0.4125444143408545
54	0xbfd4dcbe21288813	-0.32597306478612714
55	0xbfc37174719c7383	-0.15189986751002146
56	0xbfbd22050ab4abeb	-0.11380034934397514
57	0x3fce7578cbdc3aa7	0.23795995668520684
58	0xbfd9627c0f434c16	-0.39663602343097304
59	0xbfc5de75bd6b53dc	-0.17085143803583847
60	0xbfbd32462ca4ac77	-0.11404837217257745
61	0x3fd0542268351df8	0.25513515640747597
62	0x3fa0f413733d72a5	0.033112151925455614
63	0xbf7dfc57bbf5b7cc	-0.007320730888165938
64	0x3fe005d8ff3e6d0a	0.5007138238173934
65	0xbfc9a1a1ff85fc2f	-0.2002451417610884
66	0xbfc16e44b4f45780	-0.1361776240889263
67	0xbfd14a0126e75e4d	-0.27014187621305014
68	0x3fb776ccc01d7c74	0.09165649118721025
69	0x3fa0b70cae9f1e78	0.03264655715571235
70	0x3fc2512635ea9b8d	0.14310147888792493
71	0xbfba4e5b0adad18f	-0.10275811209687034
72	0xbfba7975f28e3711	-0.10341584369436087
73	0x3f8fcec468136c2f	0.015531095911162833
74	0x3fd3e0551c269410	0.310567166796603
75	0xbfb10b4faba74bbc	-0.0665788454128195
76	0xbfe7e9524b8436db	-0.7472316241198443
77	0xbfc64e459a5facd0	-0.17426366842059915
78	0x3fd25f8b95de43b6	0.28708161960190226
79	0x3fd2a9ed49a179b2	0.291621515183489
80	0xbfd00196be1c1614	-0.25009697499658157
81	0x3fcb02332a949ce7	0.21100463465811645
82	0xbfdd6386d198d35c	-0.4591996237607441
83	0x3fcab0d8c5c0dff7	0.2085219350426539
84	0xbfa27b6867708446	-0.03609777701081689
85	0x3fc72a59d93c3359	0.18097994906602358
86	0xbfd1234b04aad522	-0.2677791162089581
87	0xbf9d879feab9464f	-0.028837679578208427
88	0x3fd0727b67c64ebb	0.2569874299453933
89	0xbf57047f0269738e	-0.0014048805548078943
90	0xbfd47032528112bf	-0.31934793526697186
91	0x3fdfc69015a2b62d	0.49649431336260613
92	0x3fd92c8c8acc5b4e	0.3933440547420347
93	0x3fd5134c1ae06d10	0.3293028128116058
94	0xbfb1ecfd031d7cb7	-0.07002240491918853
95	0xbfa7027f9ff5eb51	-0.044940937305873015
96	0xbfdcbf04f8984d47	-0.44915890004013587
97	0x3fd74834a24fcd5d	0.3637820801806891
98	0x3faff66267ff14d2	0.0624266387890572
99	0xbfca22e865a20d8e	-0.2041903015379884
100	0xbfb001a73bdc30f8	-0.06252522670201077
101	0x3faf04c07d5f7d3d	0.06058312921936213
102	0x3fdf12aa5e95e9d5	0.4855142520606511
103	0xbfc23eb4931fc9cc	-0.1425386160259009
104	0xbfd1c5f3e633c482	-0.2777070758884933
105	0x3fd506557a45fe20	0.3285115903927096
106	0x3fb196aeb2a1d262	0.06870548115859657
107	0xbfce879d82a716ff	-0.23851364974523645
108	0x3fbf33fe796252e8	0.12188711608389335
109	0x3fc431829bcb1ac5	0.1577609310827112
110	0xbfc5539f860dd6b0	-0.16661447568519838
111	0x3fda83236f68ef3b	0.4142540538775738
112	0xbfd2636e4692c152	-0.28731877223892355
113	0xbfd6aea6eaa1bae8	-0.354409913189484
114	0xbfbfb10fa888c7a9	-0.12379548897368288
115	0x3fe1b449361a1326	0.553257566135106
116	0x3fd7f7abc764581d	0.37449163886901876
117	0x3f93b6d3c89c3b15	0.019252118224410603
118	0xbfd42e7f299534f3	-0.31533793507408275
119	0xbfd1040dbe75a73a	-0.26587241744583745
120	0xbfbbeeb5cb5be269	-0.1091111775857684
121	0x3f88381fed77241f	0.011825799402588598
122	0xbfc0d348485d7567	-0.13144782575083555
123	0x3fa28e6c3bd2396d	0.03624284963835831
124	0x3fe074f3f0c9d958	0.5142764761829239
125	0xbfbafb6c0e09f997	-0.10539889662502443
126	0x3fa81833ba057d2a	0.047059647042937705
127	0x3fc8a3e318b255c7	0.19250143724336352
128	0x3fce827ff3bbefa6	0.2383575382335696
129	0xbfb5762b9de5f48f	-0.08383438687265453
130	0xbfadee148178a1b9	-0.05845703201731873
131	0xbfdfe342ee0b4e1c	-0.49824593779087123
132	0x3f7c0dc114bfcf08	0.006849054549082252
133	0xbf70ebedf5174e48	-0.004131249924700216
134	0x3fd7f6ac73018564	0.3744307635407351
135	0xbfd4ce12d1b8d18b	-0.3250777290407078
136	0x3fc45f61bd75a752	0.15916082144695537
137	0x3fd9e0b35cfa8fa9	0.4043396385188723
138	0xbfd5420e6adf0573	-0.33215675770414704
139	0x3fd64c9b0c5ad6b1	0.3484256382611007
140	0x3fdc5e7005a7f306	0.4432640128359683
141	0xbfc92b68a4eb0830	-0.19663723042146009
142	0x3fce66770aef430a	0.23750198396603422
143	0xbfc6a0a4cf2becf5	-0.17677745929527303
144	0xbfe07d499e3fa76c	-0.5152938929361262
145	0x3fd08bea0f68e34e	0.2585396910176784
146	0x3fd62e05148d4342	0.3465588284207578
147	0x3fc6f2b9d1c75d0b	0.17928240531066594
148	0xbfc9e25b9a530b5c	-0.2022203925644942
149	0xbfce403b6bf2965e	-0.2363352086151051
150	0x3fb006bef0abf713	0.06260293365263818
151	0x3fe3ca977254919b	0.6184804184927545
152	0x3fc9fb6a5e487027	0.20298509219799252
153	0xbfe16e0602185057	-0.5446805993001459
154	0xbf9bb48f388d08ce	-0.02705596716555974
155	0xbfc1b0bf830b900e	-0.1382064237469653
156	0xbfaa61b36ee86333	-0.05152664879660165
157	0x3fd371a720e11b55	0.303811819180216
158	0xbfc6f3b43aeebfa9	-0.1793122565991301
159	0x3fab720de0f5c9e1	0.05360453959555734
160	0x3fb1338eb60d8f54	0.06719295448925539
161	0xbfe2ecee34174263	-0.591422178020434
162	0x3fd0be2ac42449d2	0.2616068759390632
163	0xbfcde58ac6a96a33	-0.2335675687816817
164	0xbf9b66410fc8c67a	-0.02675725611533728
165	0x3fd409e87be09d4c	0.3131047448864208
166	0xbfc3fb2b7476f49f	-0.1561025923419139
167	0xbfd14b680df7d930	-0.2702274452598372
168	0x3fde217166c8b2b4	0.4707911971807264
169	0xbfc14db550d95eda	-0.13518396804533134
170	0xbfd5c2847b03d4ae	-0.3399974061315544
171	0x3fe425d41bc48cef	0.6296177427615514
172	0x3fd5b4364e00dde8	0.3391242753745858
173	0x3fde2e44c7965ec8	0.471574015531115
174	0xbfb2329c6dca4a71	-0.07108476334023252
175	0xbfcb9ae271af1004	-0.21566420126885089
176	0xbfd9ea0a5146bc8d	-0.40490968644275754
177	0x3fa8eeb5200bc7a7	0.048696193849436846
178	0xbfbc8a8fd3e123ce	-0.1114892856868572
179	0xbfd651d60ab10e06	-0.348744879189525
180	0xbfbadf340faf2546	-0.10496831305421947
181	0x3fc2e09e796ddf56	0.14747982911262153
182	0x3f7f0e4a16e8ee8e	0.007581986820294552
183	0x3f94cada56d1eb81	0.020305072354385615
184	0x3fd36b062d223b38	0.3034072342642733
185	0x3fd779a69ce6f28d	0.3667999775168845
186	0xbf8477b30e1813af	-0.009993933551422389
187	0x3fc416bfb99ecf34	0.15694424212926494
188	0x3fa4fe3bf4cf531a	0.04100215304757722
189	0xbfafa81ef813e0c8	-0.061829536230960935
190	0xbfcb1c82065175f4	-0.21180749233728557
191	0xbfe00f3447307df2	-0.5018559828203577
192	0x3fdb79802f5adfcc	0.42929081558713444
193	0xbfca6ffd9adb2f93	-0.2065426832326663
194	0x3fda06310c54a0a2	0.4066279049316198
195	0xbfc1d0028d8f300f	-0.13916046058727757
196	0x3fd33dcef2ebd2c0	0.30064748499652794
197	0xbfce573844b69f44	-0.2370367370142451
198	0xbfde8f9d816421c3	-0.47751557956555873
199	0x3fc1638e6180db32	0.1358507133570242
200	0x3fd3ef0f5e78bbd2	0.3114660666059851
201	0x3fd2b2638614f7c9	0.29213798612533687
202	0x3fc94d74f5c77d30	0.19767629624309668
203	0x3fc117e1f363da85	0.13354133972434937
204	0xbfe27aefc95978cd	-0.5775069172484791
205	0x3fce2b75d35b8d15	0.23570130176731455
206	0x3fd63bbd61f02724	0.34739622654216107
207	0xbfe3002591b29175	-0.5937679143576547
208	0xbfdd532502b85d54	-0.4581997419895363
209	0xbfe113542d910196	-0.5336094751328797
210	0x3fc58ef28d3f2d29	0.16842491051498001
211	0xbfcae4020d21aa0e	-0.2100832523459108
212	0x3f95e69896ab9648	0.021387466617758727
213	0x3fb668b121bff34a	0.08753497194261431
214	0xbf85ab7d981ff4d0	-0.010580998616200793
215	0xbfb56f655478bdba	-0.08373101532264729
216	0xbfa54fc2586e4a42	-0.0416241391132144
217	0xbfce10ae176b88c3	-0.23488403457219506
218	0x3fc1ce5a5ac8dacb	0.13910989220467793
219	0x3fc7ef0e6cdfa931	0.18698292080018455
220	0xbfb35e898ab219bb	-0.07566127430081952
221	0xbfc8a14413e48c5a	-0.19242144557310575
222	0x3fa25b6e2bda1ec1	0.03585380826285479
223	0xbfc3abafebc6bdbc	-0.15367697727695695
224	0xbfcfceb15e5d16a5	-0.2484952650794884
225	0x3fc7ed9cd8f8feef	0.18693886370055376
226	0xbfc3e34857f7c9c7	-0.15537361426647875
227	0x3fdee2308679bafc	0.4825555146443745
228	0xbfc4fb8845bf68fa	-0.1639261570515556
229	0xbf9d61339a997ae5	-0.028691107092863617
230	0xbfd66871409639fa	-0.35012465770060397
231	0xbfd0033ee1926224	-0.25019809750077315
232	0xbfb63c5e537aca1d	-0.08685864961697871
233	0x3fd552a3e1c562ea	0.3331689553065603
234	0x3fbd0b2e99710655	0.11345187421923104
235	0x3fd1d68febc05922	0.27872083685487514
236	0xbfecdfc116889d5d	-0.9023137512312293
237	0x3fcdcdf328f04fe7	0.23284759043656253
238	0x3fce32f8bdc0507f	0.23593053116985982
239	0x3fcfc4b83bb83ac9	0.24819090763090504
240	0xbfc17ebc2a2d78a4	-0.13668014583067134
241	0x3fa38e6ea6f26ee7	0.03819604671408943
242	0xbfadc51e588c664b	-0.05814452010072254
243	0x3fd0fecef5815b8c	0.26555227255942593
244	0xbfbfc326f4cd2946	-0.12407153584095906
245	0x3fd016463f9af6c3	0.25135952197511474
246	0x3fa6eb3237a324f9	0.04476315430799533
247	0x3fc153bd409829af	0.13536801961920505
248	0xbfbf6d1d960c5380	-0.12275872147831812
249	0x3fd6c3503922a3ad	0.35567098216648213
250	0x3fb2c5623ef2416f	0.07332433735633058
251	0xbfb0e80962d39423	-0.06604059851413573
252	0xbfc3bca99585c839	-0.15419502068431415
253	0x3fbf8e4f881d193b	0.12326523850524478
254	0x3fcad909750c3730	0.20974844184132158
255	0xbfc84ac9b050f5ea	-0.18978234395210275
