2layer_test/weight3.npy (npy, 20608 bytes, 1 tensors)

array f8 [256, 10]
00000000: 7e3b e50f f8f9 6cbf c298 92d3 b78b b43f
00000010: 2570 56a6 bdcd b33f 15da 2290 85fb b53f
00000020: 1734 e5cf bb7e abbf c5ac 36b1 3faf b0bf
00000030: 4ef9 c7df 2c01 aabf 7d10 b1a4 4d79 b53f
00000040: 0723 a1d2 b360 46bf d484 0e76 826d 8cbf
00000050: aa51 ec51 debf b53f a90d 80c7 d848 bf3f
00000060: 95f3 2fbf 55b9 993f a97e 9c23 6642 a9bf
00000070: c9d1 8dd4 dd72 a63f 084d a430 feeb bb3f
00000080: 9d63 235d 32a3 a93f 99bf 07b7 8ad8 8bbf
00000090: d5ca 4b9b 6586 a73f c254 a136 24d8 9e3f
000000a0: 5fd1 0c97 65d2 8dbf bdb3 aff7 2783 bb3f
000000b0: e4d7 fa1e b84a 933f 7c91 ce18 c3b2 afbf
000000c0: 5723 60a2 b544 bf3f ec7d d691 4377 983f
000000d0: 4847 6f04 6ccd b53f fa8a 9cf6 5319 bb3f
000000e0: 5590 52f1 198b b53f 7f48 9ffd 2122 bb3f
000000f0: 6404 2e2b 4922 c0bf 1108 cee5 224f 913f
00000100: c82c f33a 564b b0bf 0f10 da46 d288 b83f
00000110: cb17 485c 1953 9e3f 9d8b e27e ff6a b83f
00000120: 39f9 1016 29d8 b4bf 8587 d06d 6fc8 99bf
00000130: 81f3 5599 3e4c ac3f 82be b825 deed a1bf
00000140: b32d 20cc 5eae 953f 51fa e21c 89dc 9d3f
00000150: 3117 a0a1 afb7 b7bf 93bd e3dd 198b c1bf
00000160: e2c2 5e3d 8173 acbf 7e75 f825 d967 b3bf
00000170: 18a8 6b21 b98c ab3f 8133 9963 3e71 a03f
00000180: 7644 4930 53c3 b1bf 0eae 8bd9 7aae 88bf
00000190: 1504 f05e bd92 b1bf bdb3 3d75 6d7c bfbf
000001a0: 10a2 a3ef d450 943f fbac 6935 cc1e a3bf
000001b0: 22d3 9022 92fd b7bf f7b1 7ac6 4150 b0bf
000001c0: 4e79 9276 f93c b63f 8a9c e6ee 5dca 883f
000001d0: e3cf 1d35 0074 9f3f 03a2 3410 1c74 a6bf
000001e0: f000 61e6 bb73 7d3f 57b7 142e 6b29 c3bf
000001f0: fb7b 7c35 cf6a 82bf 09ab 81a8 0236 abbf
00000200: 1c2e c7f5 7282 b4bf 5020 cb6d 1852 80bf
00000210: 6c32 e755 b3ce babf cd74 4704 5ba7 8d3f
00000220: 85fd e309 123c b5bf 7c36 eb99 30de b2bf
00000230: 2c97 0365 173e a3bf e68f ecef 1651 963f
00000240: c2de 992f 791a b1bf 0539 f4da 870a 83bf
00000250: 5ea1 d976 8def b3bf cabc 6c00 b35f bbbf
00000260: 2276 3d85 2b56 c3bf 7790 c814 27a7 b4bf
00000270: ccb2 a8e2 c8f2 afbf b713 07f0 9270 853f
00000280: 7128 ac8b a591 a4bf bf94 206f f67c c23f
00000290: 2acc 85f1 c6a6 713f 950c a58f 7d05 ad3f
000002a0: 239c bd9d d62b af3f 674c 8191 0715 b0bf
000002b0: d732 351d eb25 b2bf 2fe1 241a a7f1 803f
000002c0: bee4 274c ff49 8b3f bbb8 7839 a610 a93f
000002d0: 832d fb65 e51a abbf f4c3 926e b847 bb3f
000002e0: ebc7 8b0b e260 b33f 9b31 c49c 1efd a83f
000002f0: 042d 4cb8 e465 b9bf 9979 6a1c c0e8 a23f
00000300: 8913 2391 c087 a03f f1cc 3c61 d5d4 a73f
00000310: 7dfa 1ed3 a908 a5bf 71b4 067a 40b2 acbf
00000320: 6881 40e7 fb62 bfbf f16d 24a2 6a30 bd3f
00000330: 6aca 705a e664 7f3f c223 f05d 37e2 b13f
00000340: d2e8 4e4c 89bd ad3f 7b95 df86 ccb0 b53f
00000350: 0c1d 8de1 3cae a9bf a49b 0215 6f9c 42bf
00000360: e392 a18a 18d2 5b3f 1c22 e52d 011b b53f
00000370: 0081 8e58 8468 b33f 3bd0 c897 aeec b6bf
00000380: 04af f687 e43c 28bf b68f 5f65 1414 98bf
00000390: 50ce 0642 f005 bcbf 60bd a6ee e2c2 993f
000003a0: f074 d8af 0c54 b43f 9799 b3cb 4cea c1bf
000003b0: fe57 5157 51e6 893f 6a6a b128 e00d c0bf
000003c0: 2387 0c4e 1aa3 b5bf ab4c f0c2 c19d c13f
000003d0: 5e3d 5a5d c266 8cbf 092d 6a19 76a6 b6bf
000003e0: b359 d991 82b3 953f db98 e58e 4b72 b63f
000003f0: fa42 6371 1e69 bbbf 093a 6ad0 9985 b43f
00000400: 934f 0078 bbc0 b9bf 026d dc57 a98c a23f
00000410: e6a0 ad08 ed72 7d3f e3c2 b24e 8e61 a5bf
00000420: cabe e42f c963 b83f 9b8a 33aa 5e72 a73f
00000430: 7765 01bb d392 a0bf c704 d315 3f44 b23f
00000440: 5682 bd29 60bf a9bf a541 0d2f a2ab bd3f
00000450: 4f4b f580 50df 973f e5dd 287c 88e9 b1bf
00000460: ca38 5d91 db56 bfbf 5c4f 47e1 2387 a33f
00000470: 74f1 e463 c571 88bf e4a8 8944 fbb7 95bf
00000480: 7b5a 958a a88a a03f 24c8 d4b4 4223 b6bf
00000490: 188a d21c f453 bdbf ddcc ec81 a186 a63f
000004a0: 6870 4b8e 1a4f adbf dc5f 7356 ed9c a23f
000004b0: 1844 ab7d 72de ae3f 05ad 3ebf bdba bd3f
000004c0: 84fc f7a3 a6cb aa3f d503 675a ae0f b63f
000004d0: 0958 d31f 21e3 b53f c6ee da18 9086 aa3f
000004e0: 8d69 c5b1 a893 b8bf c40e bcd6 5d80 bc3f
000004f0: de25 b061 be2a 563f c4f5 5b54 177e be3f
00000500: 93f2 0cc4 af8e 9bbf b7ca d7e7 f374 a03f
00000510: e742 5b2b d100 ac3f 4b4f 9e33 f149 a23f
00000520: 01ef cbdb cc11 babf 0eaf d2f4 6a82 b23f
00000530: e356 c6ff 27a1 bcbf 7ee1 8725 900d 9bbf
00000540: e095 778f 4763 af3f c5d1 398a 8a06 493f
00000550: 91d5 1914 822b 90bf c2c8 a438 e3b8 c4bf
00000560: 36df f81a 0ae5 853f 0efc 4985 c678 a63f
00000570: 3a92 8108 1dfa abbf c210 6733 f2d1 9d3f
00000580: ea6a 2df5 9d85 c0bf e5db f553 30be 8d3f
00000590: 8f3a 9603 2145 a03f 0d64 8640 f8ee b8bf
000005a0: 514c 3dc6 cf0b 913f 3f5e 0ec9 d0b6 b23f
000005b0: 72a4 2e43 b2b3 a23f 039e 7b05 032d 91bf
000005c0: ab60 5080 8784 b33f 2cf5 c5b7 bcb1 b8bf
000005d0: b307 8006 affc 8abf f193 8c1b eae4 8f3f
000005e0: 307c 15cf 578d ac3f adeb 4d6d 795d ac3f
000005f0: 8e5f 6b63 5b8d b73f c4fb 4924 d10a b7bf
00000600: 50c6 e4a6 21c5 94bf 94c4 4f0e 13aa 543f
00000610: 83b8 c728 cdb4 a13f 249a 2516 d868 a7bf
00000620: 389b 39ad c483 aa3f 6096 9f4e d82b a33f
00000630: 3e11 0d8a aa51 b33f a9ef 859e 9dea acbf
00000640: c238 9565 81de 74bf a9ca 0be8 2986 a5bf
00000650: ccda 81ac ba18 a2bf 1ade 5945 b735 bfbf
00000660: c8e5 9eee f9eb adbf 5138 04a6 3aab a0bf
00000670: 3ce7 ea12 eb31 b8bf e2aa b61b c70c c13f
00000680: 2a92 70e4 d915 abbf 19e5 ebd2 1432 b13f
00000690: d486 0915 11f9 b1bf 5dc9 6fff e011 90bf
000006a0: 4777 825c 0d05 9dbf 0a95 ee8b fcdf 773f
000006b0: d4c4 074b 5645 c03f 88f7 92d5 7b88 ad3f
000006c0: eeb9 5a8d e60a 8f3f 5bad 174c a086 a5bf
000006d0: 7ca8 8772 3470 66bf 700b 3f20 4118 913f
000006e0: 5083 8542 d42d b53f e659 c6f3 1854 aebf
000006f0: d69b a608 bd53 653f 09c7 1819 380d 97bf
00000700: 0fec 3926 ecf6 7c3f 6259 aa8f c944 b4bf
00000710: cf55 6fe5 c3f8 babf 6452 2124 c96e 8bbf
00000720: 7b19 2821 0248 a13f 28f0 1fa7 8ce5 c5bf
00000730: 601f 4ec0 243b c23f 8887 fb95 5346 973f
00000740: c614 a82d 14a6 8abf 1b0e f851 eafa 843f
00000750: 20a4 cc9a c779 b23f 25f7 7985 7639 85bf
00000760: 11f4 7a7e f85e 9dbf 35f8 73a9 d995 aa3f
00000770: 6a7b 6e81 d11e 84bf f63b f375 6d05 ac3f
00000780: 988a 56c5 b88a a63f 4cb8 7fe6 8b78 c2bf
00000790: 2a64 74c5 45f4 6dbf c0fc 7bb3 eed0 9fbf
000007a0: 14c4 a6a5 2605 97bf 4e30 9ac1 2e90 953f
000007b0: 226d d9cf c8ef b03f eee6 1e65 d703 c1bf
000007c0: cdac a7af b3df a33f 00b9 5c2b 64d4 923f
000007d0: 84c8 4eb8 5cb1 ad3f a339 a797 1cfd bdbf
000007e0: 17d1 c8d5 40b4 9cbf 9969 502c 9e7b b1bf
000007f0: a94a f541 afd0 aa3f 778a 196f ce06 a13f
-0.003537163254044128 0.08025692859027614 0.07735810576417686 0.08586916703175292 -0.05370127594742529 -0.06517408443930879 -0.05079021674827065 0.0838821913794749
-0.0006829145470500238 -0.01388074801235676 0.08495893001629065 0.12220530386553342 0.025121059221408244 -0.04933470902164789 0.04384511203435044 0.10906971633476215
0.05007321726743117 -0.013596614561691743 0.045947241980589894 0.03012138923107411 -0.014561456367666535 0.10747003361730285 0.018839718714580914 -0.06191072156733221
0.12214217390295566 0.023892455841290003 0.08516574009197797 0.10585522433079211 0.08415376798308334 0.10598957483242265 -0.12604632004152727 0.016903443599865457
-0.06364954890448182 0.09583772878437478 0.029613872773573562 0.09538266036774563 -0.08142334736564728 -0.025178662374066647 0.05526919957899335 -0.03501791201085515
0.021172982415050345 0.02916158903894434 -0.09264657684260837 -0.13705752691701586 -0.05556873201510883 -0.07580334832205968 0.053808007554678905 0.03211398092080398
-0.06938667229521109 -0.012051543964353175 -0.06864532058536128 -0.12299236404733356 0.019839598776259904 -0.037344342727772394 -0.09371293395890892 -0.06372462363896846
0.08686789650753221 0.012104734280752778 0.030715945474597005 -0.04385459611723166 0.0071904506531270534 -0.14970149755520865 -0.008992785281916929 -0.05314644152607257
-0.08011549473229035 -0.007969084597235249 -0.10471649977916692 0.014479361599052965 -0.08294785253018773 -0.07370284803183752 -0.0375830946739327 0.021793707269480843
-0.06681020176062716 -0.00929742943710866 -0.07787403251280042 -0.10692900429124844 -0.15106719976294963 -0.0806755471936088 -0.062399175327617934 0.010468624067366024
-0.040173695850243336 0.14443855692039695 0.004309441683619611 0.056682513985401396 0.06088133502526485 -0.06282088568086551 -0.07089108908730722 0.008273416028359818
0.013324732314674011 0.04895514918858753 -0.05293957586180922 0.10656311702292937 0.07569706708798633 0.048806149136086684 -0.09921102046444125 0.03693199488519667
0.03228570720378971 0.046545665855228686 -0.0410817213264538 -0.05604745378091359 -0.12260412593650971 0.11402002771904286 0.00766458493949305 0.06985803645524327
0.05808667236802169 0.08472898762518881 -0.05015745404539915 -0.0005679647820401213 0.0016980399764402957 0.08244330759510671 0.07581355249431354 -0.08954898076700683
-0.00018492021261572883 -0.02351409786923827 -0.10946561443307101 0.025157495323296586 0.07940749447921625 -0.1399627680431876 0.012646327473856186 -0.1254234503456531
-0.0845200005101359 0.13762685793390025 -0.013867872690097979 -0.08847749824979102 0.021192588951032664 0.08768150557225189 -0.10707273739104642 0.08016358698134964
-0.10059711150853294 0.03622941205522957 0.007189680017156008 -0.04175991736099662 0.09527261180187022 0.04579444720890998 -0.03237020166188647 0.07135385783023472
-0.050288205237624936 0.11590016983723801 0.023312814589483918 -0.06996968299141988 -0.1224190931218089 0.03814041256887776 -0.011935751067192447 -0.02120964628049017
0.032307879368706126 -0.08647553362678245 -0.11456227973625521 0.04399590216635272 -0.057244138593632254 0.03635350876146479 0.06029088768048768 0.11613069457114385
0.05233498336382872 0.08617677409257792 0.08549696948043119 0.05180788329513812 -0.09600309696307914 0.11133371822875932 0.0013529643244985993 0.11911149797011605
-0.026911493626573146 0.032142278720035326 0.05469373373273872 0.03572038416964903 -0.10183410993698418 0.07230251767276405 -0.1118340491724115 -0.026418926516244216
0.061304317725255464 0.0007637192215513225 -0.01579097030340432 -0.16189232126050085 0.010690764377713085 0.04389019372046486 -0.05464258889040648 0.029121193301549615
-0.12907766791871406 0.014522912561671883 0.03177741211685713 -0.09739638877216823 0.01664662024934344 0.07310204418751541 0.036527224255515814 -0.016773268899582316
0.07624098665872008 -0.09646205412532954 -0.013177268396251529 0.015573338475926209 0.05576586153869589 0.05540065249711943 0.0920006864283762 -0.09000880371057379
-0.02028324681413657 0.0012612520306414564 0.03458253023914983 -0.04572177191112228 0.05178656210482874 0.03744388541944654 0.07546487684618783 -0.056477475739455336
-0.005095010238916399 -0.04203921277612228 -0.035344918783200535 -0.1219133896173549 -0.058440981272223136 -0.03255637432640469 -0.09451169216017957 0.13320244649124563
-0.0529010859829991 0.06717043065500085 -0.07020670665363166 -0.015693202581993904 -0.028339585086192966 0.00582884455699185 0.1271159998282544 0.05768191320520005
0.015157509983819897 -0.04204274109710112 -0.0027390503275813143 0.01669408568683245 0.08273054718075668 -0.059235362775485176 0.00260340614950703 -0.02251136449030525
0.007071421106611644 -0.07917461163956355 -0.10535835601270736 -0.013394900717835508 0.03375250487083555 -0.17106779251469217 0.1424299181928701 0.022729211835105484
-0.013012082713439798 0.010244207979673672 0.07217071084291193 -0.010363508175256062 -0.028682596893066462 0.05192451661604062 -0.00982440639728362 0.05472890915699928
0.0440271130458047 -0.1443037868006648 -0.003656517288288548 -0.03107045145497689 -0.022480586872635724 0.021057825628801922 0.06615881990858388 -0.13292972981962897
0.03881608504510723 0.018388333460443995 0.057993791101936615 -0.11714342787238378 -0.028031361626021125 -0.06829250890624507 0.05237338714745949 0.033255053579314735
