2layer_test/weight3.npy (npy, 10368 bytes, 1 tensors)

array f8 [128, 10]
0	0xbfc984ebe84e5a04	-0.19936894267148386
1	0x3fd9cb78cd338b17	0.4030439380568835
2	0x3fd75930e7f1bbd2	0.3648187890129836
3	0x3fa81d7fb93ada5f	0.04710005889994728
4	0xbfc0aed1e1056d3e	-0.13033507811892692
5	0x3fb084435b98568a	0.06451817499358917
6	0x3fc3cc58850fac6d	0.15467363831644168
7	0xbfc85f04ee7d823d	-0.19039975781471866
8	0x3f9ceca61ad337b4	0.028246493708870182
9	0xbfdd4f9fdefa4b72	-0.45798489356200556
10	0xbfd0fe24af6445e4	-0.2655116761025893
11	0xbfd7a495f1514aa7	-0.36942051473776377
12	0x3fa952fdb14d76e9	0.04946129597986532
13	0xbf6934aaab5ff613	-0.003076871241318066
14	0x3fd09046cb236759	0.2588059409878177
15	0xbfc8dec1e4b37223	-0.1942980162338169
16	0xbf9897e01b02864a	-0.02401685871939766
17	0xbfc03e7492ea9a7c	-0.12690598653462704
18	0xbfc0b16b865bed27	-0.13041442928793254
19	0x3fd1cdb132ffd9ed	0.2781794546166612
20	0xbfbe11c5b8032ea7	-0.11745868437281591
21	0x3f9fff59b9509e0d	0.031247522292828168
22	0xbfc94ad9a1015662	-0.19759674417098255
23	0x3f976e273d0878ee	0.022881138897099022
24	0x3fde991532706c30	0.4780934326715309
25	0xbfd0bfa1babf7bb7	-0.2616962741575963
26	0x3fb8ed3ecba937ef	0.09737007591431256
27	0x3fd125c2123cb55f	0.2679295709702582
28	0x3fa78e153c4947cd	0.04600588189045105
29	0xbfc8621c02e75726	-0.19049406186848578
30	0x3fbcc2356e916330	0.11233838986789801
31	0xbfdb13475b75414c	-0.42305168086479195
32	0x3fd21261b574cf0a	0.2823719284090066
33	0x3fcd69c895743b6f	0.22979075715599204
34	0xbfd622557e868690	-0.34584557872776944
35	0xbfca0bf1419af51d	-0.20348945334800642
36	0xbfc2995736ac4706	-0.14530458612039626
37	0x3fa02483f364bb1f	0.03152859064208812
38	0x3fd37f83803afd37	0.304657817101503
39	0xbf8d94a6acb71fb1	-0.014443685670712943
40	0xbfb0cc7e9114612a	-0.06562033693297012
41	0x3fc2683cb098b46d	0.143806062916528
42	0xbf96c57baa4011c2	-0.02223771311402501
43	0xbfb9fc05b18e46ff	-0.10150180420739828
44	0xbfc90f0ec5d263b7	-0.1957720247198986
45	0x3fc0ce4ba4e00e99	0.13129563856647478
46	0x3fc9448c73fd3cc2	0.19740443862472118
47	0x3fa77b84d8d86a8b	0.045864249678023127
48	0xbfc89f03f6ee7164	-0.1923527675361455
49	0x3f933c36fd3a8423	0.018784388738485213
50	0x3fb9c15fa9a73dfb	0.10060689823080075
51	0x3fcada8ec598e3b0	0.20979485176374402
52	0xbf9ddfbd036abeb7	-0.029173806508593993
53	0xbfcccf49bdeca33c	-0.22507592939043686
54	0xbfe3b5fe1d0708ba	-0.6159658972685726
55	0x3fd412aa38e1b988	0.31363921694619323
56	0x3fd6db6f189c4e55	0.3571431866014099
57	0xbfc39a1e09012d26	-0.1531407875030279
58	0x3fa3e88197d32a20	0.03888325670557813
59	0xbfd078024738a9c1	-0.25732476191720016
60	0x3fc75645a11befad	0.18232031218201197
61	0xbfd052a226594a3d	-0.2550435423374074
62	0x3fbf558d40e89d99	0.1223991664379497
63	0x3fb145f2fad2deae	0.06747358916879406
64	0x3fcd806a50c456e7	0.23048142379473477
65	0xbfba3310fba64056	-0.10234171050820015
66	0x3fd88060fb705d20	0.382835622354337
67	0x3fd4c1298458a4be	0.3242896835750563
68	0xbfd4eadc987e0d20	-0.32683482066950553
69	0xbfdc3b56ee2682d7	-0.44112180001142803
70	0xbfc48865a11678ee	-0.1604125057755889
71	0xbfce2bbae7c304c6	-0.23570953670972566
72	0x3fe1ce6c291cf094	0.5564480593671015
73	0x3fb244e41915c914	0.07136369335583864
74	0x3fc38526e1d9d075	0.15250097301361945
75	0x3f7c2d1ffafb872c	0.006878971980514053
76	0x3f96a6cf99cef814	0.02212070823929231
77	0xbfc6da82a97838cd	-0.17854340815433148
78	0xbfcb3f08a3daab76	-0.21286113739673923
79	0x3fab5b0acbd8bc72	0.05342897165643813
80	0xbfc2e7da413ab197	-0.14770057854674398
81	0xbfc75ff05eb7e9af	-0.18261532425806368
82	0x3faaea9e14523343	0.052571239452936534
83	0x3fe07f522bb1b647	0.5155421117212392
84	0xbfc3f048fb8f0f67	-0.1557704189600557
85	0xbfb9d91f7ddf3f85	-0.10096928427742398
86	0xbfc5da345594deb3	-0.17072157076630887
87	0xbfaa82a220549245	-0.05177790302903821
88	0x3fcf451caf5bf78b	0.24429663240874464
89	0x3fc4bd8f98e6a1b6	0.16203494039406302
90	0xbfd4a3077c620aeb	-0.32245051523948004
91	0x3fcd4226230fe164	0.22858120643628432
92	0x3fa79b1715cae167	0.046105119142739785
93	0x3fc1981e23314cec	0.13745476454150862
94	0x3fbb3f47220f95cb	0.10643429357113303
95	0x3fb0c06c6794bd72	0.0654361489184703
96	0x3fd0ca461c97791c	0.26234581749112507
97	0xbfd86cc7ff0fac74	-0.3816394797165181
98	0xbfb0914e59f2d6f8	-0.0647171945191437
99	0xbfde126cde930815	-0.46987458930755227
100	0x3fa9dba9ebc1ce41	0.05050402644056052
101	0xbfaa1d508f9287ea	-0.05100490334122283
102	0x3fd43f03e839db94	0.3163461463768098
103	0x3fd10496a31feb52	0.26590505533356634
104	0xbfb4246f7bea79e7	-0.07868096137324408
105	0x3fb6081bf2e43b07	0.0860612361904992
106	0xbfc34d4ad794623f	-0.15079627539013704
107	0x3fcf717b20535ab1	0.24565066412352146
108	0x3fa4898f010006fb	0.04011198889931041
109	0xbf80037b6475de3d	-0.007819141391094958
110	0x3fc99c7da9fc59f4	0.2000882225044759
111	0x3f93c950eed06261	0.019322647644090533
112	0x3fbd5a9393cb5c7c	0.1146633373094676
113	0x3fd4c7ed4955704c	0.32470256959436905
114	0x3fb3fce42e3bac02	0.07807756546723968
115	0xbfd85499b3f7676c	-0.3801635987743939
116	0x3fd060da5a795f11	0.25591143451082227
117	0xbfc2b35a835993c8	-0.1460984364850033
118	0x3fd1d6c82094fd60	0.27873423749766424
119	0xbfbd2ee9ad0f86af	-0.11399708247292993
120	0xbfcd37a96d4c29c3	-0.22826116406242933
121	0x3fc80a2997ee15e0	0.18781013411005087
122	0x3fa8783fe004c1f7	0.047792430969256054
123	0x3fc5d27a288bf22d	0.17048575382058698
124	0xbfd93bfd66749af8	-0.3942864895383731
125	0x3fd033d2db8a269c	0.2531630653325949
126	0x3fc4bd9d016a0b26	0.16203653878263785
127	0xbfd57a797220b34c	-0.3356002440003081
128	0x3fc00fade056e6ee	0.12547849134516958
129	0xbfd37a2f9c3e539b	-0.3043326402487822
130	0x3f925742a88dcf47	0.01791099694987899
131	0x3fda8da29d5645c7	0.41489472737256644
132	0x3f9e7511b2e26d5b	0.02974345831226564
133	0xbfd6c3de4a5ac46a	-0.3557048536413904
134	0xbfb037cdf2762c36	-0.06335150880310966
135	0xbfca28d937fa1e1b	-0.20437159760716458
136	0x3fd6ad760ac0442b	0.3543372254362704
137	0xbfa6e969e3163852	-0.0447495546060145
138	0xbfbafbfb7da97368	-0.10540744607847119
139	0xbfd8ca8c2e477d93	-0.38736252326449366
140	0xbfc5de8b85d2e6f3	-0.17085403475157754
141	0xbfa741417d199101	-0.04541973735902794
142	0x3fd2861478f495ff	0.2894335919575894
143	0xbfb09e728c58d875	-0.06491771627847405
144	0x3fd4a67f708b24c8	0.322662219911376
145	0xbfe2dd9ba2476759	-0.589551751090066
146	0xbfd0766e76ec3bfa	-0.2572284852366803
147	0x3fd5c58314650029	0.34018017760900193
148	0x3fd3ff79f3f7dd35	0.3124680407049312
149	0x3fc0aee3d409baa6	0.13033721784036806
150	0xbfb1ae20af65972d	-0.0690632274832665
151	0xbfd7053c4a0f61a4	-0.35969454986982385
152	0xbfc45735aff2659e	-0.15891142932086394
153	0x3fd59fc16e1e69d8	0.3378757071856433
154	0xbfd7b5323df5657a	-0.370434341913629
155	0xbfcee42a54f73e96	-0.24133805416794435
156	0xbfd64de62a0b2332	-0.3485045824605094
157	0x3fca16189def939d	0.20379932128630865
158	0x3fb60c87a8a0252a	0.086128691356994
159	0x3fd0a45dedfff649	0.26003216020749115
160	0x3fd3581a2aff6698	0.3022523326777473
161	0xbfc839349c943aaa	-0.18924577374896973
162	0xbfddc88951dae2ad	-0.4653647708287661
163	0xbfd11589f734570b	-0.2669396318536747
164	0x3fd1251c81452728	0.26789009689365395
165	0xbfd3c6a936193506	-0.30900030406049017
166	0x3fd2521973305c08	0.28626095055500445
167	0x3fb11d1c99ba1f17	0.06685045960523116
168	0xbfe1ebf139df41cd	-0.5600515489878092
169	0x3f618e650f1a3ea8	0.002143094426010201
170	0x3fcc35fc9f0a40eb	0.22039754644038764
171	0x3fcfb6b5457dfc9a	0.24776330845995603
172	0x3fa011c69c165bb1	0.03138561873782154
173	0xbfd09c85b1aff2d8	-0.2595533595302135
174	0x3fcbf071366d97b9	0.21827521474477665
175	0xbfab1fce0fbb13c8	-0.052977027340183336
176	0xbfd87d62ff6dac8b	-0.38265299743825015
177	0x3fd267d7451ab980	0.28758794544673805
178	0xbfb5671ef0d18d48	-0.08360474948272156
179	0xbfc97bc91841af0d	-0.19909013447192372
180	0xbfcdbccf657a4240	-0.23232452826461447
181	0x3fcb8551434180cc	0.21500602516153433
182	0xbfc46526d55b2fec	-0.15933690469535067
183	0x3fd71d0b13b2ab3d	0.3611476604807427
184	0xbfd439e7428cf9cf	-0.3160341405781794
185	0x3fd0597085fd6edd	0.2554589565749959
186	0x3fda046fdf0f9506	0.40652081282890185
187	0xbfccd9026ab8a0ba	-0.22537260256763664
188	0x3fac36396dea12ef	0.05510119883277819
189	0xbfd0853e0992487f	-0.2581324666472326
190	0x3faa05c3b8b265b3	0.05082522992706675
191	0x3f9f39f27e8a08c9	0.03049448869070018
192	0xbfc405184f35c6d0	-0.156405485798635
193	0x3fe0b77fa9b56a72	0.5223997416135957
194	0xbfadbe79cb7f3e65	-0.05809383973212049
195	0x3fd94aa82661cccb	0.3951816916298411
196	0xbfb63c7b4f2b853e	-0.08686037714825987
197	0x3fa57422e56e3598	0.04190167475381229
198	0xbfd7e453c7f58ae1	-0.3733109905935362
199	0xbfcb34f06b2feb13	-0.21255307420491273
200	0xbfb6fc25a082814b	-0.08978495758720333
201	0x3fd517b136e745ea	0.32957105981503665
202	0x3fd5e3aba0d38767	0.342020899826926
203	0x3fcd3cc67f6dc94f	0.22841721746551477
204	0xbfb005602782a283	-0.06258202519041771
205	0xbfa132c19fce0ae9	-0.03359036517851683
206	0xbfd443ac68285e31	-0.3166304604687609
207	0x3fc5ae1e193f80cd	0.16937614662948022
208	0xbfd318c202ac68f2	-0.29838609944421457
209	0x3fa625d8570d4f4e	0.04325748503347758
210	0xbfb07879946cf647	-0.06433830140755346
211	0x3fced2acf57cc158	0.2408043097179966
212	0x3fc3bc4ec6891ed2	0.1541841954624404
213	0xbfac24db7b33de07	-0.054968699254399005
214	0xbfd25a596150556e	-0.2867644739465821
215	0x3fcda1643ce53036	0.23148777936364845
216	0xbfc9f4e7da9a45fa	-0.20278642820316845
217	0x3fd56e0f5d8927a4	0.3348425305781524
218	0xbfc63f202f32700e	-0.1738014440969668
219	0x3fba2e49ad955d3d	0.10226879585149092
220	0xbfe179b58e4693d9	-0.5461070803472651
221	0xbfc298b5b33dee47	-0.14528533222243054
222	0x3fc560438af14c80	0.16700023922257756
223	0x3fce0a0db752d827	0.23468181086872272
224	0x3fcc70dd1e3f287e	0.2221943280877134
225	0x3fcd5a8b3659d21b	0.22932567743159002
226	0x3f63a43e17883659	0.0023976528866629762
227	0xbfd5de17769c7cbe	-0.3416803987801805
228	0x3faf55f5dbee1e02	0.06120270070737989
229	0x3fc9f4732af0d479	0.20277251812663957
230	0xbfc6f91132c09538	-0.17947592714441796
231	0xbfa089dc323d0081	-0.03230178941021312
232	0xbfcbf66ffb4fd025	-0.21845817347605237
233	0xbfb545f76cff02c2	-0.08309885417021248
234	0xbfd0d08e751b52c7	-0.2627292770023754
235	0x3fd97e9539a5a961	0.3983510077438464
236	0x3fdb42313ea21cec	0.4259150611546392
237	0x3fd27471d5da164d	0.28835721858954316
238	0xbfb59c9171339df7	-0.0844202901240506
239	0xbfc7213c06ba2a53	-0.18070173576809853
240	0xbfd9bb20287aa128	-0.4020462413123078
241	0x3fd6739a9ccfe5d7	0.3508059054725811
242	0x3fd5373c3224aa7a	0.3314962854080147
243	0x3fcf4425adaccb4a	0.24426718692992672
244	0xbfcff928fc6ee17c	-0.24979126287304243
245	0x3fc55c3e871abafd	0.1668775710763483
246	0xbfdd999db63dd536	-0.46250098034882414
247	0x3fd4df8182ae6bba	0.326141717546928
248	0x3fcfca421f47b821	0.24835993316031682
249	0xbfd030a481b1332e	-0.25296890893223434
250	0x3fd1fe16fad12047	0.28113340848768015
251	0xbf77403975d16f71	-0.0056764835872761136
252	0x3fd37a26bba512b1	0.30433052372635944
253	0xbfdbcb29145dfdb5	-0.4342749308488821
254	0x3fc7a42777ab15bb	0.18469708769968726
255	0xbfd3ea968fada492	-0.3111931231602024
