some/bias1.npy (npy, 4224 bytes, 1 tensors)

array f8 [1, 512]
0	0x3f8a9043a802c71f	0.012970474781784312
1	0xbf90596f44f07684	-0.01596616609832903
2	0x3f92a1a48286d2fe	0.018194742647852806
3	0x3f65ef9874de1d64	0.0026777246156971957
4	0x3f903804c14a3078	0.015838693902467033
5	0xbf9549535cb3baf4	-0.020787527592740454
6	0x3f8db5ac993e7a4f	0.014506672312390693
7	0xbf73ddac611f3aeb	-0.004850076062168122
8	0x3f8f5f3478eee3ec	0.015318307819926567
9	0x3f784f6b99708418	0.005935116109896853
10	0x3fa07a742cc0e532	0.03218424841220226
11	0x3f9f8a431dbb78f5	0.030800865831104713
12	0xbf9423f30b0cc163	-0.019668386029651496
13	0xbf7c67aa4a0c6e69	-0.006934800331488946
14	0x3f9e70a373ec05cd	0.029726556730570942
15	0x3f95676838168100	0.020902279303869342
16	0x3f97e94d726eb34f	0.023350916013146258
17	0x3f8abccaa53d4551	0.013055403869347034
18	0x3f8885e54eb51a0e	0.011974135841808422
19	0x3f7c8c74972c9de7	0.006969886237846868
20	0x3f84d2b135a058f0	0.010167488526388685
21	0x3f8d6ffbee08254e	0.014373748971609725
22	0x3fa0d9f424660daa	0.032912854617303935
23	0xbf9cf1fdf9277cae	-0.028266876537483547
24	0x3f81814db6c4600d	0.008547408237561194
25	0x3f9ff2ada880cd20	0.031199181947340837
26	0x3f8d13d9ba00bed2	0.014198018063410176
27	0xbf907bd35f63117b	-0.016097357460937083
28	0xbf66bc5d1b5cac74	-0.002775365685825865
29	0x3f8ab876867d37af	0.013047147731096801
30	0x3fa6aa662daa1f2c	0.04426879222324795
31	0xbf9b024f04a0901e	-0.026375994355603997
32	0x3f77ad5b4bc54fa2	0.005780560135764919
33	0x3f9d542bf7fc5f44	0.02864140225491886
34	0x3f716a62941a4b1f	0.004251847336166375
35	0x3fa24f95c265fb3a	0.0357634353449527
36	0x3f95ede62399bc04	0.021415325091251006
37	0xbf89f60239687d04	-0.012676255585630354
38	0xbf686eebc028581b	-0.002982578707142925
39	0xbf8baa93d9019faf	-0.013508944568641683
40	0xbf7c077134172336	-0.006843034936033379
41	0x3f9cf6f19bd378be	0.028285765777461995
42	0x3f983bb4169031a7	0.023665250661041217
43	0x3f96f1af61da2ccc	0.022406330439974906
44	0x3fa15c81aed91bf2	0.03390889415145883
45	0x3f947e2a2d02a840	0.020012530324187816
46	0x3f9dc1dba7b8c0e8	0.02905982218925454
47	0x3f871503dbdc1bd0	0.011270551821793179
48	0x3f800704a172d92e	0.007825885941525525
49	0x3f72a7609438364a	0.004554154645587236
50	0x3f97d91760968a12	0.023289075155512214
51	0xbf5361ee956769c7	-0.0011830167692240422
52	0xbf54885c14b97fe2	-0.0012532138088303603
53	0xbfbe607400c65986	-0.11865925806919195
54	0x3f9f72e9e8475f13	0.030711798479244722
55	0xbfaad795329cd0c0	-0.05242601626233201
56	0x3f5f2c75c23d4890	0.0019026899326104775
57	0x3f91a7a420ccf9ad	0.0172410626430463
58	0x3fa1ba3d02cfbebf	0.03462401065178033
59	0x3fa8fdd48735c103	0.048811570649265355
60	0x3f83d0cde191e1fe	0.009675606199594174
61	0x3fa0e7433fc22943	0.03301439431477828
62	0x3f7011c24ee00a87	0.003923186317481459
63	0x3f9f3d0e42ce22cb	0.03050634653803534
64	0x3f90aab3edc63807	0.016276179683295335
65	0x3f902475434835f6	0.015764076453754293
66	0x3f89b038ac5b1f7b	0.012543146858106749
67	0x3f6259b6e56aa658	0.002240044802722701
68	0x3f834e5e9fff60e8	0.009426821954477707
69	0xbf9b53324ba7a145	-0.026684556834795776
70	0x3f9042d07294542d	0.01587987613045898
71	0x3fa4a4f6cbd6bad8	0.04032107580439054
72	0xbf9b2b6eb28ba869	-0.02653286900287136
73	0xbfc0e86339c937e1	-0.13209190675337282
74	0xbfa42daf485b0b68	-0.03941104658362954
75	0x3fa1ec663da84dd5	0.03500670912412899
76	0xbf96b0f7aa2ea93f	-0.022159452211476745
77	0x3f8d289b359d3404	0.01423760659567997
78	0xbf93d9da3f930ab6	-0.019385728960296965
79	0x3f721f8d0ee8c626	0.004424620636699161
80	0x3f998706f08ea23a	0.024929150040096305
81	0xbf5d1e0edc83c604	-0.001777185929367043
82	0x3f8ea8df66f54b0f	0.014970536546262929
83	0x3f80c17771d15df5	0.008181508217758962
84	0x3f8b175ab429396c	0.013228138564184554
85	0x3f85331829f86f46	0.010351361065708563
86	0x3fa2713c2c284d8a	0.0360201648619763
87	0x3f987a4d203197ae	0.023904042329739354
88	0xbf8bb194ed25c1ca	-0.013522304045836448
89	0xbf9a9a2c6ca5a78b	-0.025978750354091622
90	0xbf9903d83caa1bde	-0.024428728773752677
91	0x3fa48ffcbc822d6e	0.04016103554848881
92	0x3fb1690c7d9ccf79	0.06800916735374853
93	0x3fa6fb943676d39a	0.044888145111520575
94	0xbf8392b331160ced	-0.009557151732912017
95	0xbf5c97eefb450e25	-0.0017452081493311092
96	0x3f8036cb88870d17	0.007917013267507529
97	0x3fa3c4cf955bf5a2	0.038610922796560546
98	0x3f972840656d1060	0.022614484968713433
99	0x3f7f82235a9be3e3	0.00769246873982696
100	0xbfa81627b7442d02	-0.047044030305267284
101	0xbf90a50139072e0f	-0.016254443269458515
102	0xbf74113dbce41614	-0.004899254954812377
103	0x3f97b4a544abc54f	0.02315004569658657
104	0x3f96d5894a7f2d9a	0.02229895131294555
105	0x3f71e5aa0b134bd7	0.004369415503975702
106	0x3fa53b0b90642fe8	0.04146610391225619
107	0x3f75f2a3dbc29f9b	0.00535835272982146
108	0x3f76088d9b418f39	0.005379250669736818
109	0x3f73d2b359a1ba54	0.004839611612722356
110	0xbfa598f6db4f17fb	-0.04218264987098049
111	0xbf8e48073af9222c	-0.014785820471972043
112	0x3f96ad6f5aa8ceef	0.022145976932917696
113	0xbf995629823d9a29	-0.024742744993455332
114	0x3f9aca4df67fd03d	0.02616235558521417
115	0x3f94c479aa0ec187	0.02028074360322443
116	0x3f988ec9dea1c567	0.023982195104001926
117	0x3f9ee421f2c3d31c	0.030167131845661208
118	0x3f909023d035e0a0	0.016174850066335567
119	0x3f924f99adf15f98	0.017881776086454332
120	0xbefabb4b99966ad1	-2.549326163645943e-05
121	0x3f98ab33fe2f77e1	0.02409058798718167
122	0xbfb4b1e526465bd4	-0.08083946403927139
123	0x3f7e96ae5f943d2b	0.007467919488831225
124	0x3f793aeffb4a1dba	0.006159722736476631
125	0xbf801c1d708c4f59	-0.007866125104136467
126	0x3f81b56ec0269770	0.008646836508727523
127	0x3f86051037590c07	0.010751845063287758
128	0xbf64a50784714b82	-0.0025200983832660015
129	0xbf9b592b41e5d528	-0.026707340142327812
130	0x3f7940ea0a628ce6	0.006165422650300933
131	0x3fab1be71e56718b	0.05294725652058493
132	0xbfa54e6b0f6ff91a	-0.04161390841908226
133	0x3f8c041ea8d77b13	0.01367973282589
134	0xbf6616f6567d4a8e	-0.0026964961324805253
135	0xbf76195884137b12	-0.005395265355416583
136	0x3fa24abfd9ec77c4	0.03572654280854651
137	0xbf886975c5d67863	-0.011919899082212198
138	0x3fa0aea33ca80e1e	0.032582379488328636
139	0x3f869e6d51b7d43d	0.01104436307557865
140	0x3f80e9a3e981221f	0.008258133471955862
141	0x3f70b8a5448ddd0a	0.004082341744712234
142	0x3f997661da919677	0.024865654912352455
143	0xbfae9e372da8d8c6	-0.05980083877914093
144	0x3f717667499ef882	0.004263308970562931
145	0x3fab8b753605793d	0.05379835400047959
146	0xbf96c6a803876ed0	-0.022242188659091167
147	0xbf91ff3877960c06	-0.01757515172858961
148	0x3fb92fc56aab444d	0.09838518003677273
149	0x3f89fcc1d1b60878	0.012689127170919287
150	0xbf4ce896df2f7ac8	-0.0008822189978408774
151	0xbf5abc2d64169118	-0.0016317790290055253
152	0xbfa75d09df70c5b2	-0.04563170292420739
153	0x3fa28242c04112b0	0.03615006062367365
154	0xbfa64f2adf45bac7	-0.04357274985783515
155	0xbfaee25c904f79b2	-0.060320751777669726
156	0x3f611962f18fc8b1	0.0020873005382720734
157	0x3f58cf5e4c6308b9	0.0015142842180897855
158	0xbfa849631ce401ac	-0.04743489959401201
159	0x3fa8c45d052a48be	0.04837313354541227
160	0x3f84cca66a68ef88	0.010155964014408672
161	0x3fa964104bf4d0b8	0.04959155013276145
162	0x3f9d234b6123dc32	0.028454950145683174
163	0xbf92c8abc048cc72	-0.018343623744112532
164	0x3f7aa403e744d65e	0.00650407337916689
165	0x3faf43ce79da7a2e	0.061064197897611514
166	0x3f5bd64b40496d77	0.001699040877744943
167	0x3fad28714001242c	0.05694917589477941
168	0xbf5763065a2ed892	-0.0014274179491003164
169	0x3f872a48c863e42b	0.011311119666503519
170	0x3f7921a0bfd568cd	0.0061355857154358874
171	0x3fa4ffc5f8d910b6	0.0410138956326888
172	0xbf85e76b0be8b8fc	-0.01069530134290319
173	0x3f531f77793bdf10	0.0011671702131347862
174	0xbf9427b2dd6c9c20	-0.019682688488639966
175	0x3f457a5d47aed50c	0.0006554561108404202
176	0x3fa5553113914665	0.04166558612690777
177	0x3f6b882c6324a33f	0.0033608309687633005
178	0xbf7f65cfacc221a1	-0.0076654541300133225
179	0x3efc688e0a4eb5bb	2.709237800828876e-05
180	0x3f85332d5c901222	0.010351519000331658
181	0xbf94953f853014d8	-0.02010058641828469
182	0xbf9e360a61e17de9	-0.029503023361369705
183	0x3f8920704fd70783	0.012268903194925468
184	0x3fab535ecc3f2b3d	0.053370439941849736
185	0x3f9bee0e4bc440c9	0.027275298475672814
186	0xbf823e1f064931d1	-0.008907549266177124
187	0x3f9947f743815e51	0.02468859052200251
188	0x3fa485bb763dd0ab	0.04008279627206098
189	0xbf71c2ae8f8bb885	-0.004336053731760829
190	0x3f82355a7d95cd63	0.008890826184802142
191	0xbf71341a3792359d	-0.004200079355667266
192	0x3f6e3180a0b048ed	0.00368571398349459
193	0x3f4b0da227f10990	0.0008255998399209642
194	0x3f83610e11761154	0.00946246138369903
195	0x3fa866c2d4a70498	0.04765900464872991
196	0xbf9f4a0c1565cc83	-0.03055590515709784
197	0xbfa2032b49646982	-0.03518042822743707
198	0x3fa6a802a0fa7a8c	0.04425056662625079
199	0x3fa17579c2e5b87d	0.034099392930202456
200	0x3f816f3bc01acd50	0.008512942123479889
201	0x3f828d4061156ef4	0.009058478319893017
202	0x3f9eb4dc8517cbb3	0.029986806510304564
203	0xbfa898b270958dab	-0.04803998588866006
204	0xbfb90df66319872a	-0.09786930007387853
205	0x3f97b121c237106d	0.02313664195914138
206	0x3f72b73cabd854b6	0.004569279667994744
207	0xbf836481508e3636	-0.009469042082652295
208	0xbf56dd8091077009	-0.0013955836803836183
209	0xbf973a1f172bfdf4	-0.022682653226182084
210	0x3fa4cb783803b8b7	0.04061484988948066
211	0x3fa59da08c922b0b	0.04221822467760291
212	0x3f80bae2dfa2a9f8	0.00816895718556497
213	0x3f5ae406d57cf56f	0.0016412798631358601
214	0x3f9b23652d4262b5	0.026502209556016527
215	0x3f177c351b00b73e	8.958887224316551e-05
216	0x3f7dea435049555f	0.0073034886778108035
217	0xbf8290d5c74d241f	-0.009065313477224333
218	0xbf17b3fed9a7e5eb	-9.04201791981568e-05
219	0x3f98cd3b14393d96	0.02422039328513178
220	0x3f99b1be327d544f	0.025092098075522092
221	0x3f86c6b0751e6bec	0.011121157240088629
222	0x3f95c2cb78661864	0.02125089571338669
223	0xbf77d24b8d3e5c9f	-0.005815787433582602
224	0xbf5e6d7013e1577e	-0.0018571466930743237
225	0x3f959290756bb880	0.021066910902782343
226	0xbfa09eeb2cf08334	-0.0324624531133452
227	0x3fb28d4ee2bb5c45	0.07246869121023376
228	0x3fa025a783e5453b	0.031537279940162276
229	0x3f7f0d14cf509422	0.007580834663746068
230	0x3f42be3d8af46936	0.0005719948293603564
231	0x3fa2f03484b398b2	0.03698886985675766
232	0x3fa3a982941255b1	0.03840263421549695
233	0x3f90b0bfe627f62c	0.016299246237386253
234	0xbf8a2d7f8300595e	-0.012782093224853849
235	0xbf5eec456c0adece	-0.001887386126481805
236	0x3f86fb23d541d0fa	0.011221198983755166
237	0xbf7a5627d9a797ec	-0.0064298206948247665
238	0x3fa04200f5bb843d	0.031753568646089005
239	0x3fa54fef1650a847	0.0416254725208352
240	0x3fa219cf7c301255	0.03535316840137585
241	0xbfaf5ed23c193385	-0.061270303570018426
242	0xbfacd5c78c1708a4	-0.056318508005930995
243	0xbfa8d6ef3d6839dd	-0.0485148203334693
244	0xbf73c01af0c313e2	-0.004821877704846296
245	0x3f86d2cdb9e8d378	0.011144263492590886
246	0x3f73f659d10ceff0	0.004873610349758181
247	0x3f9f1c07d8031938	0.030380365905125134
248	0x3f92f905ebc33d29	0.018528072848139097
249	0x3fae57d90ff3fb06	0.05926397628535622
250	0x3f93293391edaf34	0.018711858541265516
251	0x3f99974cadb60c9e	0.02499122438667866
252	0x3fb5f22d1b056b7b	0.08572656545349659
253	0xbf85e71db230866d	-0.010694725037015485
254	0xbf9e57e31000790a	-0.029632137157130457
255	0xbfab23865643f1a9	-0.053005407362408725
