some/bias1_grayscale.npy (npy, 4224 bytes, 1 tensors)

array f8 [1, 512]
0	0xbf93fffa1700c2b7	-0.01953116193198198
1	0xbf91eeacddef6e40	-0.017512036367277384
2	0x3fa3f7487e93aebb	0.03899599595191946
3	0xbf79af2dd4e6f870	-0.0062705793665697035
4	0x3f51838e697a1cdc	0.0010689631216410011
5	0xbf7a9aff4b091fd5	-0.006495473135664971
6	0x3f88866f198201bf	0.01197516247361896
7	0xbf982885047a899a	-0.02359207000575623
8	0x3f93a021a9ae7b35	0.01916554067758654
9	0x3f5f86bf64f8c804	0.0019242161832946367
10	0x3fa187162f205274	0.03423375439902979
11	0x3f91f1b1d8d4223d	0.017523554667635322
12	0xbf9ce67a5a59198b	-0.028222953571707825
13	0xbfa40129562dc1d4	-0.03907136132227476
14	0x3faa2340482b957f	0.05105019455894943
15	0x3f9f5e866d4fcab6	0.03063402216134633
16	0x3f9f1f9416dbb6e0	0.030393899817616865
17	0x3f99756198f9b772	0.024861836397057364
18	0x3f6a57c6121005cf	0.003215681892925849
19	0x3f96ef2b431c8737	0.02239673230281555
20	0x3f733254e54c6ef1	0.004686671851938704
21	0x3f8a8ba06171aa93	0.012961628888850362
22	0x3fa72c371f2dc0b3	0.04525921111678723
23	0xbfa332393de410e0	-0.0374925506639856
24	0x3f3767f614e3947a	0.00035714872218612465
25	0x3f99bfd851c17654	0.025145893087360996
26	0x3f84c658c026b1f8	0.010143941272723986
27	0xbf9004dc5b5109f3	-0.015643542359848394
28	0xbf4781ce559eb930	-0.000717378377194133
29	0x3f9434104d1d2f13	0.01972985716501714
30	0x3facc63c3993aa4c	0.056199914959354474
31	0xbf95508913d2e90f	-0.020815030894234584
32	0xbf9e6520962cb3db	-0.02968264500229965
33	0x3f91f515b00b5f39	0.0175364865015972
34	0x3f75768ee043a1b8	0.005240018949031748
35	0x3facef312366d9e4	0.05651238972807329
36	0x3fa8cafae60b228f	0.04842361505649705
37	0x3f798b4375eb0e2b	0.006236327665365897
38	0xbf8929aa2f4b4791	-0.012286500519085116
39	0xbfa63319586ef40d	-0.04335860447415749
40	0x3f7a1bff630b09ea	0.006374356846836163
41	0x3fa7aa8e67cfcd18	0.04622311608536672
42	0x3f98c78e9bf612ac	0.02419874979888685
43	0x3fa6d67428db4d50	0.04460490225542435
44	0x3f9ce9a6b37499d0	0.028235058501332067
45	0x3f99830317113bb9	0.024913833887975054
46	0x3fa7db9e48d5db50	0.04659742964843494
47	0x3f9d93cc80da2e22	0.028884120335119452
48	0xbf80b88fc59f4e1b	-0.008164523333028353
49	0xbf67d6e66718f3c8	-0.0029100894978726123
50	0x3fad24f9a000e60e	0.05692272260825969
51	0xbf7593d150eb7324	-0.005267923012721085
52	0xbf51c4a4e50b427f	-0.0010844812679133007
53	0xbfc4a4fb88561ce5	-0.16128486783075072
54	0x3fa451437baa62d0	0.039682492109198386
55	0xbfa5399d7f459200	-0.041455194269278905
56	0xbf9485957943e401	-0.020040832067909523
57	0x3f979cc0c14449d5	0.02305890254599226
58	0x3f704bcb1932f0b3	0.003978532174354554
59	0x3fb1811423ccdd14	0.06837583421735288
60	0xbf8468e354d6a6af	-0.009965683008732766
61	0x3f9e845ec09acdbf	0.029801826959283902
62	0xbf948ca7c2204e7c	-0.020067807410738756
63	0x3fa466296ce7e097	0.03984193281570574
64	0x3f991b2b97a7575f	0.024517708903509013
65	0x3f92423976162f29	0.017830751259267395
66	0x3f9dead3e8f3e89c	0.029216109364803886
67	0x3f9f8b59890edddb	0.03080501460109795
68	0xbfa4b753f6c7a733	-0.040461181520937826
69	0xbfa3d255ef9ac619	-0.038714108942610355
70	0x3f954b67d04eb76e	0.020795461739616376
71	0x3fa03022d43a0374	0.03161724892289089
72	0xbfaaa13715a4648a	-0.05201122416674149
73	0xbfc24aad1419a9ea	-0.14290393334825008
74	0xbfa53bf98a48e127	-0.04147319615407446
75	0x3fb0829ce2d30643	0.06449299371436105
76	0xbfae2f0bcccb68c4	-0.05895268320974048
77	0x3f94be6b69755e6a	0.020257643043207464
78	0xbf93714da8d6da4e	-0.018986905508166445
79	0x3f4b2b3ce01dadf0	0.0008291289561674336
80	0x3f99ac5696841a9b	0.025071480690736263
81	0xbf247218f7b49817	-0.00015598826198831635
82	0x3f927155baa9b2c3	0.018010463254926955
83	0x3f5f1a3b42023e64	0.0018983439149770293
84	0x3f929ad30040a6e4	0.018168732538618296
85	0x3f78c5e969355d76	0.0060481183639561256
86	0x3fa8a2e2ceb87f7d	0.04811772130437839
87	0x3f748084ff71778b	0.00500537826800763
88	0xbf9ebc1ce8d2bdf7	-0.030014468870545454
89	0xbfa04d1a53c73137	-0.03183824799234219
90	0xbf90cc9253d787e5	-0.016405378691963696
91	0x3fb0fe95b30bc929	0.06638465520135085
92	0x3fb7aceb0608bad8	0.09248227021519584
93	0x3faac4ef888d613e	0.05228374997995154
94	0xbfa57c746c5b1dfa	-0.04196513960556199
95	0xbf8d488a8180373f	-0.014298517300655454
96	0xbf8a86d6aea0b5d4	-0.012952496723381758
97	0x3faa1cbea57e8475	0.05100055475419022
98	0x3f8e07ec8fe71fa3	0.014663551465574026
99	0x3f81655025767e55	0.008494020598674693
100	0xbfaf6acc6c771620	-0.061361683121088584
101	0xbf802528947d891f	-0.007883374244276596
102	0xbf7ce40934e67b91	-0.007053409541554327
103	0x3fa227ce9b9fb666	0.03545995378213433
104	0x3f9c637c3bd77606	0.027723256256527072
105	0x3f91266158716eed	0.01674797155679546
106	0xbf567ae253821aab	-0.0013720712868533862
107	0x3f66d3425e7bb297	0.002786283137416422
108	0x3f3f4b6b8cb51703	0.00047751785014714404
109	0x3f6d9eb733ba6eda	0.0036157205739309863
110	0xbfa4639ea1c4e2ba	-0.03982253765793105
111	0x3f9136cf54ed4957	0.016810645636107093
112	0x3fa12d4181616740	0.03354839996673187
113	0xbfa6949eec93071c	-0.044102636698438696
114	0x3fa740225230df29	0.045411179097241856
115	0x3f9d70d3fdd2e7b6	0.028750717513254385
116	0x3fabdf1479c57a94	0.054436340202973416
117	0x3f8f448e03a18779	0.015267476545151247
118	0x3f932cbf3bc336e0	0.018725383780114124
119	0x3f4b5866939bdb58	0.0008345127928056457
120	0xbf2227091b0eca27	-0.00013849245217796674
121	0x3f9649756b32be0e	0.02176459757600751
122	0xbfb5fc595da813de	-0.08588179146325056
123	0x3f830a7a34671c28	0.009297327732282382
124	0x3f91d5df0f486b24	0.01741741686610533
125	0xbf96e1f262c80de8	-0.022346293715612392
126	0x3f6012bbb211a3f9	0.0019620576791123914
127	0x3f9780f4c7dad086	0.022952866266408488
128	0xbfa5ce8a2c164a68	-0.042591398126337776
129	0xbfadff71179c3b08	-0.05858949101649641
130	0xbf70210e5fdf5030	-0.003937774801631419
131	0x3fb50daeac746c02	0.08224002561875923
132	0xbfa6f62e6a3040a5	-0.04484696432348415
133	0x3f894bc897a5d87b	0.012351576927113186
134	0xbf798172b0090b21	-0.006226966856561573
135	0xbfa05fd80da8275b	-0.03198123137197114
136	0x3faadf106e0fd0c5	0.052483094630504414
137	0xbfa620792febe937	-0.04321650228480894
138	0x3fa90cbe9e566cd2	0.04892535860855109
139	0x3f721f007c9d5c53	0.004424096967190999
140	0x3f9b2601842c8a47	0.02651216859079344
141	0x3f8421ea2f302e7e	0.009830312314100139
142	0x3fa1deefd49fcfdd	0.034903998093710455
143	0xbfb42a71fb625d50	-0.07877266299543817
144	0xbf491918463cef7d	-0.0007659309889968959
145	0x3fb52a4393178997	0.08267614689933676
146	0xbf9dd77426d40ce3	-0.02914220320691364
147	0xbfa729e8ff8c2eb8	-0.04524162406422988
148	0x3fc14e17a9e348f1	0.1351956920175961
149	0x3f9028de7a12cec6	0.015780903054021043
150	0xbf4ecd7db2fb11c3	-0.0009400237813328927
151	0xbf9a284069ee7512	-0.025544172730964716
152	0xbfb489d7c431d5a4	-0.08022831478031961
153	0x3fad1b2cc62d7108	0.056847953025426945
154	0xbfa481483a7dfbd7	-0.040048844471122606
155	0xbfb2baaba2b0b7ca	-0.07316086503916988
156	0xbf9210ad94696007	-0.017641746695829876
157	0x3f54b4193f20985b	0.0012636419819585163
158	0xbfaea155b6c5c75f	-0.05982463699446216
159	0x3faa5072ecdace3d	0.051395026600769424
160	0x3f94a4c4324d5b80	0.02015978390712858
161	0x3fb0ae2c55e023ee	0.06515767189570429
162	0x3f9933c5fd92bca4	0.024611562349204377
163	0xbfa1e9bf5ff60710	-0.03498647734069327
164	0xbf38c00114dfff27	-0.0003776552811132088
165	0x3faf1ceae82d0cbb	0.06076749881915463
166	0xbf86509f302551e1	-0.010895961434166547
167	0x3fa517e16cae8268	0.041197819248968426
168	0xbf9251e244122528	-0.017890487103192104
169	0xbf62215e6930eb6b	-0.002213177105230659
170	0xbf88171cccf0d5e3	-0.01176283359937264
171	0x3fa4db98258ecea1	0.04073787172765476
172	0xbf9a1c3cf29c2971	-0.025498344714870173
173	0x3f939da7a398267c	0.019156092987066206
174	0xbfa1acc31ef2797f	-0.034521195914964935
175	0xbf61af6496746f61	-0.002158829174403396
176	0x3fa99afbf3c41689	0.05001056051882553
177	0xbf91b5536af1f2a2	-0.017293265726481828
178	0xbf82c303c9997d54	-0.009161023702459893
179	0xbf79a06322105a32	-0.006256472815059188
180	0x3f8aef8555277013	0.013152162228770725
181	0xbf9161f364508884	-0.016975214956012966
182	0xbfa1ba2549364d91	-0.03462330359175348
183	0x3f8d933a58e8d059	0.01444097122030301
184	0x3fb169c4517b88fe	0.06802012433357515
185	0xbf95d05986af495a	-0.021302603574278357
186	0xbf79d1769f6d897a	-0.006303275461365105
187	0x3fa3ca9938dd40ac	0.038655079070509885
188	0x3faf68c0dd8a3b81	0.061346079867795396
189	0x3f6b2b62a2e3ebfa	0.003316586159710419
190	0xbf7c1ef1d66dd1bd	-0.00686544864480648
191	0xbf913b6ec4ad0be8	-0.016828280214450958
192	0x3f92d5245458ca5d	0.01839119686901324
193	0xbf80a9bdad9f9bdc	-0.008136255131786223
194	0xbf517263a9031449	-0.001064870190064642
195	0x3fa71b62229a6367	0.04513079330826635
196	0xbf9f69bea56e6ec0	-0.030676821562890977
197	0xbfa703069f377bb8	-0.04494496053279512
198	0x3fa00334830f2498	0.03127445316165128
199	0x3fa8994bc4b6b5ce	0.04804455543795037
200	0x3f77c63f31a0d22a	0.0058042973051227
201	0xbf54b300caa230dc	-0.0012633807878357694
202	0x3fa1735007d712d3	0.03408289046959614
203	0xbfaec02f9c2ea5cb	-0.06006001264115531
204	0xbfc0c0b118e4cd08	-0.1308804866363078
205	0x3f9aff15137f0e6f	0.02636368686195428
206	0x3f8a7bdc9afe962a	0.012931560020500294
207	0x3f86a538e557411f	0.01105732393162434
208	0xbf85a8f45f3a5713	-0.010576161533474548
209	0xbfa361e5562afb6a	-0.0378562610326217
210	0x3fa3b18f46df05e3	0.038464047814624334
211	0x3fb16855c2370c4c	0.06799827567651667
212	0x3f8e94acf6d15fac	0.01493201378086425
213	0xbfa0580176e54453	-0.031921430362338875
214	0x3fab7143f4f03185	0.05359852185219708
215	0x3f63f76dd7ca6ad6	0.0024373193139813716
216	0x3f7d8dee7c3011f2	0.007215434629874272
217	0xbf76cfd6ac0f566f	-0.005569304049421227
218	0x3f9c17752f07c9f3	0.0274332342105001
219	0xbf7172bba35a5315	-0.004259808503452663
220	0x3fa2283709fd7501	0.03546306607197814
221	0x3f85ffe7dab45dc8	0.010742007600625395
222	0x3fa063ff56c84f1f	0.03201291975361031
223	0xbf80091eaeb183a4	-0.00782989473936075
224	0xbf9143fd32fa6e11	-0.01686092017790314
225	0x3f898342c9d5d082	0.012457391533395649
226	0xbfa2c3ef74894970	-0.03665111825525258
227	0x3fb09e4a000d5d5e	0.06491529942774352
228	0x3f860fba60c0f2ea	0.010772186353386688
229	0x3f9673d0e4a8788e	0.021926177936727735
230	0x3f6ee594b3e590d0	0.0037715820646316636
231	0x3fa6d004be9242bf	0.044555805457212376
232	0x3fab9ef6d47122b7	0.05394717543874122
233	0x3f9d3191c135036b	0.02850940458052113
234	0x3f93e468967e5dc5	0.019425996957208164
235	0x3f960fbcaaf4cca2	0.0215444068282521
236	0x3f885fee9550872b	0.011901725703924967
237	0xbfb19f7f6339a041	-0.06883999035346823
238	0x3f98ce173986944c	0.024223673711862667
239	0x3faaf6a839bfa625	0.05266309456767385
240	0x3fa42b7fa65cfd18	0.03939436822701675
241	0xbfb5244447bf2912	-0.08258463622692983
242	0xbfa826748101926d	-0.04716838907987584
243	0xbfa964cc645c9c22	-0.049597155810538376
244	0xbfa2d30afe181d85	-0.036766379849775745
245	0xbf850b9ba01054ad	-0.010276046583422927
246	0x3f7ab2f4f0fa7bee	0.006518322755851165
247	0x3f85c78221e98ea2	0.010634438190386068
248	0x3f945ba2ba79705b	0.019880812293522215
249	0x3faab1ecfed338fa	0.05213871584565939
250	0x3f90eff47ed60a1d	0.016540355912647898
251	0x3f8c4c705e5f2480	0.013817670707697127
252	0x3fb8d96bd0ab3d8f	0.09706758350806964
253	0xbfa53a31f547c3f2	-0.041459618750998475
254	0xbfa6e855c2f0207a	-0.04474132542242244
255	0xbf9b8f9646f79a62	-0.026914928513998133
