some/bias1.npy (npy, 4224 bytes, 1 tensors)

array f8 [1, 512]
00000000: 54f8 fcf8 9cfe 5d3f c4cc e99a fa4f 93bf
00000010: c2f6 9e91 e043 a73f 0af8 2e5f 8b62 62bf
00000020: 3e66 71f6 e168 8f3f 509c ef83 e196 70bf
00000030: 845f 3560 f5c1 733f 54b5 c4c4 a664 98bf
00000040: d86d 4fa8 21ce 973f 21df c99e b400 643f
00000050: f7d8 42b6 c1a1 9d3f b160 86cd ac65 923f
00000060: 2aea 6690 014b 9bbf 1cfe 749c 49fb 81bf
00000070: efe4 f13f fec9 a13f 5e85 8e7b 8675 9c3f
00000080: dbed 030f 3648 9d3f 9fbd 76e7 9e74 9f3f
00000090: a1fe 52df e66e 853f 3b79 6283 0706 9c3f
000000a0: a8e8 aea6 9b1b 8a3f c815 c3c2 aeab 943f
000000b0: eacd 432f c36a a43f 8c87 577f 6589 a2bf
000000c0: 3fba 6cfb 8f1b 933f 6b04 18fb 5f23 a03f
000000d0: a318 c7ae 2ab7 623f fa35 540d 0a27 643f
000000e0: 96a7 9069 24be 9c3f 91a4 efd5 2c30 8a3f
000000f0: 9490 9759 0983 b03f d233 a50a c0f3 9dbf
00000100: a007 9954 36a6 81bf 2c28 f563 3c32 a43f
00000110: 9358 279b aad1 763f 6cae a1d5 cd6e ad3f
00000120: ea87 92eb 8961 a13f abeb 1116 5c4a 95bf
00000130: fd1c 7772 1a77 7a3f 0c01 20fa f112 9bbf
00000140: 7ce5 8788 bc10 873f 5312 86e9 7533 8e3f
00000150: d6c9 638a bec9 9a3f 84d2 e1ea 5039 a63f
00000160: b70b fc49 112e a43f 2a49 8b53 5f0e 913f
00000170: 287e fefd e315 a43f 696a eac5 f1ab 943f
00000180: 1930 af1d ab53 90bf fe25 3a34 6b56 403f
00000190: 07c1 9b52 09b5 a93f 4db5 b754 3b82 75bf
000001a0: 0557 e0a5 eb86 533f 27e3 eea8 4fdb c1bf
000001b0: 85c7 ceb2 e541 a23f 6ea6 09f8 f8ee aebf
000001c0: b8df 35a1 165f 6dbf dd65 dbfa 8bbb 973f
000001d0: 3d18 45ce cda8 a43f 5717 34df 39bc ab3f
000001e0: a9c7 7587 d2a7 6dbf 771e 71e9 49e1 983f
000001f0: de40 4bd8 5107 7fbf faa2 b8c7 cb10 a43f
00000200: 074c c024 06a2 943f 8ae4 5d20 ecf2 933f
00000210: 1442 5e88 1019 a13f 0d70 58d3 f39c 943f
00000220: d239 d69f 8b40 833f 365c 3fbe 8f9e 95bf
00000230: 0a5a a257 19ef 793f 3826 edff 5750 973f
00000240: 7047 992a ce31 a8bf e681 c826 3f01 c5bf
00000250: 87fa befa 2dfa a8bf 4cb8 0ab8 bba0 963f
00000260: 61bb 8416 6793 a0bf 3e04 fa74 c31d a03f
00000270: e422 438d 6e75 8dbf 5686 4391 3221 90bf
00000280: a65e 9c68 7f8a 973f b215 b3ee c41e 4dbf
00000290: aef1 d12e 3e83 933f 07de a29e 0cc4 7e3f
000002a0: e564 c3be 3924 903f 139f e56c 5090 993f
000002b0: 2151 4e48 2f33 b03f 633e 9987 e5ab a03f
000002c0: aecf b1a5 de11 a2bf eefa 2632 dd09 a6bf
000002d0: b590 f64b 2642 89bf 4fa4 2a40 a093 b03f
000002e0: ac5b ce51 7a9b b43f b635 1bf3 aada aa3f
000002f0: b28c ba05 cfc3 9bbf a55c 7c85 6bce 60bf
00000300: 49b1 f5a3 5f08 8c3f b47a 80f7 2566 a93f
00000310: 17a1 05f4 9753 a53f fcf9 790d 513d 833f
00000320: 1960 8794 5992 a9bf 172b 156d 448d 93bf
00000330: e9bf da6c 1be0 9abf 51c3 34a2 0089 a63f
00000340: cbce 5044 ae3b 993f 400e 9f3c c9d4 953f
00000350: 9f73 a081 ad28 a73f a768 3ab9 c912 903f
00000360: 0cb2 3f02 1c6f 71bf f2ef ec0c 6627 713f
00000370: d9cb 3f35 0b06 a5bf a0e0 10ab f1aa 71bf
00000380: 88f0 53d5 0bf3 a33f 431c 91de 80ca a8bf
00000390: c613 4581 90c9 a73f 0c1b 98f6 094a 983f
000003a0: c841 c4d6 58ac 9f3f dbb0 b22c 2838 853f
000003b0: 190e f1f4 378c 8a3f 922b d2ab 386c 773f
000003c0: 61c7 8770 25e0 7abf ab9a a357 60ac a03f
000003d0: 86df 686a aa45 b7bf c767 8189 1279 753f
000003e0: 2703 4b9f ccc7 813f e413 190e 99dc 653f
000003f0: d7c5 3ff5 2f4b 853f ee81 a188 e430 753f
00000400: 1ec3 b9d5 0a6a 7fbf 5823 1537 aa98 b2bf
00000410: 1852 42f8 78a8 50bf fca4 519d 8f88 b23f
00000420: 76eb 0a57 5ebf abbf 2cb8 dfea b96c 803f
00000430: 34ca 190f 94c7 923f b94a 49a7 81f5 95bf
00000440: 28f1 53d4 48b5 a93f 48eb 3739 27db 9bbf
00000450: 9738 7885 f31f ab3f dc11 a292 6ac2 963f
00000460: 66a1 9345 00d7 9c3f 1545 f177 9c53 753f
00000470: 9bbe 7420 413b a13f 9ac7 74ca ade4 b2bf
00000480: b01d c879 0680 60bf 59ff dcbb 2e46 b53f
00000490: d68b 6c81 6ceb 98bf e608 c4c4 7559 95bf
000004a0: e016 ebd8 993f be3f 8db7 b455 e755 973f
000004b0: a3d3 a0a0 55bf 623f 2ba6 0ffd 8d7d 96bf
000004c0: 63ff 317d 1b51 b4bf 0b43 54ac 9167 aa3f
000004d0: a2ea 4f65 f2ad a2bf 54b0 4ca1 0f81 b2bf
000004e0: c24b ed6a 1938 8dbf 55a3 67a5 5d27 573f
000004f0: 7221 bc3f 5f52 aebf cac5 3f97 d65f a03f
00000500: e70a 9b25 15ec 903f e5e9 7dbb 7045 af3f
00000510: 7e47 bf48 175d 973f 5edf a08e e03b a4bf
00000520: 66ff 4e25 6b2c a03f c457 37e5 ae56 b23f
00000530: 8fa3 01e2 7423 80bf a090 f773 b83e b23f
00000540: afdd 3269 8953 64bf 5242 c32e dc7d 8abf
00000550: 575d 1fe6 ff2f 9a3f 6f37 5218 2a4c a53f
00000560: 6c9b 044c b886 94bf 5969 1881 922e 923f
00000570: 95a5 d2de 5a0f a0bf b32d 6637 6886 753f
00000580: 6bb6 e6f3 a52e ae3f 1e0d f6cd 6a5f 87bf
00000590: d5cf edc8 1c2d 50bf f3c0 6780 efd7 7c3f
000005a0: 151a d8a0 8c69 603f 531e 5059 8413 97bf
000005b0: b181 358a 675e a6bf 3c56 5cac b136 8f3f
000005c0: d6da 4992 edbb a93f c107 94e7 675d 87bf
000005d0: f06b 16db 42e4 7fbf 1a9d 7d28 8c02 9c3f
000005e0: 0426 513c 0eb5 a73f 89e6 e836 1c5f 843f
000005f0: b256 299f 3f61 5a3f 85a0 370b 2b02 60bf
00000600: b221 c1fb 6b0c 783f 5e45 eaf9 8d8f 893f
00000610: a153 dc99 3679 853f d4fd 4469 11d3 a33f
00000620: 5927 a9d3 4a29 9abf 33eb 2a18 1236 a8bf
00000630: 9b14 6412 78af a73f e08f 1d91 b045 9c3f
00000640: 67dd 0c6c 4f99 9f3f 79a3 0e13 e548 6cbf
00000650: f75e 5391 3bdc a63f 4c0d 9c96 ec27 a1bf
00000660: bf3c 81d5 0922 c3bf 954c 27f4 56b1 a03f
00000670: 06a6 a7f5 8b26 823f 3033 978c f0e8 89bf
00000680: 9a9a 531e c80e 373f 4d80 a325 e89e 9cbf
00000690: cc86 e772 1f11 a33f 3824 8722 ca5c a93f
000006a0: cd04 ebe2 1c1c 943f 9590 5823 639e 783f
000006b0: 1c5f 90ee 11b0 a03f 7d67 1e8c 3c29 763f
000006c0: eed4 e7d9 eb57 7f3f ffcd 37a9 0c35 6d3f
000006d0: bbde be09 af92 913f 33bb 9414 3a37 7dbf
000006e0: 4e44 a078 c79a a13f be51 30d7 1c0c 983f
000006f0: 416f ab7a c33b a03f 012e ac9a 61f5 85bf
00000700: 7935 dfc5 694c 96bf 2778 f2af f7eb 863f
00000710: cb5f 2857 4977 a0bf e7dd 1d06 9dc4 b23f
00000720: 37e6 9e17 4904 ab3f 8aa4 41f2 1313 a33f
00000730: 65da cdc2 f936 6e3f 3b66 6470 d42d a33f
00000740: 7be7 78ae 3f19 af3f 975e 1fc3 8f9a a03f
00000750: 0710 860d db05 71bf 7935 bce2 eccb a13f
00000760: 7e86 7249 99ec 733f 7895 fea0 d51c b0bf
00000770: 3ed0 7dd3 83c5 a23f 4f18 88be 98e4 aa3f
00000780: ac09 df7b 122b ae3f 40aa 69da 9cdf b0bf
00000790: fb8a f705 3dc2 afbf adad 098c 938c aebf
000007a0: f134 2940 ddd3 9dbf 3509 1171 658d 93bf
000007b0: fee1 da2f e167 7b3f 9dbb 70ec bcf0 963f
000007c0: b662 7300 268b 8a3f ee34 c802 c99b ac3f
000007d0: 5bd5 13ea 7e68 853f 1c93 d502 5ca0 9c3f
000007e0: 9ad7 727a d0d6 bd3f c3ab 4758 3a66 a0bf
000007f0: a502 8ae0 2cfd 97bf e120 63b7 c7dc b0bf
0.0018307240424771014 -0.018859782891422552 0.04543973710631867 -0.002244255266730559 0.015336766560881118 -0.004050141257699272 0.004823645114207301 -0.02382145477274851
0.02324726667198526 0.0024417426814657005 0.02893736529286969 0.017965984386677906 -0.026653313101386335 -0.008780074202717585 0.03474421053483378 0.02779207352762591
0.02859577623983776 0.03071831023924931 0.010465434732736258 0.02736675013931598 0.012747970604199146 0.020186167371113034 0.039877032775532076 -0.03620450190989208
0.01865982982706726 0.031519889260388144 0.00228460632772272 0.0024600216226022794 0.02806908506696678 0.012787199286281388 0.06449945866876511 -0.029250145578135385
-0.00861780591651834 0.03944576950250708 0.005571047239263066 0.057485992744514686 0.03394728661193354 -0.020791472289129292 0.006461242016889243 -0.026439457789821083
0.011262391010847798 0.014746590794637948 0.026160218426363922 0.04340603701794968 0.039413967400853726 0.016656388734937945 0.039229511981144605 0.020187165932478743
-0.015944169699466302 0.0004985831696597274 0.050209323247942854 -0.0052511518110639034 0.0011918355226092092 -0.13950534580887927 0.03565900619231769 -0.060416965749777826
-0.003585380743682944 0.023176371751878356 0.0403503717703164 0.05417042588855619 -0.003620063009003045 0.024296908257638052 -0.007575339991220368 0.03919064343455676
0.020149322503197478 0.019481362796316883 0.03339435257578685 0.020129976057532462 0.009400454345066676 -0.021112676607881485 0.006331538194123807 0.022767424579148904
-0.047254984569589875 -0.16410054582321648 -0.048783718927997426 0.022097523792290283 -0.032374593256796265 0.031477077512143556 -0.014384139715177331 -0.0157516385232895
0.02298926425927896 -0.0008886777481157875 0.01905533943907905 0.0075111859279597465 0.015763189571633602 0.024964577337782744 0.0632810164955271 0.032561466982426145
-0.035292585111988614 -0.04304400670252116 -0.012333201592646817 0.06475259367529528 0.08049740311831383 0.0524495527039152 -0.027114138340618772 -0.0020515537288577517
0.013687846366075578 0.04960745474112596 0.04165339330467271 0.009394295905846832 -0.04994468629928423 -0.019093579442862465 -0.026245525855017524 0.0440139959340572
0.02464172641721411 0.02131952698233719 0.04523222167356455 0.015696670465879105 -0.004256352814973951 0.004187964091041595 -0.04106173539175701 -0.004313415543087867
0.03896367053127486 -0.04841997830276814 0.046459689884194286 0.0237199360617764 0.03093088923293566 0.010361017097544714 0.012962758219266 0.005718442317752885
-0.006561418770148681 0.03256512708485578 -0.09090676401035411 0.005242416773478759 0.008681868182408415 0.0026686658245886775 0.010397314712437584 0.005173580846616661
-0.007669489215559348 -0.07264198155202217 -0.001016729483159234 0.07239625540536915 -0.05419440090687193 0.008019878845484461 0.018339456006694912 -0.02144434531721615
0.0502112158955888 -0.02720319067700963 0.05297814373271697 0.02222601432778669 0.02816391396200526 0.005206690983940794 0.033655200206678525 -0.07380186264779667
-0.0020141722181994046 0.08310215078836104 -0.024335570716299625 -0.020849075445774988 0.11815797372681969 0.02278863392455537 0.0022885010157786697 -0.02196332795202786
-0.07936260038877445 0.05157141903521819 -0.03648335921021341 -0.0722818154142158 -0.014267157149935875 0.0014131941330736881 -0.05922219899190652 0.03198118778517374
0.016525583668008628 0.06107666290968775 0.02281605130685404 -0.03951932660169065 0.03158888655116136 0.07163518043611733 -0.007880128047149685 0.0712695391771967
-0.002481239681937551 -0.012935371567807472 0.025573728962482303 0.04159671351327076 -0.020045165672083184 0.017755784158091845 -0.031367149066976165 0.005255133719752991
0.058949647925470604 -0.011412462625918492 -0.0009873181440669305 0.007041869690951541 0.0020034548422274237 -0.02253538890002311 -0.04368899881478983 0.015241039345293854
0.05026190195797191 -0.011408626322466977 -0.007786046176444281 0.02735346791396607 0.04630321966449105 0.00994703333445847 0.0016100999170211403 -0.001954158849674372
0.0058712213613677944 0.012480839909843663 0.01048510224385685 0.03871969614055684 -0.02554814259409652 -0.04728752655997539 0.046260597462642404 0.027609595162530698
0.030858269662727447 -0.0034527277097890466 0.04464899205203026 -0.03350772226806473 -0.1494762699607914 0.0326029942549663 0.00886258452824774 -0.01265132836388147
0.00035183320717494806 -0.02794993142822504 0.03724001195565804 0.049536053385573486 0.019638491964319372 0.006010424860083093 0.03259330784947975 0.0054104199533869775
0.0076522076546911965 0.0035653350148494574 0.017161116571257944 -0.007132746578732352 0.03438399646268718 0.023483706125334562 0.03170596001083804 -0.01072193387292142
-0.021775868131773877 0.01119225984285428 -0.03216008366524611 0.0733125820096273 0.05276707089747073 0.037254927942577856 0.0036883237975716015 0.03745902893042482
0.06073950772083855 0.03242921120516689 -0.004155975031952869 0.03475895183337747 0.004864310051887364 -0.06293997936753282 0.036663169447735275 0.0525253040869279
0.05892236482715715 -0.06591205913870457 -0.06202879617537423 -0.05966626247831228 -0.029128510514330356 -0.019094071413072917 0.006690864216289059 0.022402717524694905
0.012960717095141443 0.05587604674301781 0.010453216093518838 0.027955472634306408 0.11655905713527517 -0.03202993705402648 -0.023426724629191615 -0.06586883761622488
