some/weight2.npy (npy, 41088 bytes, 1 tensors)

array f8 [512, 10]
0	0x3fd0aefbceb76b66	0.2606801527705812
1	0x3fbe13d83bbeaa4e	0.117490305505876
2	0xbfa7fcbd7cc7ce9c	-0.046850129587167916
3	0x3fb6baa22a44340e	0.08878530055899622
4	0xbf7b3417259944ba	-0.0066414741682631565
5	0xbfac625baf457e10	-0.0554379130796826
6	0xbfa6a3d7249694d4	-0.044218753067335165
7	0x3fd56580f497c0c7	0.33432029615415754
8	0xbfe08ab0462f4a67	-0.5169297571940888
9	0xbfa761ca888c62b0	-0.045667962234977266
10	0xbf872ded3995d095	-0.011318066902028337
11	0x3f0b43f92783c938	5.200485333202654e-05
12	0x3fddaa4aa17c6472	0.4635187699328248
13	0x3fc373f7d96f3dc7	0.15197656742974017
14	0xbfd05015e2858f58	-0.2548880302549512
15	0xbf2bb550fd51a853	-0.00021139730111780167
16	0xbfc5adc69985927b	-0.1693657159440994
17	0x3fd40aed3cd1aa6b	0.3131669134078609
18	0xbfb293c2ecb4a904	-0.07256716040561534
19	0xbfad463025c9ecb2	-0.05717611752785369
20	0x3fa0f82ecda15d38	0.03314348468910072
21	0xbfc290f65e5dbbe4	-0.14504890067789156
22	0xbfc1cf8cb3c3db65	-0.13914641168204436
23	0x3fba2e02fb4e1760	0.10226458201767974
24	0x3f9ae452ef3c939d	0.02626161179718488
25	0xbfb0175062fc8d73	-0.0628557435671178
26	0xbfc49a04093b188b	-0.16095018816685455
27	0x3f9cc11411339330	0.028080285596746524
28	0x3fd5f71c8534ce98	0.34320748337197804
29	0xbfc3c66ed261de80	-0.15449319145749385
30	0xbfc7f88b89cd547d	-0.18727249363533707
31	0xbfc4a224842dffc5	-0.16119820074163563
32	0x3fb8720ba919af41	0.0954901969759563
33	0x3fb17bd3f87a638f	0.06829571548804679
34	0xbfc0306a275af4e1	-0.1264774982609316
35	0x3fc6000686974c2a	0.17187577792955838
36	0x3f8fba33ca88779d	0.01549187146980185
37	0xbfba183da3bf0235	-0.10193238494594754
38	0x3fb6314699a6e92d	0.08668938876408978
39	0x3f9d8144eaa0c2e7	0.028813435383372357
40	0x3fa255bf34690501	0.035810446880086395
41	0x3fc04f540efa7fdf	0.12742090922711122
42	0x3fd1eff916c3840d	0.28027178977032535
43	0x3f9cd7a6224a0df5	0.028166385500766073
44	0xbfa949c01d3e52a2	-0.04939079625106514
45	0x3fc9c2a62c42a074	0.20125271950860546
46	0xbfd6fe00892a71f6	-0.3592530574331073
47	0xbfcf518e6f50a0b1	-0.24467640338230504
48	0xbfcd85d37d6c98c0	-0.23064654945591734
49	0x3fc31f6fb8a3666a	0.14939686313191497
50	0x3fcdfeb70d771b7c	0.23433578641398956
51	0xbfd4bf6980a74864	-0.3241828686124164
52	0xbfcc91c779a4b87e	-0.22319882812138653
53	0x3fa3d4ecca088c78	0.03873386350849101
54	0x3fcc301613d3eac6	0.2202174755874095
55	0xbfc7cdfd92c83ac3	-0.1859738318166447
56	0x3fbdbaf5258c5122	0.11613399664594629
57	0xbfc0d7cf79395b6b	-0.13158601206915974
58	0x3fd1aadcfa5e816b	0.27605366182435515
59	0x3fac2337d52ef2cf	0.054956192754138315
60	0xbf7ac4885733ad80	-0.00653508432445038
61	0xbfc50401bc1d1c85	-0.1641847771190649
62	0x3fc1df482ca75e26	0.1396265237842595
63	0x3fc039d0ee7d25d9	0.12676440854038054
64	0x3fd0365625c9a720	0.2533164376278467
65	0xbfbae6c5f74ad88f	-0.10508382117663671
66	0x3fc6f1140e8b2988	0.17923212728630866
67	0xbfacdcbe535aa360	-0.05637163894181785
68	0x3fc13c5cff6d1c2f	0.13465464088423704
69	0xbfd2750c5af54e1c	-0.28839405901564574
70	0xbfb45737aecedeb0	-0.0794558336045792
71	0x3fcf281304601b10	0.2434104701389619
72	0xbfd36ba7c2418013	-0.3034457585363281
73	0x3fb09152515308ba	0.06471743092973528
74	0xbfbcad6594e7faa3	-0.11202082524685379
75	0x3fb09712b77efec5	0.0648051927555527
76	0xbfc13e278c7c9a7c	-0.13470930442527507
77	0xbf7f385abcc85c9f	-0.007622103159994924
78	0xbfab7863398161b6	-0.053652859468175704
79	0x3fd113519e45d49c	0.2668041272766659
80	0x3fb239c07ba82554	0.07119372385945627
81	0x3fbc2ddde65badd5	0.1100748717687375
82	0x3fb2a21e2422e68e	0.07278622038111335
83	0xbfb011da77c9a524	-0.06277242111686526
84	0xbf708e9a001f7214	-0.004042245449423127
85	0xbfa2a34ba3033f96	-0.03640209545994748
86	0xbf9e86789a06f142	-0.029809841538495314
87	0x3fd8a5fcbedeb997	0.38513106002474146
88	0xbfc42939515b9aac	-0.1575080535178207
89	0xbfc69574e156e7f4	-0.17643605235008375
90	0xbfc77d544d3d3f04	-0.1835122468132725
91	0x3fba901ee80e2264	0.1037616077939077
92	0xbfd00615078e6224	-0.2503712247649068
93	0x3fd38c7b87a6b51c	0.30544937369525527
94	0x3fc8b3d14a054164	0.19298759569438595
95	0x3fce9507dda60fa3	0.2389230568188597
96	0xbfcf2c798787fe2d	-0.24354476087317903
97	0x3fc2d212ac6b9fd1	0.14703591746297076
98	0xbfe122180f95db83	-0.5354118637468307
99	0x3fd18f1529b1b89a	0.2743580729646823
100	0xbfa79626f54db539	-0.04606744522502954
101	0xbfba2873a0e5ef81	-0.10217974355867733
102	0xbf5b955bb682a45f	-0.0016835590013591013
103	0x3fd4cbc77a3cc543	0.3249376958584273
104	0xbf80ca09c58a9c2f	-0.00819785722826624
105	0xbfda0ab74c13136e	-0.40690405301238897
106	0xbfb8212e4afd3563	-0.09425629931248163
107	0x3fcf32fc78a4a33a	0.24374347582604533
108	0xbfbe09283ef70a43	-0.11732722794753507
109	0x3fc29b3428157359	0.1453614421579015
110	0xbfba0cab7bed3e2f	-0.10175582671694693
111	0x3fd1db2dc64a61d9	0.2790026127272803
112	0x3fb266d5bcdcc71b	0.07188163624666936
113	0xbfd213e27c228e63	-0.2824636661773409
114	0x3f53fd3dd1692379	0.0012200454417714264
115	0x3fb7b013ddf2c65d	0.09253048103962543
116	0xbf615397bb8230f6	-0.002115055420352725
117	0x3fb245c36007ac28	0.07137700170976358
118	0xbfc3fbdff9bb7ba5	-0.15612411207163493
119	0xbfb6ca1658f7e750	-0.08902110740737368
120	0x3fc17e30058754ac	0.13666343946412007
121	0xbfc18fb2644e6086	-0.13719777963411078
122	0xbfcc08791c0fe87c	-0.21900857801648843
123	0x3fd7873332749491	0.3676269524315297
124	0xbfde4c6b6c704d9e	-0.47341428365435856
125	0x3fd3256ad03f9aa8	0.29915876709712075
126	0x3fa9847e56d62933	0.049838970279852644
127	0xbfbae81c6395c4ee	-0.10510423117900178
128	0xbf84070417dc9e62	-0.009779006937221616
129	0x3fc542ca5d4ef583	0.16610078388286462
130	0x3fb1d31a0b98d280	0.06962740691307978
131	0x3fc2d6bac4113a9d	0.14717802594755805
132	0x3fbe38ead98fba4e	0.11805599032934674
133	0x3f8beb7505793b9f	0.013632692555942514
134	0xbfc80864448ac9b0	-0.18775609347137623
135	0x3fd3b274d280bea9	0.3077671104137872
136	0x3f8ef681aa1107f0	0.015118611338156257
137	0x3fd76c56022feb37	0.3659873029097755
138	0xbfcfeaa100dc7617	-0.24934780637788442
139	0xbfbd02d0031d3e8c	-0.11332416606932777
140	0x3fa14c43f0753f03	0.033784983732969585
141	0x3fb942dcf81137ef	0.09867650085763534
142	0x3f7ca7333a0ba3f5	0.006995391945317832
143	0xbfc030a82d9adb57	-0.12648489214708533
144	0xbf7b10812752fa47	-0.006607536798752429
145	0x3fc3d6e6501ca6fd	0.1549957171603679
146	0x3fa02f8b7713e216	0.031612737928245746
147	0x3fc97cab4bcd0861	0.1991170997735621
148	0xbfa4ae22791c59b1	-0.04039104202654487
149	0xbfd02a9a568c194f	-0.25260027362709975
150	0xbf88d89804b3268f	-0.012131869929720622
151	0xbfb1dcf97d63a3a9	-0.06977805434475094
152	0x3fbd71eb3a8eea45	0.11501951388974259
153	0xbfc7f551724be7b2	-0.18717401581653587
154	0xbf5280711ab68203	-0.0011292557272569732
155	0x3fbfc0d4d19a7f25	0.1240361224868108
156	0x3fba0295287bca25	0.10160190809600829
157	0xbfbbc1daab4e87cc	-0.10842672998708663
158	0x3fa341c639b69e32	0.03761119322308239
159	0x3f80e8e4d4d4e502	0.008256709809403965
160	0xbf57ced630b76c5d	-0.0014531223013054741
161	0x3fbbab48326b58f3	0.10808230620327546
162	0x3fd8e29db98ba34f	0.38883154983209506
163	0xbf706d441511ae1e	-0.004010454126823796
164	0x3f73f12565b001c2	0.0048686467007432194
165	0xbfd6ffddadee5ae2	-0.35936681733566733
166	0xbfb7d9bc9918cac5	-0.09316614854541701
167	0x3fc424b433916a17	0.15737011449785207
168	0x3fad097e8832b16c	0.0567130604989384
169	0xbfcedacc473febe6	-0.24105218390454225
170	0x3fd4575de76b543d	0.317832447047582
171	0x3fc0e4e0162f4296	0.13198472102387332
172	0x3f864d4bfe693049	0.010889619542602829
173	0xbfd39d98cf5866de	-0.30649395226065035
174	0x3fb6c018f274ade8	0.0888686744626096
175	0xbfcab325ed6f06bb	-0.20859216779176912
176	0x3fcbc39e70c6efda	0.21690731531805235
177	0x3fba17dcb57f34ca	0.10192660742832796
178	0x3fd5f33d84709339	0.34297120984620083
179	0xbfdb571363fe8028	-0.42718968167355564
180	0xbfd53bd74035c346	-0.3317773940134895
181	0x3fa4f700d28a2643	0.040946984959259435
182	0x3fcc682e05ee1ed1	0.22192931451376421
183	0x3f88ce671a7be78f	0.012112431998946764
184	0x3fc0e12e8e27e16d	0.13187200490188947
185	0x3fc66e3b5006dccc	0.17523900420721927
186	0x3fc9388f19c05b43	0.19703854329483236
187	0x3fb9c2e686cff1f0	0.10063019553485453
188	0x3fbe31cf48892a15	0.11794753571408763
189	0xbfd7bc4d9645c9e1	-0.3708681075578664
190	0xbfb5f8e5d4dae4f0	-0.08582912871033321
191	0xbfcd1059ef60a40d	-0.22706150234560632
192	0x3fc2bd5bdf3fa2a4	0.14640377426919315
193	0x3fc948728d3b1db3	0.1975234212497817
194	0x3fc2a3009903b1be	0.14559943648727186
195	0xbfaec21c5f150444	-0.0600746980731022
196	0x3fb6f09e47873109	0.0896090435628062
197	0xbfd65fd429891ca0	-0.349598923265555
198	0x3fb8cfefc2e737a9	0.09692286022547471
199	0xbfa7043662a125ce	-0.04495401338551695
200	0xbfb523273a2aafde	-0.08256764574133466
201	0xbf7fd1026f72191d	-0.0077676863794578195
202	0xbf81270f504536e6	-0.00837528194156385
203	0xbfc127eb38197943	-0.13403072585328787
204	0x3fd4272a5a2002be	0.31489046860955827
205	0x3fab481654a805cb	0.05328435691263741
206	0xbfc18b08e4b6d7fb	-0.13705550353705562
207	0xbfb95e80359aa594	-0.0990982180470808
208	0x3f7704798c7ec078	0.005619501876864878
209	0x3fac8f053981fe64	0.05577865912436833
210	0xbfcff89f0130b0d7	-0.24977481420626788
211	0xbfb7fbf1bd3d47c7	-0.0936881148348042
212	0xbfc42ff79284dd18	-0.15771383909461956
213	0x3fcb3528ffe42ca8	0.21255981917088218
214	0x3fcfe60c893e7867	0.24920803738945382
215	0x3fd07c6ae36baec0	0.2575938435463563
216	0xbfce3a4a982b811a	-0.2361539118783263
217	0xbfc9babd82d0e3dc	-0.20101136100291128
218	0x3fb9f37a180c6bfe	0.10137141310808315
219	0x3fcca4d052125279	0.22377971656227993
220	0x3fcd8d5310827a6b	0.23087538057457677
221	0xbfc470f18a16ab1e	-0.15969676249127301
222	0xbfa6063d8b38f566	-0.04301636051648465
223	0x3fa36e76797f870e	0.03795213921672601
224	0x3fb0a7dcd002f2ce	0.06506137922674357
225	0xbfc9ba4663f8d573	-0.20099716073461202
226	0xbfc5caf75f0f9e32	-0.17025653974200022
227	0x3fd197bfca2d6419	0.27488703483465
228	0x3fc410944882f89e	0.15675595799070136
229	0xbfab233371fbcf4b	-0.0530029369964767
230	0x3fb27e3b8dca0b02	0.07223865710879454
231	0x3fa98e1c193a01c7	0.049912336425225905
232	0x3fa2cc75a9846679	0.03671615309049243
233	0xbfbfa263235f9fc4	-0.12357158292399989
234	0xbfcafc0d60598e9c	-0.2108170242746511
235	0x3fc952e5da000063	0.1978423418477205
236	0x3fccbf9b7406e8e7	0.2245973888910335
237	0xbf9a06c210e00985	-0.02541640499112809
238	0xbfac20c5c91c8f0a	-0.05493753509497708
239	0xbfc3ae27c22cd29b	-0.1537522981758642
240	0xbfb1855a74a762ba	-0.06844106052393331
241	0xbfc2bdf617a1f397	-0.1464221587556522
242	0x3faba628e0e67ced	0.0540020727669289
243	0x3fb72c016471087f	0.09051521970926223
244	0xbf50fe071c6f6522	-0.0010371274417962447
245	0xbfb14dde481d72f1	-0.06759442577954268
246	0x3fc222dcdc583c0d	0.14168892630593213
247	0x3fbc39e295e2517a	0.11025825652388291
248	0xbfc6ae846f3cd9ec	-0.1772008460190614
249	0xbf7c3d52f2ba24ea	-0.006894420639249813
250	0x3fa337fb7b575afb	0.03753648644094728
251	0xbfb3b20710b3a0ab	-0.07693523557429909
252	0xbfca5a74c1d55975	-0.20588550056954671
253	0xbfda0aed55d33da0	-0.4069169366966552
254	0x3fce524f7dc88b93	0.23688691751257504
255	0x3fdc07676a75e2ba	0.43795190235645587
