some/weight2.npy (npy, 20608 bytes, 1 tensors)

array f8 [256, 10]
0.014687741634277008 -0.10244580945844356 0.12844035756582498 0.5422291989581717 -0.5487064879032385 -0.2194479737564469 -0.4380874395171116 0.37757075849969407
0.1607502727433026 0.2211772849282719 0.06050312476447591 -0.0842434826992554 -0.2855822950464851 0.15314041159044736 0.11768276409169275 -0.13842199507164402
0.1836983710217458 -0.20717429422449365 -0.09424901184102027 -0.136361993134192 0.1850246385949141 -0.1402106566827884 -0.5497492163441543 -0.05220345114975207
0.05814724767056719 0.08847191450459277 0.2690405695526851 -0.24814828065135594 0.16785004478917379 0.2647339079075093 0.11309721024602037 0.1749556470832808
0.8993300402898352 -0.2959351931262366 0.13125771178013487 -0.4468757300946749 0.23321849039682907 0.6443945393015102 -1.9170445446971933 0.3991908489633845
0.10722060476825984 -0.14208580767280982 0.0759645516275129 -0.15435945208993057 -0.1085105400227504 -0.10141201111788288 0.03206303588777371 -0.1122134003320637
0.10929488944632311 0.04002520215225262 0.01952489898400548 -0.0886947157555843 -0.4376785271051422 -0.2920034805886197 0.39305299798778986 1.0068449727377364
0.24735398209528248 0.1634531624170234 0.04818184062770846 -0.8410265373404213 -0.5633354480085256 -0.4486444213913353 0.35609153994513587 -0.16415543452152143
-0.3671626228719423 -0.053268801940672614 0.18277424585076943 0.8400410828422005 0.36098626710756593 -0.3556305134767349 0.04176109214529753 0.05103757934418167
0.015538804824991157 0.05276973974840845 -0.03472416089616601 0.031284613756488375 -0.14144755105793416 -0.16949725620296371 0.02351523822956294 -0.03306714261366053
0.053541619917186214 -0.13487419144070137 -0.12625797897868862 -0.7159015213212919 0.489189861367241 0.6492520493090713 0.2909365426612345 -0.2934756574704303
-0.2492930986829567 -0.15537233047234408 0.25354779907308383 0.5281870751439742 -0.5180929283801661 -0.5625939418061542 0.6776281277864132 0.3145689536699096
0.5156223790860257 -0.02368310586869048 -1.5681524594429352 0.3671649253455424 0.4566943990194379 0.21705238884970757 0.11210071070504439 -0.34993517658219314
-0.5441978233792122 -0.07132144468926274 0.7219433166533136 0.3920636066660502 0.11339037520821602 -0.8540472591509863 -0.027928748692947834 0.4765868824990169
0.03717717072987743 -0.49555954628404875 -0.06805597839842788 -0.13673663632173158 0.4073871601702604 0.6077582549518824 0.3832697907734326 -1.1479370801579827
-0.17314767487297664 0.8350861517346634 0.012747490220916195 -0.3006760494020031 0.035367222492691607 0.44484883458415325 0.14016999266982635 -0.20532882100810923
-0.7397272219231915 0.02067518030846978 0.5076898029707887 0.2766353420139707 -1.3823602610348635 0.6731250845159202 -0.9460567603964447 0.49792121284159113
0.2803687362527327 -0.16509211351529796 0.09990131882943447 0.12474930216826752 0.26262848838499353 -0.5060587719944418 -0.0770622679683131 -0.21095070271246041
0.039417709562871925 0.3159347671861188 0.23296733062499436 -0.20958873174514145 0.47631277813104644 -0.4904801820270338 -0.006244029504125241 -0.02564948842298717
-0.24580713817099956 0.08357522233417475 0.3356079576487683 0.3942587549809146 0.32198100360553245 0.1757660771529935 0.12205601238024877 -1.0449701843941912
-0.2556590296144872 -0.47392089510675905 -0.0387529426636191 -0.11642248549661217 0.5380913383473995 0.03652267773921167 0.24332084372973742 -0.30700836846445073
0.629393451401317 -0.09242250776900929 -0.08194270263880951 0.050695710960448406 0.009640403270268128 -0.10871877057565225 0.09342944731520741 0.09922137625635621
-0.01818330156499837 0.0553860900396848 0.18108815170279807 -0.15891503502903354 -0.30989784406560916 0.09096041636142252 0.2506974381774468 -0.07433320054389153
-0.08367777186429609 -0.15086853003097708 -0.013809408227863564 -0.4694566505982816 0.8250684653595047 -0.058175817802465765 -0.3661574369651152 0.05162821816041096
-0.28266857176106164 -0.12141756446036568 -0.026640114287365763 0.08483140881938825 -0.5448361453515415 0.478242539984933 0.03686797258265909 0.25673356935595604
0.19483731416167124 0.18415475946503854 -0.33068109977780613 -0.039334308239545104 -0.6284304274235021 0.04297408165781484 0.0266492939043617 0.10812166022327888
0.3078920167066592 0.12751907694341214 -0.4276800137677848 0.15312861495688618 0.4530041675209515 0.6025031248930649 -0.026120951664644506 -1.8351827569052535
0.7883754935520213 0.17613587385138565 -0.013180065948105219 0.032558707382483495 -0.3495100843866175 -0.40206742984972327 0.09201456819307616 0.23846583403211472
0.2093964479167842 -0.2065932700828677 -0.25615229628653124 0.06744747140874097 0.3018802965988389 0.07457056279293393 -0.23836372399895317 0.21145497643708322
-0.36419108270559586 1.042915718491042 -0.26878332724675974 0.4774692660624486 -0.43304415182152295 0.4099310292276868 -1.4349765962611414 0.4663718719269247
0.1382841972448353 -0.273135621503215 -1.0819823519336182 0.08272884125855456 0.45497218500527686 -0.3211891398054425 0.013579064885456177 0.4070656727385275
-0.5103754183737186 0.5630231291180845 0.8899454650819044 -0.4852571871225872 0.09813355467689751 -0.516195806084339 -0.738541681475646 -0.43585168437953775
00000000: 0742 c54f 9b14 8e3f b47b 3c79 e339 babf
00000010: 75aa 9dcf bb70 c03f a1c5 8e0c f159 e13f
00000020: bdb7 94e8 008f e1bf 458c 3a07 df16 ccbf
00000030: 7aeb 60e6 9f09 dcbf 87a7 eb8a 1e2a d83f
00000040: 5ab6 2006 7793 c43f bb47 b18a 894f cc3f
00000050: 8ba5 56fc 43fa ae3f 772d 181b fb90 b5bf
00000060: 45a4 62f6 fa46 d2bf b90c bde1 1a9a c33f
00000070: d7a2 1327 7520 be3f c59c f0da cfb7 c1bf
00000080: acf5 ee9f 6d83 c73f f90e 22f1 af84 cabf
00000090: 8699 8907 b420 b8bf aae0 764e 4f74 c1bf
000000a0: 7f14 dc29 e3ae c73f d36a 803c 6cf2 c1bf
000000b0: 8764 26ab 8b97 e1bf aa60 da26 69ba aabf
000000c0: 4beb 31de 79c5 ad3f 6667 696b 18a6 b63f
000000d0: eba9 e1ef f537 d13f df64 faa6 52c3 cfbf
000000e0: a135 803a 1c7c c53f c8b8 267d 66f1 d03f
000000f0: c086 4653 f0f3 bc3f 1b92 3c57 f264 c63f
00000100: d65d ebca 4fc7 ec3f bc9b 0d2a 9af0 d2bf
00000110: bbc3 b87d 0dcd c03f 017f 88a9 9c99 dcbf
00000120: e8d6 897e 1ada cd3f d0ab 004c e19e e43f
00000130: ca31 87e6 36ac febf ea40 4ac6 578c d93f
00000140: 64e0 ef3e cf72 bb3f 7219 9724 de2f c2bf
00000150: 9e3d e5b0 6972 b33f 6a01 47ef 0cc2 c3bf
00000160: 6044 abc4 58c7 bbbf df42 2c37 23f6 b9bf
00000170: 11d0 18f5 906a a03f 2663 9974 04ba bcbf
00000180: 85b9 caf7 bffa bb3f 36f9 84ec 2e7e a43f
00000190: 6a43 60ca 55fe 933f 588d 7f67 b2b4 b6bf
000001a0: 88fe 04cc ec02 dcbf 0e90 dc5d 2fb0 d2bf
000001b0: abf2 fcc2 c727 d93f 37cf 6079 091c f03f
000001c0: d43a d197 4ba9 cf3f 5e23 8181 08ec c43f
000001d0: 8ea1 834b 4aab a83f 583f 1e7c b0e9 eabf
000001e0: d7f8 bb0f d806 e2bf f626 5a17 97b6 dcbf
000001f0: b095 9c2b 34ca d63f 6e84 5d97 0b03 c5bf
00000200: d51b 63a8 977f d7bf beee 7664 0c46 abbf
00000210: 8574 3d80 2565 c73f 5451 43d6 9de1 ea3f
00000220: 310e e224 661a d73f a6e7 357c a6c2 d6bf
00000230: 5dc2 04ba b561 a53f 96ef 4cfc 9821 aa3f
00000240: 858e 5614 cfd2 8f3f 4b2d e0a4 a204 ab3f
00000250: cd32 dc7e 5dc7 a1bf de7a e771 8904 a03f
00000260: ac51 f20e f41a c2bf a7a4 130a 16b2 c5bf
00000270: 064f 9dec 6014 983f 1418 3230 2dee a0bf
00000280: 92d1 09a5 ce69 ab3f fdf7 a7b8 8e43 c1bf
00000290: 7048 49b1 3829 c0bf 3b69 a74e aae8 e6bf
000002a0: 4dda 06fe e24e df3f 1197 d43b acc6 e43f
000002b0: 703e fc4d b49e d23f 757c c01f 4ec8 d2bf
000002c0: 411c fb14 d6e8 cfbf b37f 0a93 3de3 c3bf
000002d0: 9777 3f8c 203a d03f 7539 bd94 e8e6 e03f
000002e0: 5ad0 f59e 3794 e0bf 6d86 9f02 c500 e2bf
000002f0: c327 f62e 21af e53f 4f59 16d2 e521 d43f
00000300: 8453 e880 fa7f e03f 9de6 b154 6240 98bf
00000310: a230 8708 2717 f9bf 933b a650 a17f d73f
00000320: d582 0325 7b3a dd3f d867 d067 5fc8 cb3f
00000330: 5b26 56d6 a1b2 bc3f 07fe c882 5665 d6bf
00000340: aefa be8d 116a e1bf 92a0 7148 1f42 b2bf
00000350: a6ef d2de 281a e73f 9247 25f4 9117 d93f
00000360: 2651 33d1 2607 bd3f 6f57 e9ea 5a54 ebbf
00000370: 0685 0499 5a99 9cbf bb4b 8244 6680 de3f
00000380: aaa0 e2d8 e208 a33f 78ad 2063 3fb7 dfbf
00000390: 65be 84d9 1d6c b1bf 6b5c 950a 9680 c1bf
000003a0: 1576 6f98 a112 da3f 418e 9c70 c172 e33f
000003b0: 7caa 3a04 7e87 d83f ea4e 9245 f35d f2bf
000003c0: ab9b 7af8 b329 c6bf 375f e197 06b9 ea3f
000003d0: 9cdd d62c 5b1b 8a3f 38d0 b7c1 463e d3bf
000003e0: ebb5 e90f a71b a23f 40f8 0c3f 6778 dc3f
000003f0: 19e0 321f 17f1 c13f 00fa 93fd 3648 cabf
00000400: 93df 436c d8ab e7bf 941c 0edd df2b 953f
00000410: 09b6 88af fe3e e03f b189 b7b8 64b4 d13f
00000420: c9f4 06cb 251e f6bf a09e 039e 3d8a e53f
00000430: 7eff c1d3 1846 eebf 1dea 48ef f0dd df3f
00000440: 7faf 41b6 8ff1 d13f bc17 3006 bd21 c5bf
00000450: e31e 3301 2293 b93f b0f3 02fd 91ef bf3f
00000460: 3622 27b8 e7ce d03f d63d 722a a231 e0bf
00000470: 43f3 ad50 5aba b3bf 28ef 9bc0 6e00 cbbf
00000480: 8e59 e9da 8e2e a43f d4f5 2e75 4638 d43f
00000490: fe0e 099d dfd1 cd3f cf4d 3ab6 cdd3 cabf
000004a0: 0a58 2f97 e87b de3f 6a1a 49fd 0664 dfbf
000004b0: d164 3fe8 5693 79bf 3852 be07 dc43 9abf
000004c0: 8dad c8b9 9b76 cfbf bc63 ae8e 2f65 b53f
000004d0: 783e 98cc 997a d53f 4b80 b312 893b d93f
000004e0: 39d1 1a36 569b d43f 1b25 8fb8 807f c63f
000004f0: 100e 7415 103f bf3f 4e4a f4a7 32b8 f0bf
00000500: adc3 c7b0 b75c d0bf 10f9 574e b854 debf
00000510: 265f bafa 6cd7 a3bf 991b ba2f ddcd bdbf
00000520: 80d0 8e53 0b38 e13f cc8e e7b4 19b3 a23f
00000530: 818e 202d 2325 cf3f f1cc 896d 06a6 d3bf
00000540: 23ba 42bc fd23 e43f 503e 4860 00a9 b7bf
00000550: 1ec3 fa6b 32fa b4bf bac4 3ec9 c9f4 a93f
00000560: 6de0 2006 59be 833f df70 154c fed4 bbbf
00000570: 78c1 b304 feea b73f 1acd 1576 9266 b93f
00000580: 014b 38b6 a49e 92bf 275d bfca 905b ac3f
00000590: 6ad8 a084 e52d c73f 266d 25ef 5357 c4bf
000005a0: 7636 57c4 5dd5 d3bf faba 808d 2e49 b73f
000005b0: 7d70 8a44 6d0b d03f 64d0 5729 8007 b3bf
000005c0: 542e 8f0d e86b b5bf 1744 3df5 a84f c3bf
000005d0: b4ee b965 1b48 8cbf 7965 4de8 930b debf
000005e0: 69c2 75fb f566 ea3f d660 c285 38c9 adbf
000005f0: 53f3 3c9a 1f6f d7bf af74 1989 036f aa3f
00000600: ce87 d4eb 3d17 d2bf 016a 84b4 3815 bfbf
00000610: f8f5 80ce 8b47 9bbf 7289 8dde 82b7 b53f
00000620: 97d5 3e36 4c6f e1bf ffa3 3299 869b de3f
00000630: 2552 06e1 5be0 a23f d4d3 0aa3 526e d03f
00000640: 97b3 2eda 6df0 c83f 170d a716 6292 c73f
00000650: 06dd 3c0f e129 d5bf 72cf ff5e a023 a4bf
00000660: 3b0c b320 1a1c e4bf 8686 97e6 b200 a63f
00000670: 8c76 1fd7 f349 9b3f e2f0 a572 dcad bb3f
00000680: f417 9db7 80b4 d33f a445 8b8c 8b52 c03f
00000690: 1145 12fe 1b5f dbbf 462a a9ec b799 c33f
000006a0: 7c11 1d31 05fe dc3f 9de9 24a2 b447 e33f
000006b0: ef67 8f64 73bf 9abf 7b75 3198 e85c fdbf
000006c0: e4c2 383e 5f3a e93f e90a eccc 9e8b c63f
000006d0: 9d5e a681 26fe 8abf 36cb d0ee 88ab a03f
000006e0: a503 848b 5f5e d6bf 0b72 7f07 79bb d9bf
000006f0: 2e13 2549 448e b73f 53ce 3067 0c86 ce3f
00000700: 76bf d9b7 80cd ca3f ba30 4af5 a571 cabf
00000710: 1c24 d699 cc64 d0bf 0000 e6cb 3c44 b13f
00000720: 07b9 4cbc 0152 d33f 97a1 7070 0e17 b33f
00000730: 4a6b 90d7 b382 cebf 28d6 2fe8 f410 cb3f
00000740: 8cc8 6d1d e84e d7bf 3274 7664 c8af f03f
00000750: 9508 0ffc be33 d1bf 6f55 a540 db8e de3f
00000760: 3d0a 73d1 feb6 dbbf 9981 095b 4f3c da3f
00000770: d378 f704 aaf5 f6bf 0bd4 6c68 09d9 dd3f
00000780: e32e 5cec 4bb3 c13f 00a7 6ed4 0d7b d1bf
00000790: 0077 06ba cc4f f1bf 3437 a4a3 b72d b53f
000007a0: 25fd cba7 431e dd3f 24dd d2e4 5c8e d4bf
000007b0: 1d12 bf3c 57cf 8b3f 231e ef2d 5d0d da3f
000007c0: 381e 53d4 fe54 e0bf 3085 ce14 4904 e23f
000007d0: 5f02 78e9 6e7a ec3f 2bca 3529 740e dfbf
000007e0: 9d3d fad7 471f b93f f4dd 2e11 ad84 e0bf
000007f0: c676 152a 22a2 e7bf a543 9476 fee4 dbbf
