some/weight2.npy (npy, 41088 bytes, 1 tensors)

array f8 [512, 10]
0.25856778582005235 0.11644967033041577 0.0010804901958279016 0.06670516440111732 -0.022688933648204228 -0.0009937568627266203 -0.07308102020578901 0.29101120358287413
-0.44873562853251536 -0.06735719623669287 0.014980416508282173 0.02179008120058434 0.44259974837558314 0.1384009028420399 -0.21376648119057187 0.00043465872254674524
-0.12773228429003727 0.2849476371474757 -0.023744928360121702 -0.024284684768979277 0.0118042385704684 -0.1438376979376195 -0.15939731999432735 0.12645654458563427
0.010860844028401005 -0.07673725813637021 -0.14448533132707764 0.04318060768791169 0.30976160986542356 -0.16079920271231268 -0.17933340816749072 -0.16400027089980157
0.10168262627186278 0.06685451113986778 -0.12965493742713194 0.09059015624378261 0.040653249165941346 -0.09164900374114965 0.08292004963418 0.026056481155764512
0.0699604217746418 0.13427364591466792 0.2809451543420233 0.019805672783946363 -0.057989046671769295 0.15911590570741743 -0.3533187594519023 -0.20264335520969295
-0.21480523728738 0.07747259527046754 0.2476782793624425 -0.3311438824687283 -0.21409390110028254 0.05536513027089827 0.2205554512345109 -0.23525146086076254
0.12153152136720671 -0.128027529474935 0.2974464127351649 0.07269816330383959 0.05192245910728696 -0.1948534689339199 0.34901598776872267 0.10041813033829847
0.19129408755018146 -0.08077358588784955 0.16946109205795168 -0.007689249134240598 0.12857689937841565 -0.40610985100288377 -0.10062775954736526 0.29693207090898294
-0.2937089731586325 0.08837782310475299 -0.12421167996101945 0.06491096595790238 -0.09509586992385559 0.015901533736523508 -0.12631637853178782 0.20147371837930117
0.08182524371919961 0.1312770138629377 0.0726429923223661 -0.07846435898812477 0.017056362910981948 -0.08608246319752375 0.0005425871058401162 0.31316330498383715
-0.10013644705510702 -0.10827521141034581 -0.1643126633408286 0.08639811160532837 -0.20415886279016193 0.2666668711389357 0.15817807021611086 0.16887067759312888
-0.18728869602884754 0.11040832772903188 -0.3658420031224743 0.20133197274334805 -0.08055611011840844 -0.03742590053057421 -0.08382707028508485 0.2588997782712911
0.0965075287557407 -0.364297746148786 -0.1029066999497333 0.25781106673447013 -0.15181113319973188 0.11911389308949268 -0.0885086719472202 0.18657525166651578
0.07370542899388052 -0.26036908002273956 -0.007815106591657586 0.09894429485367572 0.017792059997644077 0.07771762108443547 -0.16058320084653815 -0.10075499555486024
0.1201045141795977 -0.12779046249080972 -0.19582574621043095 0.2858344798901446 -0.42287022073740416 0.28267026164370795 0.051719658930846145 -0.06627083947560981
-0.013065585080394085 0.1913973696761863 0.08270552621889576 0.1526007724993568 0.13343152498250208 0.03587666518995539 -0.12628911600191725 0.3230965561093073
-0.019056662600797955 0.316794474183348 -0.17437776803199403 -0.036146129356831216 0.06050975058777848 0.09050099937941393 -0.024436820756587548 -0.11955722132984632
-0.02209018759258755 0.11242439407925509 0.04787338285406964 0.17881813641171193 0.0052310293360941715 -0.18912675608534057 -0.01621769984644664 -0.06395741228560976
0.11370044925121386 -0.17628118200346488 0.003370450657581773 0.11340131936379129 0.11963889574427024 -0.10796283833854471 0.05092566451266659 -0.025465835321357023
-0.014974011552344322 0.10969725468363474 0.3846645843209802 -0.010324854106327656 0.01340845704027089 -0.36111469949726466 -0.08905569789214494 0.15259480184751942
0.03868199319167505 -0.19979506711984327 0.3343091680255743 0.11866542733765638 0.01975059208556744 -0.2250029345705304 0.10544872350159225 -0.149365123068151
0.20766027600894443 0.07772085015057908 0.2586435391263917 -0.3672588707176586 -0.29264694973113786 0.036587063971872884 0.21509460356531152 0.010514082061591325
0.14801881704894362 0.16750871093369235 0.19024352367482525 0.10376662453459619 0.12890886964147108 -0.29070262357742693 -0.07178266368767641 -0.20537287012692976
0.11548383410128142 0.18661082510246707 0.12755812612914408 -0.06053234755459042 0.08184111731139403 -0.3274731781580754 0.10153336937343503 -0.07720980304703752
-0.09186843078143081 0.009408842359112414 0.009446147864706766 -0.15344102815402486 0.3168681633031179 -0.01030866931062336 -0.1256895520394043 -0.09879658905026455
0.02320164758858868 0.06556965648800184 -0.20888830365278152 -0.0635708958764161 -0.12971636164942776 0.14763980354395317 0.244877672815044 0.2463530640891438
-0.2007173734249626 -0.17666315427754767 0.08695945093108827 0.20387426689433233 0.21681359405660217 -0.13661415305296987 -0.02094365029413871 0.080178872560795
0.0699664759039761 -0.19085115118604667 -0.17138757547161737 0.2868332761785597 0.13365717597116916 -0.0716964192620759 0.1119675007891685 0.02664981436021269
0.0917494730754209 -0.10302714901427443 -0.24118557204724056 0.18170678370000892 0.20495514008660395 -0.041688420576870375 -0.043755013380147235 -0.16925360771460743
-0.06565408780729208 -0.11460808307008422 0.12421466186815859 0.0625122072708805 -0.02293459431890903 -0.05760007602193268 0.16899825484458933 0.16675436110030292
-0.21890691185428385 -0.14336246904409208 0.050015531137496516 -0.06242385695020719 -0.2294197300637161 -0.41323141879561454 0.22266558526077265 0.4789416824876635
00000000: 485c f9e5 5f8c d03f 59f9 b245 a5cf bd3f
00000010: 0cb0 8083 e7b3 513f fabc 93f3 9613 b13f
00000020: 9e27 0090 c43b 97bf ec01 704e 1e48 50bf
00000030: 71ff bd0f 70b5 b2bf 5e1d 8a74 ed9f d23f
00000040: d637 46a4 15b8 dcbf 36a2 fc3a 523e b1bf
00000050: 3645 de77 0dae 8e3f 1fe7 8898 2350 963f
00000060: de6b 1fe5 8d53 dc3f 79c2 b8eb 1eb7 c13f
00000070: 8de5 d836 b35c cbbf b9ed 8dff 5c7c 3c3f
00000080: 91a4 d50f 8859 c0bf 8bbc a703 953c d23f
00000090: cea5 022b 9750 98bf 4278 819b 15de 98bf
000000a0: f62c ea14 d22c 883f e978 4910 4669 c2bf
000000b0: 230c 39a2 2167 c4bf b823 ae61 ba2f c03f
000000c0: ec81 45cf 353e 863f 6796 148e 0da5 b3bf
000000d0: 4c98 66ce 7e7e c2bf d595 aec3 c41b a63f
000000e0: 5a69 fb5b 22d3 d33f 22a6 6f7a 1195 c4bf
000000f0: 826d 94a9 65f4 c6bf 765f 06fc f5fd c4bf
00000100: eab6 6862 df07 ba3f 9390 ef92 601d b13f
00000110: c3d9 0172 8898 c0bf 6615 689e ea30 b73f
00000120: aca7 49af 80d0 a43f ec7a c721 4f76 b7bf
00000130: 418b 5c95 3f3a b53f dac1 a6d9 8cae 9a3f
00000140: f954 891b ede8 b13f 0387 f5fa e02f c13f
00000150: 2a98 7762 01fb d13f b480 8733 f047 943f
00000160: d082 f685 bdb0 adbf 21b5 a4f5 e85d c43f
00000170: 8430 3a49 c69c d6bf c24c b0ab 37f0 c9bf
00000180: 1c54 94ee bc7e cbbf eedc 0577 3ed5 b33f
00000190: 6d47 e5fe ebb3 cf3f 6050 5e1c 7631 d5bf
000001a0: c2d7 bfcf 6d67 cbbf 0d5f b47f d158 ac3f
000001b0: 17dd 0039 293b cc3f 78d9 5d49 b81c cebf
000001c0: 1a8d b495 b01c bf3f 1490 0ac2 3463 c0bf
000001d0: aea4 c0ad 5c09 d33f b787 dec9 589c b23f
000001e0: 2c5f 969f 9495 aa3f d1aa 4a5e f5f0 c8bf
000001f0: f4db 4f27 4756 d63f 2e7c baa9 00b5 b93f
00000200: c21c f91c 537c c83f a0da c4e5 93ad b4bf
00000210: 24ab 2aac e6b0 c53f de6c ff18 c37e 7fbf
00000220: f4f9 ec34 3575 c03f 2c03 292c b4fd d9bf
00000230: 2160 53a8 bdc2 b9bf 3502 6c5f ef00 d33f
00000240: 3184 90b8 20cc d2bf d334 edd3 ed9f b63f
00000250: 68bb 362f 56cc bfbf c2e2 f04b 019e b03f
00000260: d3c0 4ef3 3358 b8bf a91e 6bdd 7d48 903f
00000270: b120 5f95 222b c0bf 88a7 b80b e4c9 c93f
00000280: 76dd c2c9 7ff2 b43f 6d01 a168 afcd c03f
00000290: 5ce2 4e2c bb98 b23f f96e c17f 3d16 b4bf
000002a0: 90c4 9023 3977 913f e646 3114 8009 b6bf
000002b0: aaec f9ef 8cc7 413f 689f 4d1a de0a d43f
000002c0: 1644 3dcd 8aa2 b9bf 7194 f99b ecb7 bbbf
000002d0: cc0a af85 3208 c5bf 76f2 c7c7 2f1e b63f
000002e0: 6ca7 6fab e021 cabf dcf9 9dec 1111 d13f
000002f0: 28e4 42d3 2d3f c43f 5307 c2ea 8d9d c53f
00000300: 7f5c 2d74 13f9 c7bf b95f cd5c b843 bc3f
00000310: 8c81 ba93 f469 d7bf 2932 49ff 3ec5 c93f
00000320: 0e98 7342 539f b4bf 68b5 9ad5 7c29 a3bf
00000330: c8d8 64dd b075 b5bf 6b7a 2760 d091 d03f
00000340: 14dd d2a7 b7b4 b83f 81cb 6d7e a750 d7bf
00000350: a5c9 d2ee 1758 babf 97f8 0afd f97f d03f
00000360: 6a7a 2116 8c6e c3bf 8590 5183 3f7e be3f
00000370: e6fa 6c1b 81a8 b6bf a848 13a6 b2e1 c73f
00000380: 6efd 10e7 5bde b23f e395 e512 e3a9 d0bf
00000390: e8b0 ced9 5d01 80bf a7b6 85ce 6954 b93f
000003a0: d8fd 45ef 1438 923f 106d e150 4de5 b33f
000003b0: f620 f685 fd8d c4bf 8916 d152 14cb b9bf
000003c0: eada 8060 2bbf be3f 50c2 9118 705b c0bf
000003d0: f123 d86b d110 c9bf 3ba1 ccb3 1c4b d23f
000003e0: b33e 2142 4e10 dbbf 6fef 5302 4517 d23f
000003f0: fb25 56c7 ff7a aa3f e5e8 3930 20f7 b0bf
00000400: 28b8 fc24 21c2 8abf ae5a a681 b57f c83f
00000410: 3c02 4f7a 302c b53f 4952 9d0f 6c88 c33f
00000420: 8b12 07c2 4814 c13f 645d 5c1f 6d5e a23f
00000430: 7fd4 88e3 3d2a c0bf 1c24 7c2d 9dad d43f
00000440: bcb9 90fa 9683 93bf 99f1 8a54 5c46 d43f
00000450: d966 6cbd 0252 c6bf dadc edd6 be81 a2bf
00000460: 1a2d ba4f 22fb ae3f a103 97d0 122b b73f
00000470: d2fb de47 f705 99bf 3dc1 9c53 4d9b bebf
00000480: 6936 1765 cf9e 96bf f0cf d757 d8c7 bc3f
00000490: 240b 6a2b dc82 a83f c3f4 e83f 83e3 c63f
000004a0: d85d c4be 216d 753f 94b1 1738 4e35 c8bf
000004b0: e9cb d369 5f9b 90bf d57d 1a52 835f b0bf
000004c0: 8c10 13ff 781b bd3f 1874 cdbb 6190 c6bf
000004d0: d567 1beb 589c 6b3f d1a0 fd6d de07 bd3f
000004e0: 111b 8d98 a7a0 be3f 31ee d8db 73a3 bbbf
000004f0: 05cb 37bf ed12 aa3f 7a71 7b47 b713 9abf
00000500: b209 42cf b1aa 8ebf fdc2 5389 1e15 bc3f
00000510: 85a2 6534 589e d83f fcfb c775 3225 85bf
00000520: a480 d2a3 e475 8b3f 0785 1cd4 801c d7bf
00000530: b71e f8ad 5acc b6bf d9c2 bcf9 3988 c33f
00000540: fa98 674f 20ce a33f eb46 977f e292 c9bf
00000550: 540f db47 5265 d53f dfc2 9481 db60 be3f
00000560: 0c2b 56cc 7f39 943f a602 be6a e5cc ccbf
00000570: 1523 d802 b0fe ba3f 09d0 5e77 651e c3bf
00000580: 0481 11a7 9c94 ca3f a232 9d7d 83e5 b33f
00000590: b0a6 77a1 9d8d d03f b27c b959 2b81 d7bf
000005a0: 23a4 9745 baba d2bf 6784 6e26 8abb a23f
000005b0: ecf6 ed4f 3888 cb3f c1e2 d034 6888 853f
000005c0: 217b 35d5 47f2 c23f 88ae a0e9 ec70 c53f
000005d0: 49c6 3a58 e659 c83f d9da ca12 7390 ba3f
000005e0: 0821 a3f9 1580 c03f b617 482d df9a d2bf
000005f0: 9255 f540 5960 b2bf 1125 5780 a849 cabf
00000600: 7383 ae3a 5990 bd3f 9c84 720f dde2 c73f
00000610: e027 081e d353 c03f 59b3 318a 18fe aebf
00000620: b30e 521a 8af3 b43f 3264 a00f 52f5 d4bf
00000630: 0f5e e944 17fe b93f 3983 048b 05c4 b3bf
00000640: c0b7 bd81 b084 b7bf 340b ce71 f144 833f
00000650: 007e 3781 8058 833f a1a0 e4a2 f4a3 c3bf
00000660: 5df3 a167 9147 d43f 846c 6f2c b61c 85bf
00000670: 0ea4 ba61 9816 c0bf 775f edb6 bb4a b9bf
00000680: 63db 6c36 2cc2 973f 08d6 394a 2cc9 b03f
00000690: 8f51 5a18 dabc cabf c241 c4a6 2e46 b0bf
000006a0: db2b 85b5 8b9a c0bf 0692 e76f dce5 c23f
000006b0: 136f 21ce 2658 cf3f 3f21 c448 7f88 cf3f
000006c0: b2b3 4c5d 1bb1 c9bf e1df 03f3 e59c c6bf
000006d0: 81bf d37d f942 b63f 2150 674e 8d18 ca3f
000006e0: dc91 e63f 8cc0 cb3f 5841 c493 927c c1bf
000006f0: 45eb 4994 4072 95bf 6e90 7a43 9a86 b43f
00000700: 59ee d2ad 52e9 b13f 30bf 5f7e cf6d c8bf
00000710: a6b0 cb2f 07f0 c5bf 50da 25f5 795b d23f
00000720: 7200 d6a7 ad1b c13f 3e8e f84f b25a b2bf
00000730: 90b5 1af2 e6a9 bc3f b180 7cc4 164a 9b3f
00000740: 0fbf 48ba e47c b73f 2ece 9dbb fc5f babf
00000750: a4df 1a38 2bdf cebf 1cf8 b9fa 2a42 c73f
00000760: 0bd7 e853 f83b ca3f 3ec5 ff45 2f58 a5bf
00000770: c5ee 019f 0e67 a6bf d19f ee2a 1aaa c5bf
00000780: e724 fbcf b4ce b0bf e2ac a490 f456 bdbf
00000790: f34d 6836 88cc bf3f ca46 d4cd cc00 b03f
000007a0: 0ddd 2f92 2a7c 97bf 08cb 85d5 c17d adbf
000007b0: 25bd d11c bca1 c53f 0b12 b2f7 3458 c53f
000007c0: 1629 a445 2405 ccbf fb53 028e b359 c2bf
000007d0: d823 0ebd a29b a93f c8c1 2e10 05f6 afbf
000007e0: bd24 d72e a05d cdbf bc09 5a31 6272 dabf
000007f0: 49e2 514f 4e80 cc3f 5f72 be03 fba6 de3f
