some/weight2_grayscale.npy (npy, 41088 bytes, 1 tensors)

array f8 [512, 10]
00000000: 7b47 82b0 c17e d13f 101b 912c 210a c33f
00000010: 5098 3435 ca0d 7bbf b0f7 99e0 934e b43f
00000020: 1a3b ee59 1579 a8bf 3314 c655 99b8 7f3f
00000030: 30ce 4421 d401 b7bf 4eec 703e 25a9 d53f
00000040: c8e2 8cff 56f4 e1bf 37fe 6652 c5d3 95bf
00000050: 007c 0cc8 2ca1 923f fae1 4475 e441 a93f
00000060: ac0d 4398 f99d e13f 988c 41ad 0e4a c13f
00000070: 111b dea3 b568 d0bf 6500 92a2 56bf 8f3f
00000080: e738 e74a a85a c8bf 0090 39a4 11c1 d33f
00000090: c188 c840 64c7 b5bf a62e 79b5 bd59 a0bf
000000a0: 08dc 00bc fff5 a03f 6632 d2f5 6d1d c3bf
000000b0: 563b 0ad7 3780 c6bf 1274 8eff cbd6 b83f
000000c0: 6c45 a80c dfe5 a33f 86f3 fff4 a331 b6bf
000000d0: 3e5f ee65 0b24 c5bf 74d7 174a fbe4 ad3f
000000e0: baeb c018 b747 d43f 3a05 3e82 6543 c3bf
000000f0: 35c5 efe8 3461 cebf 3770 0700 f051 c7bf
00000100: eeba 1c7e 9709 c03f 5c54 35fe 497e c03f
00000110: 65fa c837 a150 c3bf c6f3 90ce 1fe9 c43f
00000120: a187 bf45 9e1e a13f 0518 fed4 f495 c1bf
00000130: 6cb4 8fe9 b0ed b33f ecbe c6bd a6b2 973f
00000140: 399d b749 ddd0 a73f a89a cdff 63da c03f
00000150: 20e7 eb67 4123 d53f 2a4d 89ea 011c 993f
00000160: 9f23 1ddc 08b4 573f 7558 e66e 5586 cf3f
00000170: 0447 5ec5 9c72 dabf cf2d bcea af42 d0bf
00000180: cd5a 2be9 6486 d6bf 22e6 9349 3760 c33f
00000190: 2487 2a56 7109 d13f 50d3 dbdb 7c3e d7bf
000001a0: e638 0124 907d cfbf fc32 835a 9ba4 853f
000001b0: e485 25db c2e3 cf3f 2499 38c7 3d2b cdbf
000001c0: 6287 4d41 80e7 c03f a5cf 6c86 9c4b bcbf
000001d0: 59f2 c004 5ede d53f ed63 bbb5 ab02 ac3f
000001e0: aa71 4050 ce49 863f 5347 492e f794 cbbf
000001f0: 60f6 f069 0efe cc3f 7221 e167 8b23 c33f
00000200: 93fe 6906 4ee2 cf3f 978b 84a5 2e67 b9bf
00000210: 50e8 3d82 3225 c73f c647 cf5b e6df b1bf
00000220: 098e 7368 d71a c73f 8617 e9f8 23f0 d3bf
00000230: 37b5 5758 5c07 b8bf 4c19 1687 0e0f d13f
00000240: d74b 28af 61d3 d6bf 5cd6 1644 ea98 b83f
00000250: 5b9e 7aca d3c2 c0bf 11ce 4535 fa93 b33f
00000260: 5205 ff79 0d59 b3bf 5934 ed21 fb4f 7dbf
00000270: b9e1 874c f248 b6bf a5ec aff0 f7b0 ce3f
00000280: 3e92 780b 1bcc bc3f dc8b 5c85 5a0a c53f
00000290: 4722 276a ad98 b13f cf19 c7e8 dfd3 c0bf
000002a0: 5dc0 0e3a 5b75 ab3f 91cc 6851 cd84 b2bf
000002b0: e7fb 2ca1 150e 82bf 9c73 eb87 b662 d73f
000002c0: 2c69 86ac 005d bebf fa0c a311 3d4d c8bf
000002d0: ce3b 1ea1 a649 c9bf c199 c75c 1593 c03f
000002e0: 8296 343e b584 ccbf d765 1725 902f d23f
000002f0: 5e85 9c89 054f c93f b509 70f8 c47a cb3f
00000300: 85d8 079b f6b4 d0bf f907 ccd0 a156 c23f
00000310: e48a 5a55 59a4 dbbf cc45 5ca2 5c6c cb3f
00000320: 4b0e f7bf da77 b3bf cc7a 4bd4 3a6a 3a3f
00000330: 5c84 8abf f281 c1bf e56f a06c 6d34 d53f
00000340: c58d 7dce fb9b c03f 7725 385f 3047 dcbf
00000350: a67c 322b 6b71 c0bf d24d 8255 d9dd d23f
00000360: c1fb 8881 7ad7 c5bf 9ec0 8435 60e7 bb3f
00000370: 1921 4f62 9a19 bcbf 2a08 4f5e 7fbf d13f
00000380: 19a4 aa66 c86f c43f f42f ffbd 0dc7 d4bf
00000390: 85aa 00cf e3b2 93bf d981 0579 516a be3f
000003a0: 823c f0bc 7626 92bf 0af5 5894 3aee b83f
000003b0: becb d319 4717 d1bf bee2 e2e1 a0fa b3bf
000003c0: 87c7 d178 6bb5 c33f 16d5 87db cc0d c1bf
000003d0: 4e75 9584 551c d1bf 4eb3 32cb 9b5e d63f
000003e0: 5738 b62c f687 dfbf 7dae 780a 8928 d53f
000003f0: 220c bf75 4be1 ac3f fd34 2504 8755 babf
00000400: dea2 8463 b892 8abf 2717 b6a1 89bc cc3f
00000410: ed44 9d77 24ea b53f b573 82a6 9af1 c93f
00000420: b188 1833 c0ad b93f f2b9 5c68 9846 673f
00000430: 20c5 e5eb 9080 c8bf 6f87 c3c8 8f8c d43f
00000440: 17de 2a04 1ff9 81bf 0986 0096 41fe da3f
00000450: 287f 6fc4 5526 cebf b66c 095c 9549 84bf
00000460: 9799 ec9e e80f ae3f f39e a293 6def bc3f
00000470: 1e79 a786 690a a3bf 4c95 e62a b6b6 c0bf
00000480: 634d 8d6c 1bdb 68bf 9687 b5ad 4b98 c73f
00000490: a919 d34e b534 a13f 10ac 6851 7bb0 cd3f
000004a0: 59a6 e8a2 fbea a6bf 32f3 03cc ea04 d1bf
000004b0: 8edc 2149 22de 96bf 3016 86dc 393f b4bf
000004c0: 1029 4352 4b83 c13f 0423 9090 f63e c6bf
000004d0: 8410 c20d 5d41 61bf 8100 e10e f921 bd3f
000004e0: 7fdc 37b9 5fa5 be3f 87b3 5048 d709 c0bf
000004f0: 78c5 352b 16cd a43f 60ba 942e dc18 673f
00000500: 8fff 0a8d 3a98 a6bf cc32 4b69 399f c13f
00000510: f7fd 7f7c adbb d63f 906f 6918 d8b9 a6bf
00000520: 0380 3fbb ff49 9b3f f511 f94b cbfd d2bf
00000530: 2dba 7c00 f6fb b4bf a608 76a8 dc0f c73f
00000540: 58a2 ed56 a4b1 8b3f b66d dec3 6471 ccbf
00000550: dc6e 5332 c9c0 d53f 1b59 3f5e 430d c53f
00000560: 9fa5 c56e eb2e 983f 6c68 2025 215c d4bf
00000570: 3f57 ced1 93d7 c13f 6360 3585 c1d1 cabf
00000580: b44c 1d8c 6fd1 cc3f 8379 45f0 dba2 bf3f
00000590: db67 7441 7d32 d83f 317d c46d c419 dfbf
000005a0: 9c61 3b10 7c00 d8bf 1dc1 fd04 8105 a33f
000005b0: 2367 8561 e699 cc3f fe61 1e6a 5640 923f
000005c0: ad8a 4221 6c72 c23f acaf e7b9 faf5 c63f
000005d0: 105c 11c2 03ac ce3f 08d7 f981 6fbc c33f
000005e0: c085 737f c2b6 c33f 6a12 856e 0ee0 d6bf
000005f0: c88b 7211 54db b1bf 6a4a d739 d1c9 d0bf
00000600: 2986 2e4b 4c18 be3f e41b 21ba b95e cd3f
00000610: d242 7910 c3f2 be3f 5d64 c4ca bbd8 8ebf
00000620: 8217 ec4b dbf8 b63f fa3b 06d3 9188 dabf
00000630: 07ac b648 5fa5 c23f 1386 654a ce28 b2bf
00000640: 7b40 2075 cbd1 b3bf d060 143d 18ef 803f
00000650: d56b 4f37 1c22 a83f 6873 d9a8 c843 c7bf
00000660: cca6 c753 e805 d73f 89f7 a819 f1cd adbf
00000670: 3b70 bd20 2976 c0bf 5b32 2ec7 5e7f bdbf
00000680: 55ff d382 f08f 88bf d457 8827 003b ba3f
00000690: 59f6 dbbe b44d d1bf f59f 4d67 4a36 b5bf
000006a0: c113 565f 600a c2bf baad fb8f 86d9 c73f
000006b0: 308a cdad 60e8 d03f 7f01 0a3f 6b23 d33f
000006c0: e8e3 3550 62b2 d0bf 8bc3 b7c1 5405 cabf
000006d0: c439 2291 8109 b73f 514d 94b1 9b36 d13f
000006e0: fee5 0e53 8003 cf3f fbe1 a7e9 24d7 c5bf
000006f0: 2e2f 5775 d7bc a4bf 1b80 695c b3fe a23f
00000700: d90c e561 0c6a b93f 60d9 1d4a 503f c7bf
00000710: 453d 214a daa1 cbbf 4a4a b6ff 17d1 d33f
00000720: a823 9884 19ac c73f 04de 536b bb93 b1bf
00000730: 38a2 e14e 36ab bf3f 9a0c 6a82 549b a63f
00000740: abc6 cbc1 d5b5 b63f c53a 3dce 4abb b4bf
00000750: 78e2 e366 7aa9 d1bf 3d03 7fea 9292 cb3f
00000760: 07b6 7710 ec68 cf3f 12c7 b0b7 69bd a7bf
00000770: 74d4 a1fa bd46 b6bf 452c 79c0 cdbd cabf
00000780: bf95 07a3 ba59 b2bf 1159 d400 106c babf
00000790: 4eec c81d 5a49 c43f e675 3f66 abb3 a23f
000007a0: ea3c 33c1 8c69 99bf 08fa a133 06fc b3bf
000007b0: cbd3 d624 2217 cc3f ef91 36a6 2f75 cf3f
000007c0: a28f d857 a5ae d5bf e86f cbc3 3877 c2bf
000007d0: 518f 8d74 0d27 953f 3c6f e117 5fd4 bcbf
000007e0: eb36 4e7c aac8 d2bf e6a7 8a6d 0a97 e0bf
000007f0: cfcf 52c1 06e9 d13f aa58 3833 7208 e23f
0.2733616088599928 0.14874663044084757 -0.006604947923994756 0.07932399972375381 -0.04779879305634989 0.007744406666806691 -0.08987165271974429 0.3384488210464881
-0.5610766402451981 -0.02131565394824816 0.018192958555228955 0.04933084422595253 0.550534055124833 0.1350725503899397 -0.256390962626413 0.01550166782021751
-0.19026664407142066 0.3086589912184081 -0.08507372457146102 -0.03193466987849307 0.03312682313883647 -0.1493356180475473 -0.17578790664671357 0.09702754010363915
0.03886315373905344 -0.08669495326462426 -0.1651624915800713 0.05838761596162004 0.3168771497473092 -0.15049427852140146 -0.23734151243074 -0.18218803407114745
0.1252927175314293 0.12885403549686003 -0.15089812492256552 0.16336438738099285 0.03343672372262963 -0.13738880538966228 0.07784562780553167 0.023142438252476902
0.04651538395756422 0.13166475286853552 0.3302768244608263 0.024520902576410077 0.0014467321893383079 0.2462870399000995 -0.41324538492436624 -0.25407026217791623
-0.3519527699512935 0.1513737782732259 0.26620133795414547 -0.3631889483506727 -0.24601938016934993 0.010567868900034132 0.24913821888462373 -0.2278821203955853
0.1320648497449453 -0.11052873880254184 0.34169722046116174 0.054707876142579305 0.01088296110543115 -0.21548356781073127 0.22650318310654693 0.1495222336982454
0.24909377396760543 -0.0992306856247026 0.18082267150367892 -0.0698226904053448 0.1805066356674703 -0.3115320139662504 -0.09386231571962332 0.2665439910128
-0.3566517076989703 0.09608329927763165 -0.13094565760296714 0.07647670555689269 -0.07557758549139251 -0.007156353937557724 -0.08705057495524827 0.2397756505232326
0.11248940496495494 0.16437846671860157 0.06873592225668644 -0.13146590105152575 0.053629732930290365 -0.0723388980630253 -0.008815926533882702 0.365399964079012
-0.11860660755192914 -0.18985713349511696 -0.1975601469716523 0.12948863058336538 -0.22279992616056538 0.28415301916319663 0.1977240487986291 0.214684125239797
-0.26104512347900083 0.14326880164304592 -0.43190606437035073 0.21424444129711018 -0.07604758440634744 0.0004030603052295578 -0.13677820541946317 0.33132491691662685
0.12976024229565844 -0.4418450288654507 -0.12846126183737744 0.294790585999377 -0.17063838314967764 0.10899926478009767 -0.10976567173122866 0.27731308183513426
0.15966134083763064 -0.324649272483611 -0.019237098226009514 0.11880978779436847 -0.0177248528307783 0.09738508340611332 -0.26704576036643946 -0.07804303660203524
0.15397399329554792 -0.13323364943759292 -0.2673543734325293 0.3495244488101904 -0.49267343870531505 0.33059907934759974 0.05640636265118128 -0.10286754466251931
-0.012975159203578664 0.2245037116628563 0.08560398025771905 0.20268567209578028 0.1003074764962857 0.002841279669971935 -0.19142352598604706 0.32107920270765694
-0.008775942148857614 0.42176856659543255 -0.23554489223078545 -0.009905974265328115 0.05871512355797675 0.11302838186622548 -0.03718881386497429 -0.1305759152866507
-0.0030341659188849886 0.1843351934613195 0.03360525691236955 0.2319482944015765 -0.044761527668310826 -0.26592512057668494 -0.02233174868930781 -0.07908975252038242
0.13681928173748092 -0.17379648264638814 -0.002106363053885176 0.11379963505987868 0.1197109057610408 -0.12530032187478587 0.04062718656031 0.002819471400150861
-0.0441301629230103 0.1376716388825997 0.3552049365825662 -0.04438662813183136 0.026649471095765886 -0.2967403642581126 -0.08196961891074102 0.18017156816137464
0.013522418883171003 -0.2222104984656263 0.3398917190040558 0.16446725942541537 0.02361648429488172 -0.31812313676494486 0.13939140076097975 -0.20952624325105082
0.22514147130514106 0.12357878318787212 0.37808162109433646 -0.48594771117673746 -0.37502957902099765 0.03715136705329967 0.22344665300152497 0.017823553301782973
0.14411689399738262 0.17938169553178562 0.23962447143523535 0.15418809744340245 0.15401488517004047 -0.3574253157897035 -0.06975293565714857 -0.2623179497578919
0.11755825839511459 0.22945329273554116 0.12089175369443275 -0.015061823964560067 0.08973475078172835 -0.41458554847571316 0.1456717591330234 -0.07093514744112665
-0.07741996392747012 0.008268536914826902 0.047135240318048645 -0.18175609821892214 0.35973556691770336 -0.058211836225821996 -0.12860597704536922 -0.11522476542286013
-0.011993292801434722 0.10246277775908591 -0.2703678001269956 -0.08285965940524405 -0.14094166426744262 0.18632585554528963 0.2641832063001486 0.2990367999664371
-0.26088769753510954 -0.2032876916778402 0.0899888018923099 0.26895801870087604 0.2422943502004244 -0.1706281796357557 -0.040503247331427836 0.03709946158483054
0.09927441968925467 -0.18161967867826956 -0.21587685222264433 0.3096370694339937 0.18493956541376844 -0.06866046304991619 0.1237062399465082 0.04415382472964176
0.08871208173129712 -0.08098285231720144 -0.2759691242968425 0.2154105801583003 0.2453894691856677 -0.046366981194650006 -0.0870169388670819 -0.20891734979736235
-0.0716816566487841 -0.10321140308619571 0.15848852590883883 0.036527019721443385 -0.02481670312118648 -0.07806433449329842 0.21945597456729468 0.24576373687626993
-0.3387845380659603 -0.14426335869109086 0.02065678619273054 -0.11261553128263996 -0.2934976781769893 -0.5184375895962574 0.2798478019642489 0.5635310173409114
