4_layer_final/bias4.npy (npy, 640 bytes, 1 tensors)

array f8 [1, 64]
0	0x3bf5a4825ecf87f9	7.33280294860394e-20
1	0x3c6292122e8aa505	8.053709579573754e-18
2	0x3c54d2c4c2f33c47	4.5153366381371466e-18
3	0xbc353e6474fc24ec	-1.1516243878521992e-18
4	0x3c45de2876d4c2cd	2.3709121617417593e-18
5	0x3bcfbbf938366f0c	1.3439986775328172e-20
6	0xbc5b480f6dd8daeb	-5.9157291542011546e-18
7	0xbc5da378dbc3276c	-6.4268388578738194e-18
8	0xbc6c8374b791bd4c	-1.2365759332781776e-17
9	0x3c327c566a9e67c1	1.002111458638345e-18
10	0xbc4b4ee18a75dfdc	-2.960753276709096e-18
11	0xbc733099a9723777	-1.6644537045953114e-17
12	0xbc1cd896a82c21ea	-3.9093686027940713e-19
13	0x3c27d1723b24a281	6.45592229771938e-19
14	0xbc7263343ab3a7ae	-1.594862757998437e-17
15	0xbc309740aec90f7e	-8.993907360685199e-19
16	0x3c71f675c6e5f897	1.5580188730810156e-17
17	0x3c143d9cd97e783e	2.743122919669447e-19
18	0xbc6e2e0d1691542a	-1.308843971111828e-17
19	0x3c62b344fc5d1cef	8.109949946715237e-18
20	0xbc3c12fc531affc3	-1.5219034077849543e-18
21	0xbc55eb7943f8ee84	-4.753103100982898e-18
22	0x3c577566e7d434d5	5.086773334270703e-18
23	0xbc5977a76388f534	-5.5223616262595825e-18
24	0x3c51d03831979b86	3.862656168901201e-18
25	0xbc123482bb3840e4	-2.4672538049262465e-19
26	0x3c11305aa967be3b	2.329528089031833e-19
27	0x3c2b5eddde51f75e	7.418808661932643e-19
28	0xbc51ee516e994c53	-3.888150663871962e-18
29	0x3c04cb1dee57e217	1.4090173161564268e-19
30	0xbbe7133f1cd90672	-3.909087845151566e-20
31	0x3c54a77044f7daeb	4.478634660440798e-18
32	0xbc05cbcdae6803f9	-1.4769616734321147e-19
33	0xbc761479435fe868	-1.9151325776378373e-17
34	0xbc600eee46c79156	-6.96418760792543e-18
35	0x3c5c9dd189a54448	6.20520964065718e-18
36	0x3be1ed826c2517f7	3.037082598912925e-20
37	0x3c6b3d6c4ac3ec22	1.1813438099095991e-17
38	0xbc6395b2d6033689	-8.49353576645867e-18
39	0x3c13f96bc5b8225b	2.7070225300469592e-19
40	0xbc65724deacdc19f	-9.30093737364386e-18
41	0x3c57bbb68084551d	5.146329003098121e-18
42	0xbc652b6bef2d4f30	-9.180857331526725e-18
43	0x3c5526f59f0dcb54	4.58664906915835e-18
44	0xbc51ab9f521c06c8	-3.83165716854092e-18
45	0xbc6e8f7e2a734a03	-1.3253512388114016e-17
46	0x3c61f168fafc12df	7.781539355549123e-18
47	0xbc64dc5525d7d078	-9.046875337711725e-18
48	0x3c648ac0c5befc11	8.90867413436227e-18
49	0x3c258deefbe3910f	5.842339376916587e-19
50	0xbc639a720bb1b0f4	-8.50157734964837e-18
51	0x3c094624d2326ecb	1.7126328123362877e-19
52	0xbc43824dfb4e48f8	-2.1151702791339956e-18
53	0x3c71ca7c4191ad0d	1.543119668335991e-17
54	0x3bed6536dd7f7032	4.979769110853877e-20
55	0xbc787e54aa6bbce8	-2.124470685843263e-17
56	0xbc536948ad4a6ef7	-4.209147182653556e-18
57	0x3c5f40811ed8c87d	6.776690801916145e-18
58	0xbc2c5f5abf888c4b	-7.690375695549445e-19
59	0x3c74d1c5d0c7fa65	1.8057972370696653e-17
60	0xbc46066316fddbad	-2.3879498086511055e-18
61	0x3c556a71e8a642f0	4.643811509408728e-18
62	0xbbf41a0caa028e37	-6.810739763386805e-20
63	0x3c6294b01565bffe	8.058142617696778e-18
