4_layer_final/bias2.npy (npy, 2176 bytes, 1 tensors)

array f8 [1, 256]
0	0xbbee5a81ffc8d5ac	-5.1420907275775805e-20
1	0x3c530a516dfac1cf	4.128708012887904e-18
2	0xbc4e1b52e5ba63f8	-3.2641786044478775e-18
3	0x3c4a6746fd58d162	2.862665287747924e-18
4	0xbc5e13193b302e5a	-6.521390143961763e-18
5	0x3c5b18bcbd8cf3ab	5.875645011860462e-18
6	0x3c41e56b3ef83cb3	1.940306389269056e-18
7	0xbc62b12d2d2abbdc	-8.106404257781923e-18
8	0xbc70b4c543707c32	-1.4490262289663328e-17
9	0x3c58a080377c7ddf	5.340119933108299e-18
10	0xbc22d979e24ffdcd	-5.109171563673184e-19
11	0x3c417de68d91269e	1.8964646703657918e-18
12	0xbc4b11a9908c3aeb	-2.934826166927662e-18
13	0x3c7b6789a14c1e8c	2.3769566018735473e-17
14	0x3c561cba2e07f09a	4.794822498772005e-18
15	0xbc44be8a22e21517	-2.249101002236204e-18
16	0x3c602f605abd3649	7.019152621210581e-18
17	0x3c726ec1a16854c1	1.5987768458889125e-17
18	0xbbf4d49842fdbafe	-7.057630416269503e-20
19	0xbc121aca472a049c	-2.4536374745538936e-19
20	0x3c57cdd89784c712	5.161688390002512e-18
21	0x3c58337a5567a42c	5.247773876211116e-18
22	0x3c252aba560f2a68	5.737301303611446e-19
23	0x3c213c47eae85870	4.671684148361876e-19
24	0x3c54541dc9ee8338	4.408058020368354e-18
25	0x3c371285e57e89d2	1.25075490317849e-18
26	0xbc3a64be73a00a5d	-1.430796185833934e-18
27	0xbc4d3103d3982a7d	-3.1649449378961187e-18
28	0x3c2a7df51bdf7269	7.18067676572465e-19
29	0x3c548d5877f1c612	4.456533053325897e-18
30	0xbc44e26f3ee06187	-2.2643031084365127e-18
31	0x3c534dd3b0f8a792	4.185890220121025e-18
32	0x3c436bb7bf698354	2.1056043754768508e-18
33	0x3c501744c9f531b4	3.48915631311033e-18
34	0xbc4da2c827eeafac	-3.2131270992374625e-18
35	0xbc6304f5433b4187	-8.248335786361203e-18
36	0x3c46d00fa9279233	2.473362114536751e-18
37	0xbc10e1a2252b4e62	-2.287853661576851e-19
38	0xbc11f6b8ef065413	-2.4345433660801346e-19
39	0x3c19687cf131f212	3.4434473049371235e-19
40	0xbc39978169207b07	-1.3873352553480103e-18
41	0x3c30d800aafbee9b	9.131020696195908e-19
42	0xbc5b3123aa880159	-5.896314355187955e-18
43	0x3c50fa59812d730b	3.681501334645788e-18
44	0x3c4874d93f3f69ed	2.6515725300205545e-18
45	0x3c2668003d5e20a9	6.07322722326177e-19
46	0x3c6764898c0a4aa5	1.0144976786223223e-17
47	0x3bff511ada7dc2fa	1.061054998258552e-19
48	0x3c122cded6b8e011	2.463209113893713e-19
49	0xbc6f44ae1a22f8a8	-1.3560455530674962e-17
50	0x3c39c1e11550501b	1.396308239818076e-18
51	0xbc461357119195a0	-2.3934356354286037e-18
52	0x3c55f543394cc2f0	4.7613946215037836e-18
53	0x3c5e769cf7e30484	6.6056822872529055e-18
54	0xbc49feb4816f2071	-2.8183772369837703e-18
55	0xbc594ec10b762b20	-5.487718163883899e-18
56	0x3c2e13b294a60e54	8.152371918432308e-19
57	0xbc63f187ac499cb3	-8.64910420005668e-18
58	0x3c2fe70c84257d5a	8.647199366060038e-19
59	0x3c78aabcbe74b144	2.1395162121472794e-17
60	0x3c2c5ab13ed5eacb	7.685439483970843e-19
61	0xbc59be92956aad13	-5.582432127049199e-18
62	0xbc52ddc0d0eee09e	-4.090960077398675e-18
63	0x3c6fee2742417a50	1.3847554414735998e-17
64	0xbc293f401eb3ccd2	-6.843232616449816e-19
65	0xbc664cfd99702a1c	-9.671406305697923e-18
66	0x3c6a971f7aff3d86	1.153171486411073e-17
67	0xbc58f31d78ff6465	-5.41009695092193e-18
68	0x3c548bb167b5dcda	4.455133253909571e-18
69	0xbc6687c43af3dbb3	-9.770976556719829e-18
70	0xbc544a5c4fc49b65	-4.3997945614814415e-18
71	0xbc2a40971f5fe398	-7.115701785182061e-19
72	0xbc1eeb4259691a1a	-4.190303318002396e-19
73	0xbc64e3cb1c7f9908	-9.059514415919393e-18
74	0xbc7c07386d8ac197	-2.4310592403216784e-17
75	0x3c303fba3b6b9d2d	8.808565544991547e-19
76	0x3c2fb5b054fefb43	8.594937333202778e-19
77	0xbc5d0966dbddae4a	-6.296336228331816e-18
78	0xbc450c3ddefa7e13	-2.2820091169025106e-18
79	0x3c5e177627e74c72	6.525085737689782e-18
80	0x3c4aa365369d7f76	2.8881262770898994e-18
81	0x3c4d4decfc56418d	3.1771891286156184e-18
82	0xbc42d6068dc46b70	-2.042207278146942e-18
83	0x3c59a069410e5a4b	5.556884390675419e-18
84	0xbc6de37863818995	-1.2962094824443313e-17
85	0xbc57eea13d2506ec	-5.189457329470237e-18
86	0xbc60a38f343db973	-7.215974289733959e-18
87	0x3c1b2c142a220282	3.6825174375651564e-19
88	0x3c69a3f7c83b3b58	1.1119794150410064e-17
89	0xbc6bbf027e7eee41	-1.2032966553424777e-17
90	0x3c4535aedc100d02	2.299560216296824e-18
91	0xbc62239084cff598	-7.866504293387649e-18
92	0xbc6ed415b979e0cd	-1.3369711800249248e-17
93	0xbc641eb19f3e745c	-8.725614760826633e-18
94	0x3c7313d4ca59b008	1.654706378367628e-17
95	0xbc058d08f9a60d72	-1.4603470207545804e-19
96	0xbc4f9a3c5a8df56b	-3.42634811851206e-18
97	0xbc7296deb5c8a0df	-1.6123678595676895e-17
98	0x3c3c5342a8b58daa	1.5355141141844642e-18
99	0xbc750efd7de9d9be	-1.826538527949661e-17
100	0xbc10c8f5923cd50e	-2.27479129280112e-19
101	0xbc2ec64d220d822d	-8.341475962774687e-19
102	0x3c063d63eb75d33d	1.5070278673418014e-19
103	0xbc512b4eef40c669	-3.72297097580667e-18
104	0x3c4d94af5e5e3442	3.2071568613579836e-18
105	0xbc2ede77e4f434d3	-8.367063807919073e-19
106	0x3c65635616df30e8	9.275580463919232e-18
107	0x3c550f8aeda3ae9b	4.5668142937631e-18
108	0x3c46c8ec86792e93	2.4703393724564306e-18
109	0x3c478c2b2ed087a6	2.5530287430892076e-18
110	0xbc2cf1c4484b8211	-7.845395687747157e-19
111	0xbc536970c4e30181	-4.209279836522536e-18
112	0xbbee97eafbb7e3cc	-5.1827285190506284e-20
113	0xbc42dbffe32a647f	-2.0447373483339122e-18
114	0xbc4da19a1e57624e	-3.2126274201669388e-18
115	0xbc36569e5e70314e	-1.2109645977832565e-18
116	0xbc06a71eda73c29e	-1.5350144206967354e-19
117	0xbc19d1bac76883ce	-3.4991617175442373e-19
118	0x3bf7033753a8b214	7.796959614494772e-20
119	0xbc5f7e435d746541	-6.829002513041633e-18
120	0xbc2672f94f769095	-6.084845267312966e-19
121	0xbc4bc9caef1135dd	-3.0128084028131422e-18
122	0xbc564d5a1433240b	-4.836009141971211e-18
123	0x3c52a0de5c2a6a1a	4.0393888201059646e-18
124	0xbbf0c70ddc86381f	-5.684456831341824e-20
125	0xbc5455cb18eeb8c5	-4.409478483361125e-18
126	0x3b98284d43b9f738	1.2788836408185625e-21
127	0xbc664e9b42e73e95	-9.674143691013413e-18
128	0xbc505d4c1be7530d	-3.5484728396002e-18
129	0x3c49aa2bf7c1adda	2.7825759703522925e-18
130	0xbc11cafb392b52b8	-2.411387043766299e-19
131	0x3c0b63892823c1d7	1.8559380646777307e-19
132	0xbc2650cac78c313a	-6.048653919680157e-19
133	0xbc54bcc06f9abb5f	-4.496687601189607e-18
134	0xbc02a929f1915eb3	-1.2645047402642347e-19
135	0xbc44201b9a272d8b	-2.1820025360708193e-18
136	0x3c621dab122c5bb3	7.856515605682482e-18
137	0x3be67d960ba1f6f2	3.810050887546352e-20
138	0xbc6281c5a182292e	-8.02609795382797e-18
139	0xbc31ff5791dbc01a	-9.756426330073413e-19
140	0xbc4196a3314b3d15	-1.90694114370349e-18
141	0xbc65b4078cc8c6f0	-9.412280071192574e-18
142	0xbc1d80192a6edfd5	-3.9980475526004577e-19
143	0xbc6ecf26cc8a1cbc	-1.3361354460117727e-17
144	0x3c6cd768c9e14f99	1.2507981931905455e-17
145	0xbc40415b4091a4bc	-1.7624030109009214e-18
146	0x3c72e11a2e01f0b0	1.6375187421991035e-17
147	0x3c236889f004fcab	5.260645098892648e-19
148	0x3c49ea66c96ee525	2.8097783326189165e-18
149	0x3c5f035415beb0c9	6.72487278198376e-18
150	0x3c3cd068a4a79430	1.5620153135483578e-18
151	0x3c2cd029e9d319df	7.809817123350594e-19
152	0x3c12e900e59afe22	2.562805915774268e-19
153	0xbc4dbee6343dd6b4	-3.2250352708820475e-18
154	0x3c33cb7c9d675a51	1.0730820649291973e-18
155	0x3c562a2cf0087a0d	4.8062136288639736e-18
156	0x3c0ab27deb39f79a	1.8090749350226788e-19
157	0x3c067470c1119f2a	1.5215995165901085e-19
158	0xbc58a8a936bc38c2	-5.347031844599639e-18
159	0x3c49490b356b674f	2.7414406769777384e-18
160	0xbc6097b794ba16ce	-7.195912690895333e-18
161	0xbc7729cc1636a9bf	-2.009093444301482e-17
162	0xbc41939c7a0f7c9b	-1.9056594839971268e-18
163	0x3c397c1053379bbb	1.3815242407509046e-18
164	0x3c12e8efa8f62717	2.562770270720661e-19
165	0x3c405468aed08455	1.770472043041251e-18
166	0x3bf74eedb5c1d975	7.89716418702644e-20
167	0xbc1fa584cde5fc95	-4.288908323902983e-19
168	0x3c597b004316ab0b	5.525196782038953e-18
169	0xbc5a4e14a93f140e	-5.70398822871791e-18
170	0x3c50d29e5d5fe6f8	3.647847855862803e-18
171	0xbc21183f0fa13ae8	-4.633531035887097e-19
172	0xbc366faa8b69418f	-1.2162686251862376e-18
173	0xbc40f74098bcd4d9	-1.839438911124873e-18
174	0x3c4510dfb37c32d7	2.2839709082463935e-18
175	0xbc6193d97dd12227	-7.623041697228932e-18
176	0xbc2879c960d318fd	-6.634159648986636e-19
177	0xbc4627341b8e66b4	-2.401848126801396e-18
178	0xbc317a9c54942b36	-9.475356649682848e-19
179	0xbc45b94f3078e897	-2.355306117622256e-18
180	0x3c6448bb8d223cff	8.79683123470679e-18
181	0xbc6896bf532e8f50	-1.0663716822214167e-17
182	0x3c41bd5392bad011	1.923326566941276e-18
183	0x3c473dc5229fdf78	2.5198256345248725e-18
184	0xbbeb1cc499bde727	-4.5930149614151454e-20
185	0x3c31d348c6d5768c	9.663130340512347e-19
186	0x3c58a7f3c2888506	5.346431463961002e-18
187	0x3c6260a94426b631	7.970006077624312e-18
188	0xbc64ab88e17c71e0	-8.964208449030862e-18
189	0x3c43fc97cf3653b4	2.1669614266990436e-18
190	0xbc6a890f82b67a7f	-1.1507892261917289e-17
191	0x3c561ef0754dcd85	4.796696156859495e-18
192	0xbc5dccef7a5b00f9	-6.461959687728964e-18
193	0xbbf186a8cc83a7eb	-5.938044234436805e-20
194	0x3c3e464703bd8e79	1.6411850772147608e-18
195	0x3c16ed8558356a09	3.107298479744648e-19
196	0xbbee52a67e153432	-5.1368911047632564e-20
197	0x3c210624218682fe	4.614361414310696e-19
198	0xbc4288f79eea0af8	-2.0095718050689423e-18
199	0xbc14aa6d2324bd5d	-2.8007283724635e-19
200	0xbc457327796a76ad	-2.325594261406152e-18
201	0x3c112787f072b1c7	2.3248571604014363e-19
202	0x3c3e105ad973ed8a	1.6297665394004354e-18
203	0xbc580691e377235e	-5.2097353302904026e-18
204	0xbc58f7a4f79bbbfb	-5.413933396646818e-18
205	0x3c214ec883861424	4.6912742509139405e-19
206	0xbc106ef4414b0451	-2.2271429677013326e-19
207	0xbc501aafe7ed1f7d	-3.492051832587689e-18
208	0x3c5bcede25dc233e	6.02991554426796e-18
209	0x3c59211f42ee9ad2	5.4490663851593396e-18
210	0x3c3d11ff1c4aa988	1.5759040626012626e-18
211	0xbc4b4141f7c7e5da	-2.9549835712224783e-18
212	0x3c69de284caefe4f	1.1218371033455743e-17
213	0x3c4063ddbe404e3d	1.777018450166167e-18
214	0xbc532d74df81a309	-4.1584714386280205e-18
215	0x3c61d884690c2523	7.739369224254867e-18
216	0xbc62776fe3c6b11b	-8.00858990760132e-18
217	0x3c10882534e57c6e	2.2404790869882434e-19
218	0xbc5cbac585965e0e	-6.229733839007141e-18
219	0x3c57dae03732ff5e	5.1727250431966615e-18
220	0x3c47e1ff18841892	2.589378223826107e-18
221	0x3c1eea3cbc66307b	4.1897623143249e-19
222	0xbc4cf00a5a28e43a	-3.1374271628857946e-18
223	0x3c58ec51c2451bfe	5.4043407208812654e-18
224	0xbc4e415c347d3339	-3.2802876286776062e-18
225	0x3c6eb9e78b9b84c7	1.33253604988513e-17
226	0x3c3dbd7de71635c9	1.612219601119903e-18
227	0x3c3f1b663733876f	1.6863153905339514e-18
228	0xbc55189eab4d3ff1	-4.574502907343671e-18
229	0x3c4874b01837d377	2.651504448987191e-18
230	0x3c3c147f69bd5967	1.5222235998169933e-18
231	0xbc518fa7dfb8c9db	-3.807968546094147e-18
232	0x3c3ccca750965046	1.5612201213431373e-18
233	0xbc0bb3747e8be69b	-1.877092523862339e-19
234	0x3c70d3d7613fbbb3	1.459553414425755e-17
235	0xbc5b429ce96c3f09	-5.9111150835621965e-18
236	0x3c00a8225f809b59	1.128706943123391e-19
237	0x3c472ec35751cff6	2.5134699192319614e-18
238	0xbc54d78144eed52d	-4.519348489735141e-18
239	0x3c23605d9d8f0713	5.251991457459612e-19
240	0x3c42d36accb2b27c	2.0411025715291508e-18
241	0xbc5c5e9c86408727	-6.151671158830198e-18
242	0x3c6495442ba3e841	8.926484312493396e-18
243	0x3c399f538d9ece4d	1.3889913888510644e-18
244	0xbc31d226645c4423	-9.66072833488796e-19
245	0x3c4e70838075b412	3.300257913975107e-18
246	0x3c13f03a8ad009f9	2.7021561642497126e-19
247	0xbc5e5ee33e27949a	-6.585586015280651e-18
248	0xbc1e564f5968bb84	-4.1114502581475885e-19
249	0xbc6c62b2c9df8ee9	-1.2310265912993604e-17
250	0xbc63b4e8f40aec77	-8.546409927473462e-18
251	0x3c545cc34d1370a3	4.415381918150348e-18
252	0x3c12c75f5bea3197	2.5450018087846163e-19
253	0x3c6ad15f1427ff86	1.1630391544093747e-17
254	0x3c553da928f4ff95	4.605877837672856e-18
255	0xbc5ecf33521aad08	-6.680718661011576e-18
