4_layer_final/bias1.npy (npy, 4224 bytes, 1 tensors)

array f8 [1, 512]
000000 fa a1 d0 02 6e 47 6f bc 87 5b 51 08 91 7b 66 3c
       -1.3565113609034722e-17 9.750308967417723e-18
000010 f6 39 3c a7 4f 45 64 3c 67 b6 4a a3 e7 c9 75 bc
       8.791035027682398e-18 -1.889867668888349e-17
000020 c0 ea 70 08 8e e0 86 bc 42 8f e4 dc c6 0a 76 3c
       -3.9685559094460326e-17 1.9118471481706284e-17
000030 1c 81 f6 b1 7d a0 67 bc 33 85 62 fb 4e 66 81 bc
       -1.024654231083391e-17 -3.018356861195792e-17
000040 1d 5a 56 78 d9 21 63 3c c1 d7 d9 f4 5a ae 3c 3c
       8.297279781598631e-18 1.554804212096482e-18
000050 32 23 d2 53 d5 39 2c bc cd 6c e2 45 14 59 73 3c
       -7.65064860644163e-19 1.6781685061740772e-17
000060 77 a9 bc 9a 24 38 84 bc fd e6 c9 31 97 c4 13 bc
       -3.5074909191398485e-17 -2.6790543585627246e-19
000070 13 46 ae b4 39 74 44 bc b5 45 b1 ab bb 45 24 3c
       -2.217627722123613e-18 5.494843641842396e-19
000080 b1 b9 92 1f 54 20 50 3c 48 16 17 9e 58 f1 73 3c
       3.496830347024916e-18 1.7297585626306226e-17
000090 48 0a d6 43 6f aa 79 bc 25 db e1 0c d4 5b 7b bc
       -2.226149843365479e-17 -2.3729893381121963e-17
0000a0 a6 c6 20 46 e5 11 70 3c 36 fb 32 ec 93 2f 70 3c
       1.3938420463526378e-17 1.4038987741908615e-17
0000b0 47 13 e9 b3 c8 14 84 bc 69 1e 70 31 0d 8a 4f bc
       -3.483530734932174e-17 -3.4194938342468912e-18
0000c0 ae 10 98 b5 ec 2b 60 bc ba 3f 45 08 fe 78 7b bc
       -7.013305148462595e-18 -2.3828704829953392e-17
0000d0 ae da 04 12 a2 ca 81 bc 15 2e c6 59 bb 11 5b bc
       -3.0863394301781126e-17 -5.8697111829268095e-18
0000e0 fe d3 d4 51 e7 8b 57 bc 98 59 5a f0 b6 61 64 3c
       -5.105832945633203e-18 8.839152359600857e-18
0000f0 67 77 0c e4 cb b8 25 3c 76 2b e5 cb f9 8b 82 bc
       5.887722256064535e-19 -3.217353526231911e-17
000100 f0 09 c9 b5 8e 65 5f bc aa 46 e3 0b 84 db 74 3c
       -6.808075985190778e-18 1.809098324160125e-17
000110 04 23 c6 4f e3 45 52 bc d2 6e 55 ec 2f dd 62 3c
       -3.9623252053589805e-18 8.180961333575888e-18
000120 00 89 bd 64 45 ff 6e bc de d7 61 0b 48 95 66 bc
       -1.344287208070145e-17 -9.793871686410028e-18
000130 51 c6 b8 ac 57 98 3f 3c 90 6c 86 13 c9 0d 5e bc
       1.7127731421556457e-18 -6.516889768795751e-18
000140 28 27 28 fa 5a 82 78 bc 90 30 b7 f4 b2 5b 8a 3c
       -2.1258342917181893e-17 4.572418728476563e-17
000150 c0 09 d3 4c bc db 78 3c b6 15 c2 97 2d ca 57 3c
       2.1561174704525723e-17 5.158581502716985e-18
000160 2c 62 21 ea 6e b0 51 bc c6 77 b0 62 75 1c 45 bc
       -3.835732170701545e-18 -2.2888772215092886e-18
000170 ae 2b 20 49 66 75 68 bc 87 82 b2 b0 b4 db 7c bc
       -1.0607223435152367e-17 -2.503052094067074e-17
000180 26 df a4 5f 7d 30 83 bc 9a 4e 76 07 bf 7c 62 bc
       -3.328832530711611e-17 -8.017583937682396e-18
000190 ba 61 14 c2 ab fe 51 3c f0 44 61 8f 55 26 71 3c
       3.9020020550125406e-18 1.4875030931988687e-17
0001a0 4f f5 db 81 d3 9c 78 3c 56 44 f1 2f a5 cd 72 3c
       2.1348029546120248e-17 1.630926453592345e-17
0001b0 7b 73 ff 59 36 04 51 bc 4b e1 f1 90 6a 3e 76 3c
       -3.6898553524470675e-18 1.9293432798455635e-17
0001c0 fe 8e 8c 27 a4 ae 50 bc 62 d1 0c d2 8f 0e 7d 3c
       -3.617373826417277e-18 2.520282769528556e-17
0001d0 3e 7b d2 84 24 9a 3d 3c c8 4f 39 dc b2 d3 6c bc
       1.6047341262469762e-18 -1.2501695833424949e-17
0001e0 4e 13 b1 93 0b 5f 7f 3c a2 eb c2 78 8f b3 50 3c
       2.7210239616866925e-17 3.62154055762713e-18
0001f0 00 d0 94 9a 24 de 80 bc 10 32 c7 80 2f 1d 75 bc
       -2.9260875025349894e-17 -1.8313481017130736e-17
000200 aa 8a 13 4c f3 dc 71 3c aa af 7e 90 20 29 6a 3c
       1.5493758550662567e-17 1.1345374788865705e-17
000210 c4 c5 79 0c 94 e8 44 3c 01 60 a2 9c b0 1d 0b bc
       2.2669050929359765e-18 -1.8374500145293507e-19
000220 d0 3e 02 30 d8 26 6f 3c 64 ef 1b 5c ec 00 63 bc
       1.3509912051907716e-17 -8.241500608851321e-18
000230 4c 06 4c b0 56 d6 73 bc d2 50 f0 fd 48 38 66 3c
       -1.7206080539492005e-17 9.636329828160154e-18
000240 52 bf 56 67 57 db 69 3c db 36 9a 47 2b a4 75 3c
       1.1213600544705605e-17 1.8770822913174026e-17
000250 6c cc a0 c4 35 6e 6d bc d1 20 49 45 4e f6 85 bc
       -1.2763448256525273e-17 -3.809822564248737e-17
000260 f5 e4 90 a0 4e 48 5a bc 98 26 49 0c 3a 19 25 3c
       -5.6990978247448765e-18 5.718771266015153e-19
000270 d4 31 30 7f 1b 28 4d 3c 65 84 29 5d cd 00 7a bc
       3.1611724488409945e-18 -2.2554123156479302e-17
000280 3a dd 62 17 6a 87 59 bc 61 22 7a 1e e1 1a 75 3c
       -5.535711337145973e-18 1.8305667350104585e-17
000290 44 6e e0 a0 b8 05 19 bc c0 29 8c 9d 2e f9 68 3c
       -3.3911605696106376e-19 1.0830471738566639e-17
0002a0 98 40 c0 84 d2 0a 70 3c 05 27 d9 67 2d 30 68 bc
       1.3914455315627907e-17 -1.0489956488232162e-17
0002b0 c2 af b1 ab cf e9 80 bc 42 23 b0 93 a0 3b 61 bc
       -2.93399420264411e-17 -7.47358726950781e-18
0002c0 5a dd 28 90 04 6e 80 3c 96 a0 0e ce 12 20 68 3c
       2.850108539408723e-17 1.0462675404945497e-17
0002d0 62 54 13 fb e0 16 59 3c 12 f2 10 0e 40 6f 21 3c
       5.4403899861708256e-18 4.725649979542561e-19
0002e0 4c 8d ce 88 b2 e8 54 3c 1b 44 54 3a 79 10 52 bc
       4.533911054488163e-18 -3.917081457407138e-18
0002f0 1a 0c 02 07 ac ab 7e bc 6b 29 ab ac 90 94 40 3c
       -2.6602499438924755e-17 1.7976432579347197e-18
000300 db dc 24 17 2a e4 46 3c b0 83 0d 45 0f 82 3c bc
       2.4818761681911166e-18 -1.5454242430962595e-18
000310 09 e4 a6 54 08 37 72 bc 52 10 6c 01 9e 8f 5e 3c
       -1.5798968787707154e-17 6.626861542898047e-18
000320 99 8a 3a 1a 82 5b 52 bc 58 82 f2 90 7a 48 34 3c
       -3.980638292064194e-18 1.0995501499208037e-18
000330 22 11 89 b6 51 bd 68 3c 72 9e 8e fb fa ff 32 3c
       1.0729060041389859e-17 1.029987913602399e-18
000340 e8 4e a6 20 ad a5 32 bc 77 29 d4 ce f9 7d 4f 3c
       -1.010865272053847e-18 3.4143795664530284e-18
000350 b5 1d 04 a8 91 8b 68 bc e7 2d d1 fb 45 a0 26 3c
       -1.064477988782193e-17 6.132807983757241e-19
000360 92 66 e6 65 80 65 64 bc b7 99 ce 3f 14 0c 68 bc
       -8.845567702229989e-18 -1.04288036448661e-17
000370 d0 94 86 95 48 2b 7f bc a6 a6 05 15 67 50 32 3c
       -2.7034864186931842e-17 9.928078817111179e-19
000380 0a d2 23 80 8f f0 84 bc 61 cc 95 6a d0 03 82 3c
       -3.632457120610501e-17 3.1250868093119974e-17
000390 75 62 cf e1 33 d6 65 bc f6 a1 5f 94 0c 95 71 bc
       -9.470171677047174e-18 -1.525014767177756e-17
0003a0 e5 a0 a7 f4 5c 7b 6c 3c e9 4b 5e fc b0 be 53 3c
       1.235204956597137e-17 4.281490112358891e-18
0003b0 1f 15 1d cc 99 5a 66 3c 3e 24 e4 c9 e7 e3 35 3c
       9.694462793660965e-18 1.1866731319335402e-18
0003c0 29 87 7d c0 2a 3d 79 bc 20 0f ac 3f f3 c4 43 bc
       -2.1891285305729296e-17 -2.1433957778024202e-18
0003d0 62 2e 49 87 fc 0b 85 3c 05 df d9 a4 24 fc 04 bc
       3.6510416267561436e-17 -1.4219944491588474e-19
0003e0 cf 49 71 86 01 5d 7c bc 6d 5b 80 08 f2 7d 6a 3c
       -2.4601245105459723e-17 1.1489062472084635e-17
0003f0 1d a4 02 2e 15 6a 51 3c 96 36 8f f9 93 7a 8a 3c
       3.7761429567005305e-18 4.593343139335856e-17
000400 26 70 86 d9 dd 65 3b bc 96 e9 21 be d0 99 72 3c
       -1.4852440245506395e-18 1.613365813420781e-17
000410 b2 4f 42 36 32 cc 71 3c 2b 97 f6 82 7d 77 85 3c
       1.543699298037844e-17 3.723889062503132e-17
000420 49 25 67 60 88 12 71 3c 93 21 b4 26 ad 04 5c bc
       1.4807940846931858e-17 -6.0754932069245164e-18
000430 64 8b a2 e5 4b 1d 3e 3c 3d 59 1f a4 de e8 61 3c
       1.632507028132299e-18 7.767071375661357e-18
000440 e4 0a fb 5f aa a4 52 bc 96 2a 1b 20 78 e2 60 3c
       -4.0426049476346884e-18 7.322547719377936e-18
000450 bc b1 0d 68 6f 76 80 bc 25 63 a9 a5 ba 8b 80 3c
       -2.85581236222518e-17 2.8702416760996724e-17
000460 66 8e 56 03 7d 33 5d bc e6 1f 62 32 1c eb 72 bc
       -6.331984914176236e-18 -1.640909543588025e-17
000470 ca 1d 7b e3 a9 4e 82 3c cd 8a 89 69 4d 02 7e 3c
       3.175806804039808e-17 2.6028652945894e-17
000480 b2 5a 4a fa 61 38 67 bc ce c8 a1 07 a5 4f 66 bc
       -1.0070176038970863e-17 -9.675902399228996e-18
000490 a3 04 65 08 8a 00 72 3c a7 a7 ca 7a 50 98 2f bc
       1.5614338132574533e-17 -8.563835952791623e-19
0004a0 9e 8b a7 b1 99 de 77 3c aa 78 7c 53 1e 5d 69 3c
       2.0703519353555676e-17 1.0999770534459465e-17
0004b0 af 51 8d 90 17 42 7f 3c c1 27 f4 7f ea 78 48 3c
       2.7112142451345738e-17 2.6532951382087535e-18
0004c0 5e 2f 7b bc 9b ae 4f bc dd ea db e7 f1 f5 44 3c
       -3.4349762451372313e-18 2.2725660804189195e-18
0004d0 d8 60 d1 f2 59 2f 7a 3c 04 6a 68 3f 53 2d 74 3c
       2.271183784036495e-17 1.7500802464237242e-17
0004e0 90 e5 3f bc 1a 4c 64 3c 59 0a e8 86 67 bd 6d 3c
       8.80254330757212e-18 1.289760873896763e-17
0004f0 d0 0b 85 9f c8 18 63 3c 30 1f 2b f8 b3 79 54 bc
       8.281921704826021e-18 -4.4398951453803455e-18
000500 a2 9f fb 08 44 1a 78 3c 76 bd 9e 04 38 57 3e 3c
       2.090567357514787e-17 1.6447725623736192e-18
000510 a4 91 a5 d0 b4 f1 55 3c ac 77 0a 11 be 48 37 3c
       4.758382331464528e-18 1.2622363107873732e-18
000520 2b e3 94 fe eb fe 56 3c 1a 1b 19 47 46 16 55 bc
       4.986416767704559e-18 -4.5725163787712424e-18
000530 76 4a 2c 2b d4 7a 52 3c 70 34 1a 65 66 5d f5 bb
       4.007167847670377e-18 -7.238690601470469e-20
000540 02 40 79 c1 d3 73 77 bc 51 42 c7 e9 ec 78 58 3c
       -2.0341757693570626e-17 5.306598261613616e-18
000550 2e 9d 76 09 4b bb 7c 3c 04 24 ef 78 ab 04 85 3c
       2.4920702414199577e-17 3.646083688643432e-17
000560 c9 00 d0 4b 10 9d 14 3c be ad 8b ed ae ea 7a bc
       2.793654238796186e-19 -2.3346543177974573e-17
000570 19 3f c6 8c 77 97 80 3c 30 5f 55 c5 28 d2 41 bc
       2.8781955875416544e-17 -1.9321496023738127e-18
000580 c3 d2 84 f0 7e 3d 5e 3c 1b 6a ff 0e 94 f0 71 3c
       6.557302052357425e-18 1.5560260714221093e-17
000590 67 c8 34 d5 dc 3d 75 3c f3 d7 0f 32 96 ed 5e bc
       1.842419523514402e-17 -6.706456798814576e-18
0005a0 39 5b 8b 0a a4 9f 70 3c c0 36 f0 ec 57 3f 34 bc
       1.4418671829326202e-17 -1.0976156717071042e-18
0005b0 5a 04 c9 46 73 04 52 3c e9 99 36 5a 66 51 51 3c
       3.9068973706961674e-18 3.755235710847628e-18
0005c0 61 37 a1 2d ee 8d 60 3c a3 9a cd 0e 2d 7f 6f bc
       7.179333326420667e-18 -1.3659551475095588e-17
0005d0 39 59 c2 db 66 1d 48 bc d9 3c 1c ac 79 f1 25 bc
       -2.6145373567057346e-18 -5.94773330577177e-19
0005e0 a3 53 1d b5 48 f2 58 bc 19 18 31 3a 9a 6c 80 bc
       -5.4093929700331674e-18 -2.8491494445003693e-17
0005f0 ff 65 8f b3 57 2d 8c bc 6d 3e f2 ea 4f fc 3b 3c
       -4.887951062527186e-17 1.5171021149531695e-18
000600 02 ba 83 f0 8c ad 34 bc b9 b9 cc 10 9d 4f 73 bc
       -1.120952929884458e-18 -1.6749614179335353e-17
000610 54 12 34 ce 86 9f 71 3c 8d 1c 46 9f c6 6c 50 3c
       1.528564663595607e-17 3.5615836958687824e-18
000620 3d f2 12 07 e7 8a 3a bc 49 df 71 7b 4e 0f 62 3c
       -1.438876562490284e-18 7.832185981989128e-18
000630 08 03 24 0e e0 ea 76 bc 29 9b 34 5c dd e3 54 bc
       -1.9877746420745863e-17 -4.5298175883583e-18
000640 83 40 d5 d8 19 dc 6f 3c 81 14 12 c5 0b 13 71 3c
       1.3816972476736742e-17 1.4809679821894534e-17
000650 8f 4a 45 10 19 49 7a 3c 1f 84 e3 2a 4a 07 71 bc
       2.2799070521715637e-17 -1.476984806746686e-17
000660 0f bf 68 77 87 d6 30 3c 50 7f 86 32 8a 8f 52 bc
       9.127900558810256e-19 -4.024710789128543e-18
000670 b6 3e 94 c0 ea f5 71 3c 76 bf 0e f0 88 47 78 bc
       1.5578348754430656e-17 -2.1059051424442324e-17
000680 91 28 14 c6 84 f7 47 3c 01 ac a5 fc 58 03 6c bc
       2.5984932214381615e-18 -1.2148735395448323e-17
000690 f6 48 70 ef a4 68 50 bc d5 ed 1e fd 3a b4 5d bc
       -3.55808410362144e-18 -6.441033708333688e-18
0006a0 d2 b7 53 e1 d6 6f 6e 3c 50 bb e1 a9 fc 82 76 bc
       1.3199889341892243e-17 -1.95257593432283e-17
0006b0 de c4 0a a2 83 9e 60 bc bb e0 67 e7 f0 55 6b bc
       -7.207427389210786e-18 -1.185497323235181e-17
0006c0 9f 42 92 73 71 b1 75 bc ba 41 a2 a7 88 a4 3a bc
       -1.8815797341857688e-17 -1.44430421328596e-18
0006d0 76 41 0d ce 7b 9f 89 3c 5c ed 11 8d 2b 4f 50 bc
       4.4448789896473367e-17 -3.536506653139442e-18
0006e0 28 35 e0 59 8a 84 46 3c 99 44 f8 6b 5b 83 24 bc
       2.4413778366447745e-18 -5.56009061906527e-19
0006f0 69 d4 f2 34 09 a8 5d 3c 5c c6 4c da fc 0d 7d bc
       6.430704598400716e-18 -2.5200882592991142e-17
000700 a1 10 d1 bf b3 52 43 3c 20 08 40 16 f5 9a 61 bc
       2.0950098488052905e-18 -7.635082769808583e-18
000710 f1 77 bf 4c ca 5d 14 3c 74 ff 54 8e 97 0b 76 3c
       2.7601575674470487e-19 1.9121233512177114e-17
000720 cf 01 ac 2d 1d 75 8a bc 07 64 1e 40 e7 f8 70 bc
       -4.5896405559999505e-17 -1.4721105065894528e-17
000730 dd f2 d7 62 74 0d 51 bc 45 3c f7 1c 7a 80 70 bc
       -3.697683904092181e-18 -1.431308483085923e-17
000740 81 4f 0f 45 df 41 69 bc 4a 95 15 60 31 95 60 bc
       -1.0953613483365066e-17 -7.19163646071031e-18
000750 65 40 8c 9b 15 0b 72 3c 03 60 c8 7c e1 d0 71 3c
       1.5650066707792028e-17 1.5452865259238795e-17
000760 83 ca 82 fa 75 5f 72 3c 44 ab c4 27 9d a9 29 3c
       1.5935945236964713e-17 6.955849267413269e-19
000770 3e cc 08 5d a7 74 4a 3c ce 28 70 cb a5 87 61 bc
       2.8683304389481557e-18 -7.602370805820877e-18
000780 4c b5 7a 5f 78 b4 5e 3c b0 7c ff e5 6a ca e2 bb
       6.658077246154228e-18 -3.183267323068232e-20
000790 a9 34 1c 19 fb 7e 53 bc 7d 5e 50 e6 b2 9a 72 3c
       -4.227525220675413e-18 1.613665129663618e-17
0007a0 68 50 56 b2 ee f4 3a 3c 95 61 c6 72 54 49 55 3c
       1.4613292792379123e-18 4.6157619457056565e-18
0007b0 fe ef 53 ac 54 47 40 bc 0d 60 6e f9 a3 81 8d bc
       -1.7649332255900714e-18 -5.1185459169545674e-17
0007c0 02 bc 74 64 1c a4 53 3c 4e 04 27 db f0 a4 80 3c
       4.2589756013865165e-18 2.8873258249359e-17
0007d0 40 38 dc f6 c7 d2 5c bc d0 be 9c 05 09 0d 8d bc
       -6.2500707112035545e-18 -5.03953110381551e-17
0007e0 bb 23 76 a0 c3 ac 81 bc f9 1f 5d f5 4c 43 7d 3c
       -3.066099462537841e-17 2.5381513768162272e-17
0007f0 d9 30 83 c9 22 7a 35 3c ca 51 d8 3d 2f a2 80 bc
       1.1642755612637513e-18 -2.885458078953468e-17
