4_layer_final/bias3.npy (npy, 1152 bytes, 1 tensors)

array f8 [1, 128]
00000000: 0c6b 20ca 0df9 43bc eace f8bf f019 1a3c
00000010: fca9 eafb 0c1f 22bc 97ca b8e3 1a1d 20bc
00000020: 1c09 f6b3 e762 623c 14ec ad89 fd19 053c
00000030: 258a 8425 6932 513c cced cbfc 0843 15bc
00000040: 72c5 6b61 60eb 613c 0ca0 e7a7 7bf6 643c
00000050: 4ea9 7b39 f815 453c 68b0 4aeb 0558 443c
00000060: 63c8 107f 3b99 6e3c 21f7 afbc 8918 543c
00000070: ce63 cc2a d6eb 51bc 0a4e 80ab 2580 6abc
00000080: f186 c0f2 0513 61bc 7293 3ed8 d306 4bbc
00000090: 5097 8331 ca06 583c 29ee d9c4 9040 573c
000000a0: 88f3 1473 da60 303c 6940 81a0 39f3 663c
000000b0: 9e82 b744 81ec 61bc 2008 4776 d02f 4cbc
000000c0: b491 b716 34a4 49bc 2d31 fb70 54af 16bc
000000d0: 0b32 622f cd20 4dbc 8e0e 84a1 3fa2 56bc
000000e0: fda2 7c32 5bf2 233c c446 9063 93de 113c
000000f0: 3ef8 b91f b4c4 40bc dbbe b6de 1aef 45bc
00000100: 2e94 06af 8a0c 19bc d47d 0967 a2af 66bc
00000110: 1b88 3c55 f2be 373c dc80 8258 7c08 533c
00000120: 644c 6017 df8f 4b3c 3e12 35e6 66a3 20bc
00000130: fb3a f934 2ab5 0ebc 0bd8 cefc dbd4 4e3c
00000140: 9b17 8b0b 1ac2 2dbc 17ef c137 0217 66bc
00000150: 19db 369b 3526 55bc b54d f8d9 97a3 1cbc
00000160: f7f9 6486 08b9 703c 8050 d2e8 4361 063c
00000170: 8c13 d352 b806 71bc f9b8 637b 7b3f 48bc
00000180: 9a2e 5092 fd5a c8bb 5b6c 12dd c940 5f3c
00000190: 5722 0008 bdef 6abc bef9 15c5 6cb4 18bc
000001a0: fa9a 7421 d080 353c 8a59 d6cb 8605 1bbc
000001b0: bdae 2b55 0141 643c c665 7bb3 d349 38bc
000001c0: 601d 3aa8 7df0 62bc 73e9 c423 8311 62bc
000001d0: 1694 0fdc 6863 40bc 9994 45ad 4979 30bc
000001e0: 2ab1 5900 60ed 323c b9c1 22d3 8e1a 09bc
000001f0: dffc b98c 9239 473c 3913 3752 9c9c c5bb
00000200: f268 476b cad0 43bc e0e6 e801 1227 79bc
00000210: 3a39 1b92 6428 51bc 4a6a ada8 e23b 683c
00000220: 5b63 f45c 4df5 563c 11bf 1a15 c85a 01bc
00000230: 6f01 2d03 051a 14bc 0079 1bbb c898 07bc
00000240: a80c 076e ecd2 5abc 7e7c ac57 8653 1e3c
00000250: 4921 8bff b647 18bc 8d25 db6d c536 40bc
00000260: d0c7 b3bf 3b12 53bc 26bd 3ad3 4fb3 56bc
00000270: 5fc6 9789 1e89 2d3c 669a 1629 6cc8 1e3c
00000280: 5579 ad0d 2c1b 703c 5dc4 356d c88b 2c3c
00000290: 78fc 3d2f 50eb 3cbc c4e8 a924 a4e6 21bc
000002a0: 940e c3c7 f53d 5e3c c67b 4a1a e423 f63b
000002b0: 4e38 be0e c79f 3c3c c178 2f19 34cf 25bc
000002c0: 611d bf34 ec98 583c 2435 bf0a cfab 43bc
000002d0: ee01 b403 8109 5a3c 6360 2f75 d861 fe3b
000002e0: 1dcb e73b 4a7c 4c3c 4c8b 5716 39cd 473c
000002f0: 1e87 143f 266b febb 70e5 dfc9 006d 633c
00000300: 27c1 aacd e7a2 4b3c 26e8 9fcb 4a04 1c3c
00000310: 6917 6448 f2ff ff3b b9fd 49c4 009a 65bc
00000320: 26eb feba 7f61 1bbc f8d7 f445 e9b0 5f3c
00000330: 1925 ad42 0e8a 68bc 557d 8dc9 3e59 1fbc
00000340: 0f75 60b8 3203 26bc 61f8 0299 a6f6 5c3c
00000350: 393b b53e e2e9 58bc 9799 7805 3481 563c
00000360: e01c f5da 2e76 6abc 2ec5 c25e 96a1 3bbc
00000370: 5739 73b1 e1ad 0e3c a8ac f23b 2ae4 39bc
00000380: 1a8a 5b4f 1c18 2cbc 3021 35e0 76e1 64bc
00000390: 79bc 3a8f 6c6c 47bc e436 9129 2235 603c
000003a0: 3b0e d932 973e 36bc 5aea fb75 f844 50bc
000003b0: 3941 b3ef d240 393c 7512 79ef 341e 41bc
000003c0: f469 09dd 409c 76bc 628b 8635 f74b 363c
000003d0: 774e c6dd 7786 423c 132e 128b c72a 553c
000003e0: edee 1595 b2d6 553c 99a7 adc9 1f77 413c
000003f0: fac9 58dc 05bf 063c 7f5e 259b f19a 6abc
-2.1654625425642986e-18 3.537389809482987e-19 -4.911786003660714e-19 -4.367624846804387e-19 7.97380738121427e-18 1.4298949482389702e-19 3.728986934576035e-18 -2.881518793127624e-19
7.771318051094741e-18 9.091175875892892e-18 2.2861290612250735e-18 2.205683586993647e-18 1.3270011865502676e-17 4.357593214378829e-18 -3.886048748816149e-18 -1.1492792307009539e-17
-7.404801387115249e-18 -2.9302374322180452e-18 5.209921627502697e-18 5.042019102333721e-18 8.878712259455266e-19 9.953018473551493e-18 -7.773229750686214e-18 -3.056016228704931e-18
-2.780048306477924e-18 -3.0743748235247323e-19 -3.158078277624362e-18 -4.907919433449175e-18 5.40656496868853e-19 2.421760231106537e-19 -1.8180306948555873e-18 -2.3780894520628216e-18
-3.3947713272792727e-19 -9.838515338931308e-18 1.287267016474977e-18 4.1271559445688556e-18 2.988277795057673e-18 -4.509817234257159e-19 -2.0808330154300409e-19 3.342755948707073e-18
-8.065978960201244e-19 -9.57995730963494e-18 -4.586013744822202e-18 -3.8813131066291547e-19 1.4504705015930703e-17 1.5165238901162305e-19 -1.476791783818749e-17 -2.62897103562063e-18
-1.0314926544955357e-20 6.776931488535085e-18 -1.168183524653168e-17 -3.3481226548347646e-19 1.165689497089846e-18 -3.662108062188579e-19 8.78374048208131e-18 -1.316676073316935e-18
-8.213662985756555e-18 -7.83592257199605e-18 -1.7768250825432395e-18 -8.930454286989397e-19 1.0260480678326492e-18 -1.7010957145343477e-19 2.5180478818760598e-18 -9.152936499060086e-21
-2.1484104284783108e-18 -2.1816418916231118e-17 -3.720501464966118e-18 1.0509790646393021e-17 4.978268604052766e-18 -1.1759944903008215e-19 -2.7242800820182337e-19 -1.5989822388160573e-19
-5.81651049641886e-18 4.109975794687775e-19 -3.2905720359333996e-19 -1.7579199846420495e-18 -4.135412540813794e-18 -4.922372575644943e-18 8.005646442761804e-19 4.1718609359014096e-19
1.3969850408386192e-17 7.737416126979672e-19 -1.567712554227467e-18 -4.852060085835447e-19 6.557695263558417e-18 7.50139131345523e-20 1.5517172577123156e-18 -5.911446654502881e-19
5.333700976144402e-18 -2.1327479669365413e-18 5.6459014665081385e-18 1.0293892858480312e-19 3.088404935549689e-18 2.5805803167816493e-18 -1.030620641721039e-19 8.424594911727237e-18
2.9963390209733592e-18 3.7969798593474343e-19 1.0841950808475689e-19 -9.368189470585006e-18 -3.7107978449502006e-19 6.871903104623326e-18 -1.0642216317074817e-17 -4.2485294671969893e-19
-5.966498096143252e-19 6.280453496498728e-18 -5.402277686395484e-18 4.879928933411663e-18 -1.147591243178467e-17 -1.4978903922630267e-18 2.0789051533837576e-19 -1.4035685288883667e-18
-7.614943283192705e-19 -9.055568860275731e-18 -2.539584372479255e-18 7.028905463930867e-18 -1.2058764689873321e-18 -3.527867280442596e-18 1.3689797252047488e-18 -1.855936761775467e-18
-1.9611365255112144e-17 1.2087087440567997e-18 2.00851342011072e-18 4.589884741442139e-18 4.735505054634889e-18 1.8935947421006827e-18 1.5413413260594047e-19 -1.1538187556253982e-17
