4_layer_final/biases.npz (npz, 8962 bytes, 5 tensors)

b1 f8 [1, 512]
000000 d2 0f 77 02 c7 1f 70 bc 2f 6b 5d 48 c7 1d 3f bc
       -1.3985453763786274e-17 -1.6868191989856805e-18
000010 6e 29 68 5d 00 03 21 bc 5e 20 21 19 8b 57 62 bc
       -4.611037115685168e-19 -7.954559849138808e-18
000020 0d 92 de f5 f3 c5 5b 3c 28 6e f2 fc c3 77 74 bc
       6.022364419373944e-18 -1.775301632322534e-17
000030 41 56 80 e9 c2 f6 65 bc 6b 61 b1 7a fb 04 81 3c
       -9.525328279105589e-18 2.9524060746745655e-17
000040 6e 2f 91 5a b2 4d 36 bc 44 04 c2 45 82 5e 50 bc
       -1.2090753047559145e-18 -3.549499084513482e-18
000050 da 4e 66 0f 29 b2 81 bc d4 a8 b0 84 ea fe 3a bc
       -3.069756086174504e-17 -1.4634434053899008e-18
000060 c2 43 21 8b a0 24 3a 3c 81 a3 3a 38 22 5b 92 bc
       1.4172189192075354e-18 -6.368513667927676e-17
000070 2a 1c ec 73 94 97 50 bc 76 c8 61 a3 fe d2 55 3c
       -3.5978401161723176e-18 4.732368570527281e-18
000080 fc 2b 4f 2b e6 13 4f bc b0 56 3b ac 75 28 3c 3c
       -3.3694543306653186e-18 1.5264507075948507e-18
000090 17 0c bf 6f b9 ab 7b bc 26 d1 83 c0 9d 35 6b 3c
       -2.4000591693369174e-17 1.180021287049556e-17
0000a0 f2 6b 9b 45 c2 db 8d 3c 00 13 11 e4 df b1 81 bc
       5.179612486136676e-17 -3.069562408731267e-17
0000b0 da c4 88 40 3f 18 9d 3c b1 75 74 95 b8 d0 47 bc
       1.0094257079600116e-16 -2.5820617915263157e-18
0000c0 f1 01 0d ae 2e 5a 6d 3c ab 67 72 32 91 63 5a 3c
       1.2729520032911056e-17 5.722187975468907e-18
0000d0 a9 1c 81 2e 82 29 68 bc 21 31 ac d9 55 2a 68 bc
       -1.0478659027481857e-17 -1.0480059732952208e-17
0000e0 b6 92 03 3b 78 20 9b 3c ee 29 fa 48 5f f3 61 bc
       9.411511352264655e-17 -7.784863328949026e-18
0000f0 98 14 f3 80 2d 9a 3e bc e3 a1 b1 fc af 87 4b 3c
       -1.658951666983525e-18 2.9848117358608232e-18
000100 18 6e 3d 93 a7 93 7b bc 8c 4b b0 f5 d9 a9 70 3c
       -2.3919040137396744e-17 1.445326675305079e-17
000110 4a d7 cf 64 53 50 88 bc 0f df 9c 96 a8 ae 3e bc
       -4.217767192509702e-17 -1.6632886449328622e-18
000120 da 81 76 23 27 e3 62 bc 25 38 c0 da f7 85 95 3c
       -8.191067596995168e-18 7.46739934105232e-17
000130 c6 5c 15 4c e1 77 41 bc 13 88 dd 83 52 75 2d 3c
       -1.8939148765403887e-18 7.984685593506746e-19
000140 74 f7 21 64 bd aa 87 bc 27 36 69 a9 5e 9d 89 3c
       -4.1055617897553795e-17 4.443446595713918e-17
000150 ef 3f b7 8a 94 f6 46 3c 48 54 8e 45 4a ac 82 3c
       2.489675573871676e-18 3.239250585861407e-17
000160 49 d6 56 d9 bb b0 71 3c c2 f7 00 4c 5d c9 82 bc
       1.5343946901236307e-17 -3.258952109487711e-17
000170 c7 d0 30 cf a3 1f 85 bc 42 39 da 21 cc 5b 52 bc
       -3.664359316352188e-17 -3.980883236060283e-18
000180 41 06 34 ea 64 61 92 bc ee f1 55 e0 ce 25 23 3c
       -6.37699826573149e-17 5.189991213486661e-19
000190 7f 4b bf 50 55 ae 7a bc e2 b4 8c 18 5a 02 73 3c
       -2.314206925915532e-17 1.6487841694626163e-17
0001a0 1d 0d cc ef da f3 87 bc a2 85 a1 45 af e9 0f 3c
       -4.1551067203318526e-17 2.162497522658763e-19
0001b0 37 84 34 91 01 c3 97 3c d6 22 b5 d7 df 01 80 3c
       8.244010565764541e-17 2.776827694369737e-17
0001c0 59 7f 7b a5 d3 6f 56 bc e9 b9 80 82 cc e8 81 bc
       -4.865210495328486e-18 -3.1067805570425505e-17
0001d0 fb 02 ed c8 0d 4f 62 bc 7e 4a 67 41 73 67 59 bc
       -7.940178068156405e-18 -5.508636604396661e-18
0001e0 51 9e 11 81 20 2d 77 bc 07 86 f8 1b 3e cf 91 bc
       -2.0102216093414384e-17 -6.178925934141315e-17
0001f0 89 da eb fc 69 d4 70 bc e2 b7 74 4b d7 7b 8a bc
       -1.4597474486240106e-17 -4.5941989600069966e-17
000200 7d 6e 06 cd 51 c3 45 3c bf 9f 49 af 23 c0 47 bc
       2.3595456027798933e-18 -2.5750391950654767e-18
000210 2c fe ae 58 0d 8a 77 3c a1 b4 04 e1 73 8d 40 3c
       2.0417058799017962e-17 1.7946310044463285e-18
000220 29 69 19 d2 c7 60 72 bc 2b b6 46 aa bb 23 3e bc
       -1.594041654048449e-17 -1.6338700299834105e-18
000230 5a d6 f4 4e e8 b7 68 bc ef 8b b5 42 09 00 78 bc
       -1.0719892202747809e-17 -2.0816804274512967e-17
000240 e6 e9 b0 8b f8 f8 48 bc 96 16 e2 9e 08 3e 6f 3c
       -2.7075284837409454e-18 1.3549196070872343e-17
000250 c7 8d e1 23 17 d0 20 bc c3 e8 67 ff a7 55 7e 3c
       -4.557132961688523e-19 2.6311066772490624e-17
000260 cd ac 86 82 29 f1 7b bc 55 33 02 ef c1 14 6a 3c
       -2.4235856065361753e-17 1.1310867256832595e-17
000270 2c fd ae 72 8e 7e 3b 3c 90 9e e4 ac 9a 25 31 bc
       1.4904723009034616e-18 -9.295348458366706e-19
000280 fa c7 71 cc a4 4e 81 3c 80 bc 12 5e df 8b 49 3c
       3.0023209833608546e-17 2.7697437515348674e-18
000290 21 2f 16 25 ec ee 74 3c 64 5e 69 2b 6a 61 72 3c
       1.8156735476882374e-17 1.594256520997176e-17
0002a0 a1 66 df b9 73 95 86 3c 22 2e 5b c2 27 a9 70 3c
       3.9176642988053645e-17 1.445090828883922e-17
0002b0 4b 5a c7 70 69 3a 7a bc a7 c8 8c 9f 9d 26 76 3c
       -2.2749312325413825e-17 1.9212793369964664e-17
0002c0 80 73 4f 99 76 26 72 bc ab a5 29 af e3 9b 82 3c
       -1.574282993473006e-17 3.228137017354449e-17
0002d0 3c 20 73 49 3e 7f 6f 3c 69 e9 b4 2d 79 2d 87 3c
       1.3659665487637193e-17 4.020677937777054e-17
0002e0 4f 4f 1f 64 c0 69 84 3c b3 d6 1d 76 d9 39 80 bc
       3.5411069745316864e-17 -2.814757879471622e-17
0002f0 18 e2 48 a6 f5 ae 4c 3c 3b 31 13 17 a2 27 6e bc
       3.1098643424603745e-18 -1.307756726225975e-17
000300 ef 7b 15 0d 4d bd 75 bc de 26 e8 41 39 57 7b bc
       -1.885597316881832e-17 -2.3714292187353967e-17
000310 85 3d 29 e9 30 f0 45 bc e1 87 46 35 f9 d5 8e 3c
       -2.378549431997141e-18 5.3491644905105075e-17
000320 3d b0 88 c5 1b 7e 6e 3c 63 aa 2a b2 8e c5 82 bc
       1.3224062149679099e-17 -3.256372362315986e-17
000330 92 b5 b0 99 a4 30 60 3c 6e bd 1a 4c fa 50 58 bc
       7.02129830060769e-18 -5.272761227950319e-18
000340 02 1b c6 d3 04 87 5c 3c 52 43 f3 ac 1c b6 5f 3c
       6.18589758580081e-18 6.876308345368554e-18
000350 5d c1 7e aa af 4b 6f 3c 65 21 92 6e d5 3d 6f 3c
       1.3572324340961996e-17 1.354885733233783e-17
000360 0c e3 7f e4 d2 1a 66 3c 43 be 7d f6 f4 68 92 3c
       9.586420401133893e-18 6.387247618502407e-17
000370 d9 53 d5 fe 66 0f 32 3c 5f 8e c0 a7 67 35 6a 3c
       9.79043524622474e-19 1.1366174019374969e-17
000380 6c 37 fd 5a e3 20 34 3c 94 0e a5 e2 a2 0d 80 bc
       1.091166500064314e-18 -2.784797858095711e-17
000390 2d 79 52 fc 09 57 54 3c b3 0b 04 09 4b f4 25 3c
       4.4105335960426954e-18 5.950716792849329e-19
0003a0 dd 9b 06 38 08 8c 5a 3c e0 88 ff 36 5b e9 80 bc
       5.756463103436524e-18 -2.933685946593345e-17
0003b0 f4 c0 3a a2 2b 4e 71 3c 6f dd d3 20 2c 60 82 bc
       1.501000131267656e-17 -3.187671193567034e-17
0003c0 03 97 f9 b4 9a fd 50 3c 31 b9 ba 85 e6 cc 4d 3c
       3.684258169912827e-18 3.2309650281155925e-18
0003d0 da 5a d1 d9 65 04 74 3c 2d 76 08 1b e9 cf 94 bc
       1.7362135271709966e-17 -7.22066526679773e-17
0003e0 02 2c 89 28 ef 4c 71 bc ad f6 dc ed 6c 0e 84 bc
       -1.5005812796083747e-17 -3.479222054029773e-17
0003f0 99 1b 76 a3 bb 3a 3b 3c 30 dc fe e9 c1 1a 69 bc
       1.4761101215373015e-18 -1.088735065362118e-17
000400 ca 1e 0f 01 79 a8 68 3c 90 ec 88 34 22 15 9a 3c
       1.069374466434739e-17 9.049203463003868e-17
000410 b3 af 7a f4 8b fa 70 bc 3e 06 da 37 48 56 71 3c
       -1.4726673044031722e-17 1.503748467918703e-17
000420 9d 33 0c b1 30 6c 75 3c 20 29 35 20 7b e7 6c 3c
       1.8581159158830396e-17 1.2535208331740354e-17
000430 42 1f 36 ab 13 90 15 bc f7 68 1c 77 58 ec 25 3c
       -2.9223043421412243e-19 5.942302008800054e-19
000440 16 b9 ec e4 fd a3 7f bc 77 66 e8 1c f5 06 60 3c
       -2.7443839621499485e-17 6.950680320524349e-18
000450 8f 0e d6 05 f2 92 85 3c 6c 18 3e e6 e4 35 74 3c
       3.7424933768014346e-17 1.7529835202721947e-17
000460 f9 79 5f 2d e7 c5 82 3c 27 80 9b d5 1d a5 4e 3c
       3.2566065702996876e-17 3.322536092486146e-18
000470 52 90 06 0a 4a 5b 70 3c a4 4b 1e fe b6 2f 4c bc
       1.4187087700773707e-17 -3.055974093164151e-18
000480 c5 f6 23 bd 52 df 60 3c 18 04 ac 6e 9a f6 71 bc
       7.317218118031404e-18 -1.5580673860535487e-17
000490 cc aa 78 04 f8 67 70 3c 86 93 23 33 7f af 70 3c
       1.4230047865917534e-17 1.4472394345719946e-17
0004a0 39 55 31 44 bd fb 81 3c 64 6b 79 4e 62 e1 6c bc
       3.1196151088997683e-17 -1.2524879696215305e-17
0004b0 cc 11 a1 8a d0 65 31 bc 76 57 00 e6 71 43 14 bc
       -9.43131930033293e-19 -2.7462104723390655e-19
0004c0 1e 33 60 63 4f 1d 67 3c 93 35 46 04 ac 50 87 bc
       1.0024313244758229e-17 -4.0445294277748414e-17
0004d0 6a e2 7c 7d 67 95 80 3c 0e 91 2b e7 d5 1e 88 bc
       2.8767978251192505e-17 -4.184231329627617e-17
0004e0 47 d9 fe 42 a4 8e 69 3c 8a 96 bd 41 ac 50 78 3c
       1.1083666074632095e-17 2.1090012054597046e-17
0004f0 6d 5c 2b d4 c0 9f 39 3c d1 68 1e 47 35 ae 57 bc
       1.3890817794940872e-18 -5.134890007734206e-18
000500 99 3e 12 0c f4 b0 4c bc d0 af b8 3e 25 81 83 3c
       -3.1107087244654556e-18 3.3834869912215174e-17
000510 35 3f 1b 13 08 57 92 3c e1 d6 55 43 ba dd 78 3c
       6.362954246533445e-17 2.1567924007751382e-17
000520 ee 85 8f f3 aa 15 87 bc 43 71 ad f4 05 1d 46 3c
       -4.0045466528717224e-17 2.3975366102007678e-18
000530 22 7f 5a c0 68 55 63 bc c5 8a 75 3f ed 9b 89 3c
       -8.384625298414207e-18 4.44246876533033e-17
000540 90 da e1 05 36 68 7f 3c b3 f1 9c c9 7c 0b 3d bc
       2.724129457185229e-17 -1.5745257125518287e-18
000550 2a 1e ad 39 0a cc 45 3c 49 8f 39 58 8f a2 85 3c
       2.363238839175724e-18 3.7530741995872484e-17
000560 e0 4f 30 bf df 5f 68 bc 73 ea b2 38 b5 22 50 bc
       -1.0570757748164502e-17 -3.498845683739725e-18
000570 7f c5 ad 7c f3 2a 99 bc 7c 23 3e 07 c2 27 77 bc
       -8.731827003525213e-17 -2.0084025056566628e-17
000580 e0 ed 37 2d 4f 6f 83 bc 42 88 55 e9 6b 3c 93 3c
       -3.3714007088790257e-17 6.673835650168065e-17
000590 44 86 2d 8f f3 ad 6d bc f2 19 f1 2f 5c 63 81 bc
       -1.2871430340752802e-17 -3.016358936262064e-17
0005a0 05 47 4c 7c be b7 8a bc 35 32 2f c1 62 3c 81 3c
       -4.63479087204093e-17 2.989948891948339e-17
0005b0 c1 29 dc c6 3b 70 69 3c e6 c2 b1 11 f6 fe 46 3c
       1.1032152674699965e-17 2.4932250509780337e-18
0005c0 bf 8d 82 64 b8 5a 7d 3c 32 9c f3 ea b8 6d 67 3c
       2.5460862678642544e-17 1.0160536852586323e-17
0005d0 39 e7 6d e4 0c ae 76 3c 05 44 47 20 e5 1c 65 bc
       1.9671663795229987e-17 -9.156248323183285e-18
0005e0 c3 61 09 a8 b0 ba 82 3c bf 1d e3 98 32 d8 93 bc
       3.2490083648889e-17 -6.884951654711598e-17
0005f0 91 20 49 59 67 47 66 3c 4d b4 51 02 fc 55 2d 3c
       9.661941701187334e-18 7.951505286205502e-19
000600 c2 bb 32 45 71 15 3b bc c0 0d ff 83 ed 55 63 3c
       -1.468213550829105e-18 8.385503858388941e-18
000610 86 3b b2 33 05 78 17 3c 3f f5 97 85 1b 1a 3c 3c
       3.1806194742963003e-19 1.5234115211775552e-18
000620 4d 1a ac 37 b1 fa 30 3c b1 52 1f 7b e2 01 60 bc
       9.204478880470459e-19 -6.942086694987528e-18
000630 f1 57 fa 5e f0 17 82 3c c7 23 0f 79 56 55 1e 3c
       3.1387239197466867e-17 4.1109355938831677e-19
000640 03 29 57 e9 a9 73 5f bc fb 6d ab 4f 48 16 66 bc
       -6.820024448293341e-18 -9.578727082996563e-18
000650 72 45 09 e4 3a f5 95 bc 74 86 21 7a 47 cc 76 bc
       -7.618187279548074e-17 -1.977408311190278e-17
000660 57 9c 5f 4f ab 5d 72 3c 90 59 31 b8 f9 54 51 3c
       1.592987480983851e-17 3.758264406545971e-18
000670 3e f8 77 ce a3 19 73 bc d3 26 e8 8d 81 37 64 bc
       -1.656674427772071e-17 -8.767648322680064e-18
000680 ed d3 a9 7a 08 f4 51 bc 11 a2 1c fe 52 09 58 bc
       -3.892991480747523e-18 -5.212068324015284e-18
000690 4a 36 34 d2 84 5a 23 bc af aa 34 55 89 d0 2e 3c
       -5.245800861104566e-19 8.352312855219802e-19
0006a0 56 5a aa da 1f 50 96 3c 69 d2 84 86 34 70 71 3c
       7.741372146075366e-17 1.5125315474903233e-17
0006b0 22 eb 60 2c 05 93 6e 3c ed 66 5b a3 b9 24 33 3c
       1.3259487990702928e-17 1.037768916634902e-18
0006c0 ee ce 68 96 ee cd 49 3c 30 4d e2 51 0e 0e 84 bc
       2.7977210182769164e-18 -3.47897162531492e-17
0006d0 8f 2c 08 9d 1f 32 6a 3c dd 13 c7 8c ce f6 73 bc
       1.1360615088546838e-17 -1.7316087107210633e-17
0006e0 c2 20 55 3c fc 8d 4f bc 9d 38 87 ad 60 b9 5d bc
       -3.4211598464050626e-18 -6.445393575812708e-18
0006f0 d2 2c 83 10 2a 8c 14 3c 49 67 c0 31 84 46 72 3c
       2.784707801448957e-19 1.5851430086572375e-17
000700 1d a0 ba 25 a6 1b 80 3c 24 51 d1 da 26 89 7e 3c
       2.794293261673747e-17 2.6485540433166964e-17
000710 ae 8b 30 26 1d f1 42 3c 69 a6 98 c1 5d 67 60 3c
       2.0536796038882874e-18 7.114003117764138e-18
000720 4d a0 e2 8f 68 31 87 3c e9 9d a8 b6 7a 30 90 bc
       4.023344459725586e-17 -5.616816893389741e-17
000730 c3 ff 45 00 d1 d6 31 bc 48 ee f2 29 a6 a1 3e 3c
       -9.670609909223199e-19 1.6605337823812886e-18
000740 2b 71 11 ff 27 d0 8f 3c ac 4b 09 61 c8 7c 51 bc
       5.518694927434346e-17 -3.791982470565214e-18
000750 7c b0 30 75 a2 fe 33 bc 0e 59 f1 70 68 c8 80 bc
       -1.0839130379330467e-18 -2.9113592866322575e-17
000760 d4 23 a2 84 f4 99 7e bc d4 b5 a3 4e 16 92 6b 3c
       -2.6542472473467102e-17 1.1956864700012768e-17
000770 10 76 2f 96 73 e6 5d 3c 80 cf f6 04 a7 68 75 3c
       6.483572622466927e-18 1.856917268704915e-17
000780 27 45 1b 6d c9 95 63 bc fc cd 27 db 34 44 81 bc
       -8.493685255934141e-18 -2.995248410359758e-17
000790 be d8 c4 1b 2a a4 75 3c b9 96 9d f8 2f d5 8d bc
       1.877080741214708e-17 -5.1751594731338596e-17
0007a0 2f 4c 5e cb 38 82 47 3c ef f6 0f 1a ec 60 4d 3c
       2.5488160967539543e-18 3.185234479349359e-18
0007b0 ea 83 ed dc 6c 03 75 3c a3 05 29 5a e2 03 63 bc
       1.822620168292127e-17 -8.246516581708494e-18
0007c0 3c 09 4f 0d 47 47 6d 3c 8a 71 33 5e 04 8a 92 3c
       1.269749406195262e-17 6.43205251212395e-17
0007d0 c9 52 b2 8e 3f ad 7b bc f4 bb e2 b4 9e 8e 47 bc
       -2.400575490048438e-17 -2.5540668939915944e-18
0007e0 da 23 0d 5c 4e 45 78 3c a7 3d 28 ea 6f 3c 61 3c
       2.105149988551047e-17 7.474959315777408e-18
0007f0 ac 54 ef ee 69 36 75 3c d4 3b 8d c4 6e 3e 7a bc
       1.8398957630436564e-17 -2.2762935357980075e-17

b2 f8 [1, 256]
000000 64 47 b7 33 a6 7f 1c 3c 87 a8 2e f7 44 db 4b 3c
       3.8622845415997657e-19 3.0202100673764247e-18
000010 4c cd 8c 93 c7 db 70 bc 45 08 27 90 e0 52 62 bc
       -1.4622430040836196e-17 -7.946655079157044e-18
000020 41 cf 46 d0 18 a2 61 bc 6f b8 9e db fd 4b 4c bc
       -7.647177650313356e-18 -3.067949791132397e-18
000030 2e f5 ab bc 7c 23 7b 3c 5f 0d 9b 39 c2 15 59 3c
       2.3539002418736588e-17 5.439441191011074e-18
000040 4e aa 91 9f fa 22 60 bc 7e bc 00 2d 2e a7 1a 3c
       -6.998150630307727e-18 3.612161613748339e-19
000050 51 e0 7e 45 eb 7c 70 3c f2 43 cf a4 08 e4 2d 3c
       1.4301029941594633e-17 8.101905890355071e-19
000060 c8 59 3d ce fe 99 63 bc 2c 42 36 c3 12 40 7d bc
       -8.500814754924389e-18 -2.5370579156398348e-17
000070 8a 0c 73 62 bf 46 70 3c 9f 03 c2 8b ac 6a 75 3c
       1.411748998671283e-17 1.857602209375046e-17
000080 1e ee bc a9 55 31 63 3c 54 11 80 39 3e d8 72 3c
       8.32351261016197e-18 1.6345171286080628e-17
000090 52 e9 ed 5e 8d 9d 10 3c 86 8f 01 fd 14 74 32 bc
       2.2518118009193753e-19 -1.0003632718263675e-18
0000a0 1c f6 10 99 ea ed 39 3c f1 67 ec 33 8b a1 57 bc
       1.4056334725787807e-18 -5.124162881456847e-18
0000b0 30 88 ea 0e 73 04 66 bc 02 8d 1b fe 37 09 11 bc
       -9.548516773187219e-18 -2.308809966859239e-19
0000c0 25 eb 71 b0 af d3 57 3c e2 b9 13 51 8c 1e 5e bc
       5.1666352522308656e-18 -6.531088292370062e-18
0000d0 77 b8 ba 46 7e 9d 7e bc 9f 85 11 3d 07 b1 24 bc
       -2.6554460083265812e-17 -5.608446839942918e-19
0000e0 52 9d 64 94 f5 c4 41 bc 6f 90 ee cf 3d 83 68 3c
       -1.926559199523881e-18 1.063067252709381e-17
0000f0 e4 59 b4 39 2c ab 25 bc d4 d3 29 7a b5 ea 3e 3c
       -5.87329761002569e-19 1.6760048005647027e-18
000100 70 50 e2 e6 94 3e 5a bc d1 08 5f 67 81 14 7a bc
       -5.690860014683295e-18 -2.262088046843039e-17
000110 f7 d6 52 28 ae d7 51 3c 71 78 71 c7 b5 7f 3d bc
       3.868975708986946e-18 -1.5991368103060556e-18
000120 48 af 22 3f 8c 86 60 bc f2 ab db 58 37 d1 1f bc
       -7.16682680807153e-18 -4.312041552240603e-19
000130 4b db d8 7d 0d 02 59 3c 8a b7 be b4 eb cd 2f bc
       5.4227495682494785e-18 -8.620593886809096e-19
000140 be b5 b2 bb 1d a9 60 3c 11 2d 7f 87 16 38 1c bc
       7.22538779786309e-18 -3.82440034632114e-19
000150 e1 f8 47 86 83 cb 2d 3c e6 f6 bf 8a 05 89 19 bc
       8.075944333615751e-19 -3.46067044569596e-19
000160 02 46 b3 aa 79 d6 2a 3c 31 49 39 0a 37 7a 0e 3c
       7.274398636628773e-19 2.0652291144849946e-19
000170 32 8d ec b0 ba b3 63 3c 4d 21 0d 5e c9 47 47 bc
       8.544409724137323e-18 -2.5240678007426464e-18
000180 19 5d 89 65 24 b2 59 bc 6d d6 79 45 d2 c7 7b 3c
       -5.571903153376492e-18 2.4095788070380796e-17
000190 22 bd 33 d7 db a8 4b 3c b1 90 9d 52 33 3e 58 bc
       2.9988603290995275e-18 -5.256856283285318e-18
0001a0 a5 ee c4 7b bf 9a 75 3c 00 5a 62 17 21 00 22 bc
       1.8738903055938187e-17 -4.879046638777738e-19
0001b0 18 3f 1d 52 3c 49 56 3c 22 41 61 33 53 4a 65 bc
       4.832522548734525e-18 -9.233209701137898e-18
0001c0 1d 79 f5 f0 04 e0 2c bc ff 65 07 95 e0 2b 5f bc
       -7.826604869142638e-19 -6.7592189661242984e-18
0001d0 b3 dd 22 12 72 24 62 bc cf e3 ca 01 cd 33 fc 3b
       -7.867996871626252e-18 9.555326808592353e-20
0001e0 fd 76 13 24 89 12 05 3c f9 44 91 44 56 fe 71 bc
       1.4279217121053721e-19 -1.5606876765590632e-17
0001f0 92 19 0f ca ec 50 32 3c cd 43 8d c6 9a e9 22 bc
       9.92918481694392e-19 -5.126248258921841e-19
000200 10 e6 a6 d5 43 5e 2c bc 05 77 73 62 b9 fd 69 3c
       -7.689222135939499e-19 1.1271847168371902e-17
000210 fc b4 8b 7b a4 c8 65 3c 54 4a 05 10 3b d2 6c bc
       9.447199882325905e-18 -1.2499209013058075e-17
000220 73 22 b6 5c 07 20 1b 3c 3a 93 aa db f8 93 6d 3c
       3.6761382156616183e-19 1.2827419691900922e-17
000230 37 82 b2 de 6c 90 3b bc 32 99 7a b1 59 cc 77 3c
       -1.494256174036525e-18 2.0641685939329146e-17
000240 a3 32 b8 54 5d e8 66 bc b4 8a a3 3c 07 fd 6c bc
       -9.934620017722506e-18 -1.257171089273978e-17
000250 4f a5 75 83 5b 00 81 bc 32 cb 97 8a ba 61 7b bc
       -2.949272143414874e-17 -2.3749884563811805e-17
000260 87 f1 54 53 ce cf 08 3c d5 66 d1 4b b6 90 36 bc
       1.6813090380860035e-19 -1.2232663676877853e-18
000270 3f 85 73 3d 9b 5a 42 3c eb 01 e8 83 e9 f6 51 3c
       1.989937216209651e-18 3.895430128654874e-18
000280 53 39 8a c0 3c 46 3f 3c 6e 77 e6 43 99 94 66 3c
       1.695386696896326e-18 9.792715094510056e-18
000290 0e a2 70 36 3d 2e 2f bc df a6 8d f5 31 50 64 bc
       -8.451524400841806e-19 -8.80947325364959e-18
0002a0 e9 d9 57 19 f5 23 35 bc e5 eb ca b3 7a 76 69 bc
       -1.1460265605365252e-18 -1.1042733476216294e-17
0002b0 51 bf 97 6b fb a2 59 3c 96 7a 06 1c 4d a4 e8 bb
       5.559062079821591e-18 -4.1744835665057885e-20
0002c0 1f 2d 9a b0 ed b2 42 3c e8 7a 67 bd 97 c5 56 bc
       2.027343067655189e-18 -4.937857114627455e-18
0002d0 5c 26 9c 93 4b db 14 3c 52 d5 e3 72 82 2f 50 3c
       2.8265993546178108e-19 3.509689119311201e-18
0002e0 0d 34 58 36 d1 a0 70 3c dc 87 75 78 b0 c5 2b bc
       1.4422657795572673e-17 -7.527676392599364e-19
0002f0 57 cc 4d eb e5 38 61 3c 83 92 cd b7 6a 92 50 bc
       7.468963940339343e-18 -3.593466862430778e-18
000300 f2 9b 7e 02 e9 4f 3c 3c a4 d7 b7 7a bb 10 5e 3c
       1.5348046833310843e-18 6.519385879261994e-18
000310 80 77 c6 2b f8 e5 3e bc 56 e4 40 d5 70 ed 79 3c
       -1.6750011771959752e-18 2.2488524016311587e-17
000320 f5 41 69 d1 ba ed 31 bc ed 84 75 75 32 4b 49 3c
       -9.719130809753911e-19 2.742352643858434e-18
000330 a3 72 9a 8a 69 98 43 3c 80 19 e4 3a 30 86 57 bc
       2.12453323534533e-18 -5.100991988191524e-18
000340 e7 12 e4 a7 d1 92 6b 3c 32 a4 db d5 16 74 25 3c
       1.1958104469304286e-17 5.814975627830068e-19
000350 85 55 c0 00 19 f5 3e 3c 51 ee 94 09 fe 12 17 3c
       1.6782047086904935e-18 3.1271357036422596e-19
000360 00 72 c2 64 81 ef 64 bc 15 23 7d 68 fd 48 20 3c
       -9.079355383637119e-18 4.414089726777661e-19
000370 1a d6 9d b8 15 9f 16 3c e3 4e 8d c6 5a 5b 44 3c
       3.065774791771292e-19 2.2070945196934684e-18
000380 3a 57 eb 85 42 9f 76 3c 3c 36 34 a6 2d b6 69 3c
       1.9621551616390993e-17 1.1150643798947606e-17
000390 83 a2 9b a0 d0 95 61 bc d5 06 5f c3 be 46 2e 3c
       -7.626371171340663e-18 8.206420654499898e-19
0003a0 dd 75 45 1e c2 d2 65 bc 0c 32 6d 91 78 66 61 bc
       -9.464336653531258e-18 -7.546167346717436e-18
0003b0 38 0b f6 ea ef f0 1d 3c a3 d8 48 f6 6a fb 5d bc
       4.05778395576482e-19 -6.501331777909752e-18
0003c0 1d 5e b0 91 55 74 38 bc 87 25 a7 41 d9 0f 6a bc
       -1.3256773435513883e-18 -1.1302551264898379e-17
0003d0 5d 53 d4 50 9c 0c 3e 3c af c5 84 a6 fd e4 6c bc
       1.6289736589194456e-18 -1.2530989873751412e-17
0003e0 4c ca 68 02 2d bb 0e bc b3 7d 61 1f 3e 27 2d 3c
       -2.082424099906184e-19 7.902015539673005e-19
0003f0 d2 05 b7 20 e1 5a 63 bc 91 58 75 f2 d8 c5 69 3c
       -8.39389221215939e-18 1.1177188341574027e-17
000400 71 bd 8c a0 20 3c 48 3c 7a 2f 8f 0f e8 0a 4f 3c
       2.627550179470586e-18 3.365645811795297e-18
000410 51 83 17 23 68 e8 24 3c 27 e5 6a c0 f4 9b 33 3c
       5.66708111798917e-19 1.0630170443714619e-18
000420 7a da dd 6a a9 a9 33 3c e8 a7 81 66 e8 60 62 bc
       1.0659193447109011e-18 -7.970423864715457e-18
000430 33 11 25 d0 cd 4a 2c 3c 04 c2 c8 1f ae 95 60 bc
       7.668616977907927e-19 -7.192461979204267e-18
000440 90 f9 32 58 58 36 51 3c 8f 49 30 16 f4 aa 4a bc
       3.732319473124981e-18 -2.8913272565084645e-18
000450 44 83 16 84 68 4f 50 bc 90 f7 f4 9b b0 c4 57 3c
       -3.536708369118143e-18 5.1539328019421216e-18
000460 06 31 32 9d b5 66 32 3c 7b 17 7a fa 1a cf 01 bc
       9.975315230106766e-19 -1.2067851470794954e-19
000470 e0 6e ab 08 d2 0c 70 bc ea 59 c0 2c ac fd 07 3c
       -1.3921225164351788e-17 1.6256871899212566e-19
000480 dd 11 08 1e b6 04 1a 3c f0 f0 e9 17 3b 4f 39 bc
       3.526151252717444e-19 -1.3720304972410544e-18
000490 77 6e 9c 51 62 a5 43 3c 88 d6 1a 5b 3e 8d 54 3c
       2.1300270006701163e-18 4.456446653799194e-18
0004a0 9b 71 58 31 16 e4 54 bc 3d fe 7a 18 da d8 42 3c
       -4.530005631585329e-18 2.0434042777255932e-18
0004b0 42 38 8a 50 a2 4c 6b 3c 3b 95 7a 74 72 38 09 bc
       1.183920657880813e-17 -1.7090073147771262e-19
0004c0 cd 17 89 ac f2 72 60 bc ef 50 84 0b 69 70 26 3c
       -7.133623297485757e-18 6.082131017172374e-19
0004d0 7d c7 d0 b8 e6 dd e2 bb 2b 84 d6 8e 16 13 64 3c
       -3.1961605446402224e-20 8.705953907942085e-18
0004e0 e3 63 bf 76 0d ca 20 bc 38 92 97 cd aa d9 1d 3c
       -4.550740194334781e-19 4.045464931251208e-19
0004f0 ec 74 27 0b 37 cf 79 bc 1a 73 8d 3c ec 7f 2c bc
       -2.238611522563059e-17 -7.72485873917697e-19
000500 e1 e0 6e 2b 48 93 4b 3c 6d ce d6 9e 54 f5 4f bc
       2.989722182022213e-18 -3.4649282635601677e-18
000510 a4 ac e9 75 68 73 81 3c d1 05 b4 0c 2f e0 70 3c
       3.027233445205504e-17 1.4637352025115708e-17
000520 4f 43 78 50 25 2d 5b 3c 2c 4e 56 0e 58 4b 53 3c
       5.892931676826317e-18 4.183787079367674e-18
000530 e5 2b b3 9e 1d 46 06 3c 32 bb 49 4e 29 c1 51 3c
       1.5093374591697066e-19 3.849901414740101e-18
000540 8a 3b e1 91 11 44 61 bc 65 7d a8 3b cd a5 77 bc
       -7.487887521196151e-18 -2.051107795558505e-17
000550 67 ad 1b 27 c8 9c 7e 3c 36 53 8e a0 6f f0 5c bc
       2.65520496985411e-17 -6.27518941658894e-18
000560 a5 f6 93 bc 41 c1 7d bc 3e fc d8 dc f8 e4 64 bc
       -2.5808269854034257e-17 -9.061511238943931e-18
000570 1c ef a0 cd f7 99 6e bc 54 f8 5e 72 56 eb 54 3c
       -1.3271257975952256e-17 4.536147460887724e-18
000580 d1 9d a7 57 33 e3 3b bc fe 79 f4 58 64 51 5e bc
       -1.5117845220511313e-18 -6.574154725601899e-18
000590 e3 c6 1b 1a f8 cc 31 3c 76 9b 5b 25 2a 4c 5a 3c
       9.64975752075686e-19 5.7023652500976356e-18
0005a0 8b a3 ed 0b 8c 1f 63 3c 92 42 91 c7 45 da 24 3c
       8.293379304244386e-18 5.652115942051244e-19
0005b0 ff 79 2d e5 6b 5b 27 3c cc 53 0d 10 82 ee 39 bc
       6.330958733734053e-19 -1.4057587613151462e-18
0005c0 ee 3d 4f 67 94 43 47 bc e8 24 4f 18 c2 8f 07 3c
       -2.5222861135332412e-18 1.596593097260786e-19
0005d0 57 c9 52 ef ac 2e 4c bc 4f 6e 6e 79 54 f8 53 3c
       -3.0555339374681042e-18 4.330311928513482e-18
0005e0 3d 9e a2 22 8c a3 58 3c 3e a2 d6 42 93 9b 61 bc
       5.342700467125719e-18 -7.63612947868311e-18
0005f0 ce 3d 4c 8c 21 b2 44 bc c9 fc 0e 74 a4 29 7e bc
       -2.2438457778504692e-18 -2.6161942065015282e-17
000600 e0 f8 3f dd cd b9 42 3c 2d 10 f7 8b 55 aa 28 bc
       2.0302550319399884e-18 -6.685561349222896e-19
000610 e7 de 67 4e 63 76 49 3c 21 b9 7f 5a cf fb 20 bc
       2.7606446635483015e-18 -4.603422871165932e-19
000620 f8 ce 16 40 25 d0 7b 3c 3b 3b 4c 0d f1 98 35 3c
       2.412399134205369e-17 1.170798926600509e-18
000630 37 26 84 0c e6 c6 54 3c 37 f4 50 b1 93 f7 28 bc
       4.505282381430116e-18 -6.767345299826159e-19
000640 57 7b ac 0c cb 71 4c bc a1 95 79 5e 76 03 3b 3c
       -3.083959361710212e-18 1.4644061201431461e-18
000650 d8 a5 04 fe 4e f7 14 3c be 3d 12 3f a4 a6 40 3c
       2.841429494607911e-19 1.8052989334282613e-18
000660 1b 02 4d 8a 00 c4 69 3c 8d 19 a7 e2 9c c7 21 bc
       1.1174062215170965e-17 -4.819207541343095e-19
000670 d8 16 78 cc a9 55 63 bc 1a 49 24 40 ec 81 5b bc
       -8.385055745513555e-18 -5.9647406691283436e-18
000680 d2 ed 93 28 56 cf 1c bc 54 39 8d 46 95 fa 48 3c
       -3.904470662867232e-19 2.70821128812393e-18
000690 c8 9f 6c fe 9d 5d 4f bc 6e 21 6a 15 5c b0 55 bc
       -3.4006751456433173e-18 -4.703031602398159e-18
0006a0 1d 4e 38 71 8f 85 55 bc a6 ad d2 e9 97 cf 57 bc
       -4.6667791170677726e-18 -5.163168452695897e-18
0006b0 8d 6d d8 59 ae d7 00 3c b9 df 7c e2 fb 3a 4a bc
       1.141292473295151e-19 -2.8439063122432177e-18
0006c0 95 fb b7 a2 59 b3 52 3c b6 ac a3 7e 23 d4 5c 3c
       4.055043297894085e-18 6.251220592797783e-18
0006d0 e2 54 29 3b 53 76 68 bc e7 d5 93 a4 74 fd 3e bc
       -1.060879140862727e-17 -1.6799745773716743e-18
0006e0 f8 61 18 91 7d 4d 26 bc 84 6f ce 00 60 2d 35 3c
       -6.045158201866455e-19 1.1480208137107793e-18
0006f0 28 4d 70 fb 91 15 6e bc 85 b1 0f 35 ab 6c 69 bc
       -1.3046967482658768e-17 -1.1026113796142467e-17
000700 76 5b b0 93 8b f8 17 3c 0f ec 0f 0c 8b 2d 70 bc
       3.2486599910045016e-19 -1.403209401160345e-17
000710 4a 83 ee 96 f5 8f 55 bc 63 0c 1b 01 60 fd 58 3c
       -4.675587423643168e-18 5.418787415231271e-18
000720 87 24 96 ca c0 06 54 3c 84 a9 7a 7c c6 39 41 bc
       4.342528780705061e-18 -1.867612500172323e-18
000730 c0 a9 d6 ae 92 10 5e 3c d1 1d ac b0 ee a0 2d 3c
       6.519250895281833e-18 8.030859539195137e-19
000740 02 55 60 cd 46 24 44 3c ac 53 63 32 45 59 5e bc
       2.1837680705205566e-18 -6.5808279203173016e-18
000750 6f db 6d df ea 57 4d 3c 56 16 3c 6b fb 87 23 bc
       3.181420797817108e-18 -5.293936973294335e-19
000760 c7 5a b0 82 9f d7 23 bc 70 89 20 cb b1 bd 5b 3c
       -5.378260143860533e-19 6.0153692276826716e-18
000770 b3 20 f6 f1 cd 9f 77 3c 82 05 10 77 34 cb 74 3c
       2.0490758589709267e-17 1.8035719882599532e-17
000780 63 d6 0d 83 46 55 67 bc 1f 30 61 0e fb c4 5a bc
       -1.011912219671076e-17 -5.804700429773967e-18
000790 0b 4e 22 2f b7 e8 68 bc 04 ef 69 67 33 f1 58 bc
       -1.0802576354189045e-17 -5.4084754496557496e-18
0007a0 cb 8e 71 72 27 d6 39 bc b0 c0 97 5c 07 4d 63 bc
       -1.4006016081160425e-18 -8.370428300348665e-18
0007b0 fa 41 bb 5c 07 9e 15 bc 64 ad 29 a8 2f 5f 2b bc
       -2.9296904310554244e-19 -7.419146931024146e-19
0007c0 30 f3 da 71 17 0c 52 bc d0 38 c7 4c e9 9b 64 bc
       -3.913369788476139e-18 -8.937741442864896e-18
0007d0 81 d8 a3 2f 3d e0 46 bc 70 9d f6 33 ec 27 41 3c
       -2.4802136934617514e-18 1.8600516007511543e-18
0007e0 ca 44 b6 5e d5 7d 41 bc 97 88 e7 5f 04 f3 40 bc
       -1.8964362434315703e-18 -1.8376452162809445e-18
0007f0 a2 26 f5 4c ae fe 24 3c 44 a3 e3 70 c8 7e 51 bc
       5.690664713631103e-19 -3.793676741353641e-18

b3 f8 [1, 128]
000000 9a ee 73 58 2e f7 50 bc a6 a3 e5 c6 0b bf 01 bc
       -3.6788174343845505e-18 -1.202534264377212e-19
000010 47 bd 94 c3 4d f9 3a bc b7 5c 24 66 c9 4f 74 3c
       -1.4622549500612395e-18 1.7617562664570087e-17
000020 4e c2 c6 c9 1c f9 39 3c 37 72 e4 de 34 b5 67 bc
       1.4080043296053314e-18 -1.0281635782540186e-17
000030 94 05 c1 85 75 cf 63 bc 92 72 07 52 82 27 2d 3c
       -8.591385849566105e-18 7.902297599348169e-19
000040 a7 5b 54 53 e3 d8 5b bc 06 49 cc 37 d0 37 6d 3c
       -6.038403005033699e-18 1.2671296695913329e-17
000050 3c 37 5c 88 6e 92 66 3c 78 ec 8b cc ed 7f 34 3c
       9.789044182238757e-18 1.1112921712916396e-18
000060 e6 87 0e 29 9b 50 4c 3c 35 f9 55 dd 5d 71 4a 3c
       3.069904092162576e-18 2.866938295925416e-18
000070 03 70 0d b7 a5 ae 58 bc 32 4f b1 ef cb 0d 2a 3c
       -5.352102465854941e-18 7.061921867313446e-19
000080 cd 4a 9e e7 ba 7d 56 bc e6 d8 47 72 5e f6 76 bc
       -4.876987093315483e-18 -1.9916688643655692e-17
000090 24 da 41 89 a9 f0 5e bc 73 56 c9 1a a5 fe 52 bc
       -6.709061890356325e-18 -4.118820474961773e-18
0000a0 49 53 2e 26 c5 57 3b 3c 8d 56 59 60 ad c2 5c bc
       1.482258977408215e-18 -6.2364302119513855e-18
0000b0 39 dc db 0d 69 19 4d 3c f5 56 a2 b8 f6 38 5a 3c
       3.1549480095378616e-18 5.686101474033936e-18
0000c0 e2 bc 05 76 42 bd 5b 3c 0b 33 2a ce 67 4b 2d bc
       6.015000859538441e-18 -7.940304418113114e-19
0000d0 fe 50 c9 07 51 6e 2b bc fb eb f3 51 40 b6 62 bc
       -7.435166828468654e-19 -8.115001269600557e-18
0000e0 a7 fa 12 49 ec 5f 5c 3c 99 8c 9f 8e 04 dd 3b bc
       6.15278209886732e-18 -1.5104752727542215e-18
0000f0 4f 51 53 14 91 cf 27 3c 90 97 ae e1 24 bb 65 bc
       6.453932301213309e-19 -9.424332632910734e-18
000100 68 f0 37 66 13 d3 60 3c 6d d8 76 00 1c 29 67 3c
       7.296470181388258e-18 1.0044301988999025e-17
000110 5b 71 31 3b 3a c4 4b 3c 2f 2b 54 c0 fd 2a 32 bc
       3.0104514300195148e-18 -9.848856993259176e-19
000120 c0 42 53 54 f0 f4 72 bc 49 15 ec 38 3c ea 23 bc
       -1.6442396173376253e-17 -5.397966530189531e-19
000130 98 2d 8e 60 05 e9 68 bc 63 fe 9f 2f ad be 61 bc
       -1.0803093792404006e-17 -7.695593341902597e-18
000140 5a 33 e9 e5 9e 81 21 3c d3 43 17 13 c0 66 6c bc
       4.74510048290363e-19 -1.2317130095986056e-17
000150 7d f1 04 dc 92 24 5e 3c 6e 36 f2 af 4e 87 5e bc
       6.5361921381748416e-18 -6.619822837194073e-18
000160 ee c9 e5 ca d8 ff 22 bc 15 b6 68 02 67 f4 48 3c
       -5.149798161171357e-19 2.705593648304402e-18
000170 4a a5 72 cd 98 6a 09 3c 6b 6e 12 fb 48 ed 48 3c
       1.7222818549999802e-19 2.7025793547378072e-18
000180 0e e5 1d 06 45 44 28 3c 0c cf d1 29 2b d3 40 bc
       6.577496311562825e-19 -1.8241568596974234e-18
000190 72 d0 05 bd 6f e2 77 3c 81 43 92 d1 22 f5 49 3c
       2.0716516603064225e-17 2.814324569857125e-18
0001a0 cc 44 ea 6f 21 df 63 3c 07 34 9e f5 16 c9 72 bc
       8.617934473984813e-18 -1.6293829639111358e-17
0001b0 5b ad 4e a5 1d 00 4f bc 8f 20 17 f3 9d 7e 61 3c
       -3.361075779454191e-18 7.587072298196906e-18
0001c0 b1 23 b0 6a 5c 38 47 bc 34 96 e1 87 09 3f f8 3b
       -2.5175348099278192e-18 8.214945372395028e-20
0001d0 b9 92 e8 28 32 92 37 3c 67 09 2c e9 3f df 37 bc
       1.277790692146196e-18 -1.2941074509657742e-18
0001e0 05 f2 d0 02 f0 a3 24 3c 0e a4 66 40 57 e0 18 bc
       5.5945864876637e-19 -3.3713715620820023e-19
0001f0 c3 84 4f 11 f5 e7 00 3c e9 ca 0e f4 19 e8 64 bc
       1.145600757345054e-19 -9.066812412278385e-18
000200 ac 00 a4 63 c5 4f 47 bc bc 1b eb 85 9c 13 55 3c
       -2.5274493512070643e-18 4.5702606419938315e-18
000210 63 80 15 f8 cb 47 39 bc 11 97 b9 63 f2 0c 60 3c
       -1.3704562696875983e-18 6.960826694137066e-18
000220 e6 0f 54 47 e5 66 5a bc 59 30 16 64 83 93 50 3c
       -5.725007276883204e-18 3.594395531430932e-18
000230 20 fe 77 e0 bb f7 73 3c 27 95 3c 1c 23 20 58 bc
       1.7319228102820578e-17 -5.231391652478475e-18
000240 13 45 af 5d ab 0c 69 bc bf cb e0 d5 0d c2 18 3c
       -1.0863484520358505e-17 3.35533787337461e-19
000250 27 9e fc 66 9e 8e 6f 3c 8a 4e 31 2c 61 d8 3f 3c
       1.3685712514280823e-17 1.7263335258176887e-18
000260 23 81 c5 02 fb 10 67 3c 3a 9b 7f 10 ac 84 31 3c
       1.0003426091490425e-17 9.496662622468367e-19
000270 02 ac 41 bf ed f1 48 bc dc ea 4c 43 57 a5 e3 3b
       -2.7045460036860662e-18 3.3281386097133484e-20
000280 53 40 fe d4 8b 8f 66 3c 1e cb fc 5e 1d 6b 17 bc
       9.784155871372703e-18 -3.1737873121405737e-19
000290 a7 73 7d 68 bb 13 f8 bb fa 42 ea 79 d2 3f 33 bc
       -8.15763146176349e-20 -1.0435069346380044e-18
0002a0 7c 13 9e 73 a6 44 5a 3c 5d 63 05 c8 4d 82 21 bc
       5.696000279585618e-18 -4.745823783042358e-19
0002b0 60 7e fc 60 a3 4c 5f 3c 45 ed a1 27 d7 8a 37 3c
       6.7869685486794295e-18 1.2762331069299028e-18
0002c0 ae 21 59 5b 69 ae 62 bc c9 ac 71 8f eb 8e 5b 3c
       -8.101720300549528e-18 5.9757498136784335e-18
0002d0 03 0f 88 7e 92 bf 4f 3c 84 78 d7 aa 31 60 1e bc
       3.4421607355972333e-18 -4.1166828333290597e-19
0002e0 74 21 f4 25 ae b1 5a 3c d7 49 d4 3e 3c 17 22 3c
       5.788352336834212e-18 4.903511142663404e-19
0002f0 44 31 58 01 dc c8 50 3c 5b a0 7f d0 16 6f 30 bc
       3.6395814777207985e-18 -8.908857739433057e-19
000300 a1 d6 82 de 2d b5 54 3c a5 5e 2d ef e4 70 48 3c
       4.490273421793706e-18 2.649897799017368e-18
000310 8b c9 de ca 7d 60 63 bc a9 74 cb 80 4d 60 70 bc
       -8.403399261448595e-18 -1.4204074204607226e-17
000320 91 a1 f3 08 9f 46 31 3c 41 fa 15 da cf 46 40 bc
       9.365264738314761e-19 -1.7647134912510768e-18
000330 c5 8e ad 45 20 63 70 bc 28 e8 45 fa 3a d8 3f 3c
       -1.4213639973666876e-17 1.7263019316557077e-18
000340 af aa 8b c4 a9 37 c4 bb 36 13 45 2d fd 5c 66 bc
       -8.562416438334149e-21 -9.698508563924571e-18
000350 f8 99 14 fe 64 d8 f8 bb 22 30 7c 0e b5 06 5b 3c
       -8.417912032336772e-20 5.86037299508439e-18
000360 1d 6a 60 a3 34 8a 68 bc e6 d6 21 73 6e b5 51 3c
       -1.0642470279624474e-17 3.8399657974218854e-18
000370 8b 1e 09 c5 d9 e6 47 3c 21 8d d8 0c 88 7b 5c bc
       2.591434055349618e-18 -6.1761673707137434e-18
000380 9f f7 a8 35 a7 0e 3b 3c d2 66 81 5d ed 36 54 bc
       1.4667758607180204e-18 -4.383333844844391e-18
000390 ec 52 76 d7 7c a2 72 3c 8c 1a 15 1d ab 93 75 bc
       1.616304089908216e-17 -1.8714916540424666e-17
0003a0 0f cb 60 08 9d 14 5d 3c f5 f0 41 0d cb 35 5e bc
       6.305832837070079e-18 -6.550777623125141e-18
0003b0 ac 98 65 1b b1 a6 63 3c 7f 5c 6a 15 f7 34 57 bc
       8.52232344531789e-18 -5.032193237924259e-18
0003c0 db 0c aa ca 2b e2 23 bc b4 02 ea 01 d9 22 56 3c
       -5.389428244954873e-19 4.800006696653773e-18
0003d0 4e a3 44 6d 95 95 60 3c 96 92 f9 65 9b 35 2e 3c
       7.192298545993792e-18 8.18827493886486e-19
0003e0 3e d6 52 6a 26 26 68 bc 1a 9e c1 40 4c d6 78 3c
       -1.0472969571158552e-17 2.154275111401944e-17
0003f0 c8 f9 87 7e e4 31 27 bc b9 a2 69 27 72 ca 2f bc
       -6.286988289930349e-19 -8.616914785639053e-19

b4 f8 [1, 64]
000000 08 b1 1b 31 4d 2d 34 bc 1d cf 3e 01 78 e2 70 3c
       -1.0937951447263372e-18 1.4645093843291418e-17
000010 d2 4a 01 2f cd 23 78 3c c0 0e 38 76 40 a5 60 3c
       2.0937981906850482e-17 7.218841348863656e-18
000020 0b df b7 0e 70 dc 49 bc c5 bb 47 ac 39 27 24 bc
       -2.8038644389833887e-18 -5.462542248417636e-19
000030 2f 00 3a b3 c5 a6 6e bc ba ca e6 d5 55 94 6e bc
       -1.3292949277857992e-17 -1.3261715834254841e-17
000040 3b 88 6c f0 2d f3 2b 3c 39 1d e2 ed 46 d1 1e 3c
       7.575840921901936e-19 4.1765485037685896e-19
000050 68 23 b2 90 a9 6f 31 3c 16 d5 52 b2 99 08 65 3c
       9.452172719600231e-19 9.12186785466016e-18
000060 b4 6c 1b 9f a4 2d 3d bc 2e 64 7e 10 2a a7 21 3c
       -1.581758442483907e-18 4.784851335201721e-19
000070 66 88 12 6a d5 db 31 bc 39 dc c3 4d aa 94 67 bc
       -9.681234326837148e-19 -1.0226508715067165e-17
000080 f1 86 b5 06 e7 46 2d bc 03 a5 ad 94 1b 45 64 bc
       -7.935536635403357e-19 -8.790690440861395e-18
000090 b5 c7 ce aa 93 42 20 3c 62 93 d0 76 08 2e 53 3c
       4.407299645388511e-19 4.158959776442853e-18
0000a0 98 f3 71 25 5b 35 75 3c e6 5b 57 72 71 d9 16 3c
       1.839537379341376e-17 3.0966694199707775e-19
0000b0 8b 0b 2b 72 96 a8 53 bc 2c c4 3e df 46 64 4f 3c
       -4.262767574539859e-18 3.4034956300417037e-18
0000c0 17 44 c3 6f 5e 65 72 3c d0 e4 3b 07 ad 5b 11 3c
       1.595596245212243e-17 2.352462429457179e-19
0000d0 54 21 40 a1 ce e2 12 bc 65 14 4a 37 1d 63 3e 3c
       -2.5595255924787544e-19 1.6472914910601662e-18
0000e0 5b 1f ad a6 74 21 72 bc a4 9a b5 58 86 71 22 bc
       -1.5725863497006392e-17 -4.999108824172356e-19
0000f0 32 d2 8e 2a 02 1b 76 bc bb d0 d8 24 e4 4d 60 3c
       -1.917346646401954e-17 7.070846707692632e-18
000100 94 c9 a4 53 3b 67 12 3c 16 df e3 87 29 e8 72 3c
       2.4941053188806667e-19 1.6399107514679776e-17
000110 e9 f0 c4 40 ab 33 69 bc 4b c7 4a 89 40 4e 4c bc
       -1.0929552342800145e-17 -3.0689071342501607e-18
000120 ec 0d 74 d8 e6 01 6a 3c 74 9f 64 76 dd 9e 5b 3c
       1.1278924267258485e-17 5.989255694943811e-18
000130 50 da ec f1 57 28 1b 3c 4e 33 ad 05 f7 0c 1c bc
       3.6805400218594176e-19 -3.801571180686844e-19
000140 6c 16 53 4b 39 ac 50 bc 82 65 f9 c2 4f a2 25 bc
       -3.615326189608147e-18 -5.863915463688025e-19
000150 dd b4 3c fd 0e af 40 bc 77 5b 24 1c c1 65 57 bc
       -1.8088636564253368e-18 -5.0735192682659874e-18
000160 01 7a 56 62 f3 9b 30 3c d8 62 0c d8 5f 65 51 bc
       9.003855873299242e-19 -3.7721548351160756e-18
000170 13 2f 69 36 14 b6 7a 3c 03 ff c8 bf fa 99 52 3c
       2.3168312684071923e-17 4.033553521255129e-18
000180 67 d0 2c 6c f4 cd 78 3c 90 70 52 d6 3c f5 26 3c
       2.1514483634100883e-17 6.222767405509813e-19
000190 54 c7 91 5c 88 77 57 bc 28 f8 a8 04 a5 c2 f9 3b
       -5.088578096841881e-18 8.727939458794847e-20
0001a0 99 bc 97 b8 0b f9 72 bc b2 9d eb a7 2c 09 52 3c
       -1.6456311226264385e-17 3.910898871580893e-18
0001b0 d2 f4 d2 a8 84 28 2d bc 07 65 17 12 f4 f8 38 bc
       -7.903366064586508e-19 -1.3537605402382535e-18
0001c0 0e 84 86 1a b3 1d 71 bc e2 36 27 7b 52 6b 57 3c
       -1.4845775784292464e-17 5.078235425748008e-18
0001d0 79 63 87 67 af a2 70 bc 3d 52 63 60 3e e9 27 3c
       -1.4428986615667088e-17 6.481118820901057e-19
0001e0 3f 7e f1 f2 e9 bf 37 3c 0c ce 4a 19 23 d2 13 bc
       1.2874718396646927e-18 -2.6862258165926156e-19
0001f0 50 52 10 93 44 3d 36 bc 99 f0 a8 05 cf 0d 56 bc
       -1.2055963656499606e-18 -4.782185965950487e-18

b5 f8 [1, 10]
000000 37 db 8b 54 99 92 a3 3f 3b 90 ae 40 d9 6d c2 bf
       0.038227836199374136 -0.14397731455130888
000010 9f 3b 27 37 f5 39 c1 3f ca b6 b3 b5 37 4e b7 bf
       0.13458123391179996 -0.0910372561081331
000020 b1 6c fb 41 09 51 d0 3f 1e 1b 69 30 5a 87 bc 3f
       0.25494605487410654 0.11144031221293146
000030 1c 35 4d a0 7b e2 97 bf ca ae 11 0f 13 a9 ba bf
       -0.023324901255638783 -0.10414237134835527
000040 3e 78 31 96 7d 84 9d 3f c6 de 20 c4 1c 4f ca bf
       0.028825723926608975 -0.2055393178613853
