4_layer_final/biases.npz (npz, 8962 bytes, 5 tensors)

b1 f8 [1, 512]
-1.356535625247506e-17 9.750452598496801e-18 8.79183497770773e-18 -1.8904245239385767e-17 -3.968712932863777e-17 1.9119005939478238e-17 -1.0245076391543216e-17 -3.018278612934017e-17
8.297306517862757e-18 1.554804501681558e-18 -7.650643104442035e-19 1.6781061703063395e-17 -3.507378811477167e-17 -2.679064367488208e-19 -2.2174303590132244e-18 5.494825270176533e-19
3.4970953531938564e-18 1.7299919366056213e-17 -2.226054151075582e-17 -2.3730419236513223e-17 1.3936505937190334e-17 1.4038649039836546e-17 -3.48373661533688e-17 -3.4199234923049626e-18
-7.013799540418083e-18 -2.3827358533023014e-17 -3.086549219354491e-17 -5.8671965524088186e-18 -5.1060823927333575e-18 8.84017939955636e-18 5.887705214375811e-19 -3.217272924131748e-17
-6.808554620480553e-18 1.8091242898360107e-17 -3.962169454429561e-18 8.180975870117099e-18 -1.3443059796768295e-17 -9.793434910297394e-18 1.7133287102923368e-18 -6.5157136525304594e-18
-2.1258863402913833e-17 4.5727180029581934e-17 2.156058594118851e-17 5.1587895002433185e-18 -3.835732506298093e-18 -2.288835201660621e-18 -1.0607699153340131e-17 -2.5030498757705057e-17
-3.328753711198904e-17 -8.01802058627689e-18 3.902002403325507e-18 1.4873880834954232e-17 2.134819431493961e-17 1.6309247775873145e-17 -3.6899482503223204e-18 1.9294702110678986e-17
-3.616944238570291e-18 2.520377533966652e-17 1.6047365318076216e-18 -1.2502217352768623e-17 2.7209630526459512e-17 3.622862697442555e-18 -2.925915453361571e-17 -1.831328975881181e-17
1.549285819566781e-17 1.1345954849237162e-17 2.2663981177104835e-18 -1.840789762869976e-19 1.3509693069472489e-17 -8.242365705305561e-18 -1.7206690576326445e-17 9.636368108432813e-18
1.121133917452417e-17 1.877207469830046e-17 -1.2765364413796799e-17 -3.809696031294012e-17 -5.6990971635452985e-18 5.71877489996951e-19 3.160980295843488e-18 -2.255420234314108e-17
-5.53465409980415e-18 1.830357536070458e-17 -3.392851032968141e-19 1.0830815609392493e-17 1.3915637129877202e-17 -1.0489235342975895e-17 -2.9339374281167665e-17 -7.47466486270574e-18
2.850063274073901e-17 1.046197767912451e-17 5.438279594781536e-18 4.725656847552102e-19 4.533208350280655e-18 -3.918790908861055e-18 -2.660216654736642e-17 1.7976417314324164e-18
2.4827129180260426e-18 -1.545424877577911e-18 -1.579869075052367e-17 6.626510785032579e-18 -3.980844633657663e-18 1.0995349118642585e-18 1.0728464163703776e-17 1.029987962923366e-18
-1.0108660364782015e-18 3.4143818694409495e-18 -1.0645768366933391e-17 6.132822412180792e-19 -8.846539367803629e-18 -1.0429240770512248e-17 -2.7033253671457392e-17 9.92382617173244e-19
-3.6323980089405775e-17 3.125137303275325e-17 -9.47075912503483e-18 -1.5249242609000152e-17 1.2352801265174323e-17 4.281490358851731e-18 9.694655589212351e-18 1.1866725546935637e-18
-2.1892027067304236e-17 -2.1436885816074652e-18 3.6511565183051083e-17 -1.421994667705135e-19 -2.4600736586318144e-17 1.148930209050898e-17 3.77530985775958e-18 4.5931946329932165e-17
-1.4869422406088065e-18 1.61333597439889e-17 1.5438183739576893e-17 3.7239685033806995e-17 1.480885261172512e-17 -6.077557834645674e-18 1.6311897342056086e-18 7.766724741986075e-18
-4.0426062467383775e-18 7.322839819616247e-18 -2.855796095493447e-17 2.870122877723724e-17 -6.330991404086122e-18 -1.6409755878123252e-17 3.175715177170574e-17 2.6027605332633235e-17
-1.0071024475081142e-17 -9.675833372495785e-18 1.5614269840741677e-17 -8.558060526800455e-19 2.0704103209395828e-17 1.0998657842400002e-17 2.7111397788285843e-17 2.652373194527908e-18
-3.434976384919247e-18 2.2725700122430875e-18 2.271197551577669e-17 1.7501101130502875e-17 8.801905410368269e-18 1.2899156622410627e-17 8.280768575810675e-18 -4.4392778820976024e-18
2.0904187991854974e-17 1.6465540197013187e-18 4.758383148058784e-18 1.2619244982395063e-18 4.985562208737219e-18 -4.5725195026953365e-18 4.007168996667148e-18 -7.405032408996867e-20
-2.0341766254658388e-17 5.307196281366573e-18 2.4922323719368402e-17 3.64607012746396e-17 2.7616963256032102e-19 -2.3344786371522508e-17 2.878311670654241e-17 -1.933681634108058e-18
6.557766911913641e-18 1.5560222434287548e-17 1.8424077999811837e-17 -6.705539140524885e-18 1.4419076669583605e-17 -1.0976163018481235e-18 3.906635088201379e-18 3.756112429917399e-18
7.178318893094755e-18 -1.3660246651082741e-17 -2.614537790051054e-18 -5.947719118915991e-19 -5.4087161649002575e-18 -2.8492406050449e-17 -4.8879996925481914e-17 1.517101526120384e-18
-1.1209527687535518e-18 -1.675047356572872e-17 1.528772052995301e-17 3.561582420851538e-18 -1.4388765737149301e-18 7.831159268869213e-18 -1.987749336654262e-17 -4.530812450706748e-18
1.3817501237583456e-17 1.4809457454669374e-17 2.2799176614345895e-17 -1.4770350879144932e-17 9.127894251773944e-19 -4.0247089038316566e-18 1.5579412192318298e-17 -2.1057645844668558e-17
2.598283633590931e-18 -1.2147811036400122e-17 -3.558083895618827e-18 -6.441780866434988e-18 1.3200204940280375e-17 -1.9526145559812018e-17 -7.207544668598545e-18 -1.1855163328482015e-17
-1.881417578211582e-17 -1.4443040830365486e-18 4.444641975707057e-17 -3.5357230342402094e-18 2.444426165880705e-18 -5.558564621051108e-19 6.430705434819368e-18 -2.5199507053108477e-17
2.095218401518714e-18 -7.634962241387677e-18 2.7626815496058304e-19 1.9120041905598243e-17 -4.589868658074974e-17 -1.4719903065857432e-17 -3.698561786244083e-18 -1.431292622076342e-17
-1.095327122090915e-17 -7.19131248781334e-18 1.5649139706133317e-17 1.5452523213901264e-17 1.5934325503637634e-17 6.955848369331646e-19 2.868330518294482e-18 -7.601491917155606e-18
6.658186113247536e-18 -3.1648449553441984e-20 -4.2254636581712735e-18 1.6136651756548536e-17 1.461329305611273e-18 4.615761659379415e-18 -1.764628985053522e-18 -5.1184723304114105e-17
4.258975551096358e-18 2.8873583596219545e-17 -6.250634724072614e-18 -5.039539521787769e-17 -3.066086726136858e-17 2.538016189378458e-17 1.1636908542217403e-18 -2.885294398094984e-17
00000000: 8ddf a0ad 9247 6fbc bdaa c6bc a67b 663c
00000010: 7e8d cd89 c845 643c 0439 b962 8ccb 75bc
00000020: 856f d05a c9e0 86bc ac42 cf3e ef0a 763c
00000030: a407 f52b a09f 67bc 2c65 ad6b 3166 81bc
00000040: a67c a582 dd21 633c e222 794e 5bae 3c3c
00000050: 5079 43ff d339 2cbc 44c3 5f2c e558 733c
00000060: 0660 5940 fa37 84bc 8769 d508 9cc4 13bc
00000070: 4cfb 3768 c273 44bc 489b 8a3a b745 243c
00000080: 2dae 6e37 a420 503c 2199 2ef3 08f2 733c
00000090: 085b 41f6 26aa 79bc 82a1 67c8 fb5b 7bbc
000000a0: 9c8b cd9d 5411 703c 418e bf54 7a2f 703c
000000b0: 4800 717b 1615 84bc 1158 cde7 108b 4fbc
000000c0: edd6 746b 372c 60bc d9bf 194f 9878 7bbc
000000d0: 7847 9553 f1ca 81bc 2658 a959 c30e 5bbc
000000e0: f0ac ddb5 328c 57bc b269 0924 5262 643c
000000f0: 3121 38c5 c7b8 253c 35d4 8958 db8b 82bc
00000100: 6eab 655e 1f66 5fbc e244 61aa 97db 743c
00000110: 5b26 213d b445 52bc 345d b01e 32dd 623c
00000120: 9e6a a7c2 61ff 6ebc 2dbd 6c0a 0695 66bc
00000130: 6c65 bb50 f79a 3f3c 06c6 ef9d 650c 5ebc
00000140: a9a9 d04d 8282 78bc ec75 c404 245c 8a3c
00000150: f033 7cd0 8fdb 783c 1f8a c974 6cca 573c
00000160: d58e 1804 6fb0 51bc b2c4 6efc 5b1c 45bc
00000170: 32e8 942c ae75 68bc c4c8 9d03 b3db 7cbc
00000180: 2f42 b098 5f30 83bc 6688 7c03 017d 62bc
00000190: 4a6e 07dd abfe 513c e498 44a9 fe25 713c
000001a0: 12a2 f3f4 df9c 783c 8284 c1eb a3cd 723c
000001b0: c770 9f6d 5204 51bc 1a93 0379 ca3e 763c
000001c0: aa9e cc51 22ae 50bc b681 286c d70e 7d3c
000001d0: 94a1 4e6d 279a 3d3c dcb9 86ab 01d4 6cbc
000001e0: c176 2b8e dd5e 7f3c 12f6 5f10 1fb5 503c
000001f0: 3d9a 019b e3dd 80bc 47df 4d0d 211d 75bc
00000200: 248d ad44 afdc 713c c25b 7e38 7829 6a3c
00000210: 97fe db99 61e7 443c 25ce 459e 4e2a 0bbc
00000220: e73f 8918 b726 6f3c 563e e816 6f01 63bc
00000230: a31d 20c8 84d6 73bc 0cc6 d5c6 4e38 663c
00000240: a737 d1ac 01da 693c bded a5dc 89a4 753c
00000250: 2f43 5f54 576f 6dbc cae8 c477 1ef6 85bc
00000260: ca7c 686d 4e48 5abc be74 37ed 3a19 253c
00000270: d4bc f358 a727 4d3c badf da58 d300 7abc
00000280: 72e1 9b8f 2a86 59bc cb5f 840d 431a 753c
00000290: 01ad 1a16 ea08 19bc 57df 6794 62f9 683c
000002a0: 12f7 5cd0 2b0b 703c 1a75 e46d c02f 68bc
000002b0: 6f79 cc38 bae9 80bc 9343 0e6b 433c 61bc
000002c0: 1175 5d76 f36d 803c 0cc9 185e a91f 683c
000002d0: fc56 7327 6314 593c 9be6 2cb7 416f 213c
000002e0: 93c3 b327 dee7 543c 94aa bae0 7d12 52bc
000002f0: 5ee4 f2df 92ab 7ebc ee2c 74c0 8f94 403c
00000300: bcd0 e8df 23e6 463c 6e54 6a09 1082 3cbc
00000310: 8271 a152 f336 72bc 8ac5 d8fe 338f 5e3c
00000320: dadd 2277 c05b 52bc ee49 ff24 6848 343c
00000330: 484c a2aa f7bc 683c 803a d20a fbff 323c
00000340: c63e 3a0d aea5 32bc a1e9 3233 fb7d 4f3c
00000350: 9f13 f307 278c 68bc 2ead e478 49a0 263c
00000360: dd25 643b 1366 64bc 2551 494e 560c 68bc
00000370: f338 a0e5 ce2a 7fbc 95bb 05f8 644e 323c
00000380: bec2 352b 79f0 84bc fbc6 0f7e e303 823c
00000390: c476 9aa7 8cd6 65bc efd4 e931 c894 71bc
000003a0: 86f4 9b8c ce7b 6c3c 1997 700f b1be 533c
000003b0: febd 87ee b65a 663c 997a 3e17 e7e3 353c
000003c0: dcf0 3ecc 623d 79bc d7c8 dd3c a4c5 43bc
000003d0: 6a27 eaee 270c 853c 47e3 f5da 24fc 04bc
000003e0: c276 401a db5c 7cbc 524a 4a3e 167e 6a3c
000003f0: ef11 1a64 1969 513c aa42 e8de 5b7a 8a3c
00000400: 6447 f0dd e26d 3bbc 7c1d 6d32 ba99 723c
00000410: 5744 e42e 8ccc 713c d373 0386 9b77 853c
00000420: bbb8 7f44 cd12 713c 7849 8925 1d07 5cbc
00000430: da3d e962 1317 3e3c 2db4 6142 aae8 613c
00000440: 2d71 7ec4 aaa4 52bc 6ecf 2f44 a4e2 603c
00000450: 83ec d442 6976 80bc 4210 30c4 8d8b 803c
00000460: 22d6 37be 5032 5dbc a8b5 3119 4eeb 72bc
00000470: e1b6 df45 874e 823c fcef bf41 fe01 7e3c
00000480: 999b 9230 e238 67bc 3b21 4a99 9a4f 66bc
00000490: ba3d 70df 8400 723c f7d9 3c11 dc92 2fbc
000004a0: d5a1 11cf c5de 773c 920e 4c2e 765c 693c
000004b0: d772 ac4c df41 7f3c 8d44 1438 bd76 483c
000004c0: 6b85 1cd2 9bae 4fbc ff84 4748 f4f5 443c
000004d0: 2cff d859 642f 7a3c ea20 74d0 692d 743c
000004e0: dffa cb56 ba4b 643c 8b29 bf6f 51be 6d3c
000004f0: ed6a 005e 1a18 633c b733 bc69 f978 54bc
00000500: b476 9fc9 d319 783c 4a69 f5aa a15f 3e3c
00000510: 70e2 d30f b5f1 553c 4740 bb1b 4547 373c
00000520: a7b3 48b8 e9fd 563c 1dcc cc38 4716 55bc
00000530: 3f84 1284 d47a 523c 63be 7394 15db f5bb
00000540: 0cb4 1167 d473 77bc 74cd 50a7 a179 583c
00000550: 98f3 108a c5bb 7c3c 8799 6059 a604 853c
00000560: a2f9 c765 b260 143c 4c7c f72f 2aea 7abc
00000570: d5e7 a467 a397 803c 11fb c2d3 c6d5 41bc
00000580: 99f0 486f 0b3e 5e3c 5f5d 8e2a 91f0 713c
00000590: 3189 8bf9 d33d 753c 06d1 b0d9 80ec 5ebc
000005a0: 8436 4ba1 c29f 703c 0321 f5af 583f 34bc
000005b0: 8ffc a801 2404 523c 04d6 1053 6f52 513c
000005c0: 692a a4e1 548d 603c 651d 1f1c 967f 6fbc
000005d0: dbec d01e 671d 48bc df88 fc3d 76f1 25bc
000005e0: c18f da27 7cf1 58bc 0edb b2aa bc6c 80bc
000005f0: 9466 c412 6a2d 8cbc af1a b634 4ffc 3b3c
00000600: f89e a5be 8cad 34bc 1a07 c0ff dd4f 73bc
00000610: 5cbc 2581 23a0 713c 0dcb 9f3c c66c 503c
00000620: 1c41 8c0a e78a 3abc d7a1 6754 b30e 623c
00000630: 674a 5cef ccea 76bc c78f f309 0ae5 54bc
00000640: f109 47c0 69dc 6f3c 0fea dcf7 fa12 713c
00000650: fc8c 6614 2149 7a3c a159 ae28 7007 71bc
00000660: ac41 37b4 86d6 303c 6558 a8a0 898f 52bc
00000670: 499b 751a 3bf6 713c 94d3 30bc 1e47 78bc
00000680: d425 ee15 06f7 473c 730f 3d4d cd02 6cbc
00000690: 695e 58df a468 50bc 25cc adcd 1cb5 5dbc
000006a0: 1dc4 7292 0670 6e3c 7b9f 65d8 1983 76bc
000006b0: 7191 115b 959e 60bc d7c3 64a1 0d56 6bbc
000006c0: 8956 0bee f6b0 75bc d0d5 527f 88a4 3abc
000006d0: 2c53 7843 229f 893c 838d 7eb7 3e4e 50bc
000006e0: 1f42 faf3 bc8b 463c 1589 4475 ea81 24bc
000006f0: d6ce a975 09a8 5d3c 7630 7deb 940d 7dbc
00000700: 6f33 c9cf 3153 433c ea5d 88df e29a 61bc
00000710: a1ee 9ad2 8e62 143c 8304 4f85 3d0b 763c
00000720: 65d7 595a 7375 8abc 877f 0e6e 8cf8 70bc
00000730: 0466 afb5 7d0e 51bc 1d15 0021 6e80 70bc
00000740: 2620 6c8c ab41 69bc af6a fd6a 0095 60bc
00000750: 515f ba90 cf0a 723c 96e6 a9a4 c7d0 713c
00000760: 3bd6 4f98 fb5e 723c 66ff 2df0 9ca9 293c
00000770: 9607 5069 a774 4a3c ad68 14fb 2087 61bc
00000780: 01a6 a946 99b4 5e3c 596d 1117 94ae e2bb
00000790: 8aed 6f07 8c7c 53bc aabe 35ef b29a 723c
000007a0: b6d3 7fba eef4 3a3c 0e1b 9f5c 5449 553c
000007b0: d499 62c5 9c46 40bc 0bd0 932c 8881 8dbc
000007c0: 9ca2 9060 1ca4 533c d5d3 b625 fda4 803c
000007d0: 4008 3e6d 72d3 5cbc bfa4 bf33 0c0d 8dbc
000007e0: f91f acd0 beac 81bc a971 4fd0 e642 7d3c
000007f0: a4a4 72eb 5f77 353c 468d 9a67 f1a1 80bc

b2 f8 [1, 256]
-5.142067293389289e-20 4.1295436630110316e-18 -3.264130488178828e-18 2.862662458988747e-18 -6.520307718573222e-18 5.87557648768913e-18 1.9405928360918283e-18 -8.107274153703516e-18
-1.4490100832312682e-17 5.340462356698953e-18 -5.1121343026120935e-19 1.8964312821633578e-18 -2.9345818187673388e-18 2.3768888173671114e-17 4.794502769154423e-18 -2.2491996582480647e-18
7.019000803268522e-18 1.598704927806271e-17 -7.057622609545651e-20 -2.453639330917789e-19 5.161321814359247e-18 5.247519196796545e-18 5.737301719254666e-19 4.670844557889469e-19
4.408367355047058e-18 1.2506006288822719e-18 -1.4307400879337116e-18 -3.1650302472991683e-18 7.180677087674013e-19 4.456719030228996e-18 -2.2642568296664676e-18 4.185889532932446e-18
2.105528913774797e-18 3.4889831210446226e-18 -3.2133205890911835e-18 -8.247581698306134e-18 2.4739066820108833e-18 -2.2878547931243894e-19 -2.432805829859199e-19 3.443670453120093e-19
-1.38736889178735e-18 9.130188014501395e-19 -5.895816776204833e-18 3.681583200810279e-18 2.6516552950160384e-18 6.073220933264073e-19 1.014480753597093e-17 1.0610576582542662e-19
2.463211618649597e-19 -1.3560217057879255e-17 1.3965581127508016e-18 -2.393229326657667e-18 4.7612941000838216e-18 6.605653612854998e-18 -2.818586059854375e-18 -5.4877530633122414e-18
8.153942284594732e-19 -8.648585676761188e-18 8.647198417657566e-19 2.139435513806309e-17 7.68403088604666e-19 -5.582487710492706e-18 -4.091009892680153e-18 1.3847299625405671e-17
-6.844057652513875e-19 -9.671440602955311e-18 1.153191245921223e-17 -5.40993646686505e-18 4.455318378494033e-18 -9.771254420493253e-18 -4.399649382118786e-18 -7.116059753051546e-19
-4.1935466948385784e-19 -9.059415072785173e-18 -2.4310737067245875e-17 8.808570703535081e-19 8.59354591383469e-19 -6.296407694685339e-18 -2.2818182163887935e-18 6.524622617032653e-18
2.888381781501329e-18 3.1772194013084556e-18 -2.0420857679867483e-18 5.557697882838493e-18 -1.2962196215842187e-17 -5.189383212908632e-18 -7.215447573413032e-18 3.6825123215771373e-19
1.1120224741941438e-17 -1.2032655520759354e-17 2.299488297177717e-18 -7.866230629235047e-18 -1.3369506055549337e-17 -8.725308626278067e-18 1.6546827608093468e-17 -1.4603493749752255e-19
-3.4261269946220264e-18 -1.6123950326708406e-17 1.5356361325230647e-18 -1.8264790029227084e-17 -2.2755612940575285e-19 -8.3421090547209155e-19 1.5070249473186347e-19 -3.723725799655416e-18
3.206580453402512e-18 -8.3676443624813155e-19 9.275321010117408e-18 4.567015638656252e-18 2.471267171467575e-18 2.5530769131746284e-18 -7.845391760561964e-19 -4.209387576069392e-18
-5.1831999432403956e-20 -2.0448147095404326e-18 -3.212394147491788e-18 -1.2109681160801867e-18 -1.5350153142417943e-19 -3.498822139388695e-19 7.796999712288219e-20 -6.829268767889352e-18
-6.084845689364425e-19 -3.012888280824209e-18 -4.835970985254524e-18 4.039661862069877e-18 -5.684461095490169e-20 -4.409550728984961e-18 1.279020605513634e-21 -9.673657355085714e-18
-3.5482685132503185e-18 2.7828291148505315e-18 -2.4113896315455953e-19 1.8588315500705029e-19 -6.049107299855449e-19 -4.496620632084724e-18 -1.2645032333130554e-19 -2.182002645942309e-18
7.85649220765461e-18 3.8100164734078247e-20 -8.027672062320952e-18 -9.756425357211472e-19 -1.9069270666031994e-18 -9.411723984765217e-18 -3.9980468756862445e-19 -1.3361191814803335e-17
1.2508217216416198e-17 -1.7624402404804946e-18 1.6375148786981915e-17 5.260647917683794e-19 2.8096880588748767e-18 6.72485029415237e-18 1.562095345009704e-18 7.80802190476499e-19
2.5626269171984405e-19 -3.2250170883479016e-18 1.0726021325871256e-18 4.8061272842774804e-18 1.809073480180002e-19 1.5216010082421569e-19 -5.3470875704422796e-18 2.7412977719812595e-18
-7.195975680839588e-18 -2.008991741429387e-17 -1.9050495153389812e-18 1.3813942251143417e-18 2.5627703528170465e-19 1.7711817312339354e-18 7.897101271685216e-20 -4.288908058356117e-19
5.525681004652529e-18 -5.704857155084592e-18 3.647744173653391e-18 -4.631304570411446e-19 -1.2162688216588553e-18 -1.8389884420297816e-18 2.2842100188976016e-18 -7.62287670053789e-18
-6.634158683722432e-19 -2.4020554608792486e-18 -9.475355835451488e-19 -2.3552904540970927e-18 8.797060879301599e-18 -1.0663078692274777e-17 1.9233266117084794e-18 2.519817268134789e-18
-4.5902563091091994e-20 9.663178039882373e-19 5.346659006443787e-18 7.969736964205842e-18 -8.963428410632563e-18 2.167050853716189e-18 -1.1507481402597466e-17 4.796411500469157e-18
-6.461522156598919e-18 -5.938042073491642e-20 1.6414798419010778e-18 3.107295002559116e-19 -5.136908959249987e-20 4.613686845046994e-19 -2.0095718263366608e-18 -2.8007291651939853e-19
-2.325678483381027e-18 2.325787473396446e-19 1.6297664455874616e-18 -5.20958546633923e-18 -5.413951260571675e-18 4.6912716723774335e-19 -2.2289316858881007e-19 -3.492181838116099e-18
6.029439681985368e-18 5.448843320091485e-18 1.5761329342619623e-18 -2.9548634952362994e-18 1.1218059769097006e-17 1.7770260276844494e-18 -4.158361586346077e-18 7.739392541872489e-18
-8.008635020642244e-18 2.2414624488130266e-19 -6.229769846063403e-18 5.173585479182976e-18 2.5892454420810263e-18 4.1897599480442174e-19 -3.1379889015706553e-18 5.40447417707635e-18
-3.2805252102523835e-18 1.3325837086455457e-17 1.6122190978906148e-18 1.6863182993642045e-18 -4.574741070178252e-18 2.651585091172521e-18 1.522223574660363e-18 -3.80785899548497e-18
1.5612198422565385e-18 -1.8770931120587544e-19 1.4595502898833426e-17 -5.9108366310098954e-18 1.1287058026474737e-19 2.5134504519663766e-18 -4.520021521203908e-18 5.251650464907923e-19
2.0418089002270286e-18 -6.151716964345401e-18 8.927050753302999e-18 1.3889158715624725e-18 -9.662689672764607e-19 3.2998384816561224e-18 2.7021581023713766e-19 -6.585714283357553e-18
-4.111447414291594e-19 -1.2310200896791848e-17 -8.545540404477978e-18 4.415395891166515e-18 2.5450023703413897e-19 1.163068945851014e-17 4.6057958046494955e-18 -6.681022135512704e-18
00000000: dd93 f9ee 785a eebb 76b2 46fd 4d0b 533c
00000010: 3d99 18d0 351b 4ebc 3c1f 9e47 4567 4a3c
00000020: 6888 9416 d211 5ebc fee7 bf07 a818 5b3c
00000030: 44f3 7764 18e6 413c 25aa a2a1 b0b1 62bc
00000040: bd68 6610 b9b4 70bc c576 3ab5 e7a0 583c
00000050: 556b f83a 46dc 22bc c52f fe5e d27d 413c
00000060: 215a 80dd 1511 4bbc daef dd69 5667 7b3c
00000070: 0d6a 268c 591c 563c 4d5a 29c5 c5be 44bc
00000080: 8823 9169 492f 603c 7a5e 6d4a 8b6e 723c
00000090: a9bf 6bc0 96d4 f4bb c589 f82c cb1a 12bc
000000a0: 371e 1acd 69cd 573c 3021 8a5c 2d33 583c
000000b0: 9e4b c96f ba2a 253c 4d44 c6ea 7c3b 213c
000000c0: be0f 8b47 7b54 543c 9c86 e963 cb11 373c
000000d0: 267c 2aa2 7a64 3abc 56ca 9564 3731 4dbc
000000e0: 2ff0 cc2f f57d 2a3c 70d9 35ad 908d 543c
000000f0: 866c 9545 53e2 44bc 837b cd7b d34d 533c
00000100: 1b84 4722 8a6b 433c 82e9 de71 1017 503c
00000110: 5579 091d 3da3 4dbc 43e2 dc4e 8304 63bc
00000120: cabd e3d4 58d1 463c a67a 3fb1 a2e1 10bc
00000130: 657e 75b6 70f3 11bc ca25 9ad9 e868 193c
00000140: 53c3 1913 aa97 39bc d9de bb00 9cd7 303c
00000150: e2de 3848 8d30 5bbc 44e5 433f 72fa 503c
00000160: 8dab 8246 0b75 483c b822 09b8 fe67 263c
00000170: d4fa 7cf8 6f64 673c 2b47 a8ff 1f51 ff3b
00000180: fcc1 cb0c e02c 123c 6dcb aa10 8a44 6fbc
00000190: 83a2 3d29 0fc3 393c 252b d55c da12 46bc
000001a0: 89e9 d4d7 24f5 553c a40d 504d 9476 5e3c
000001b0: 8c4a 35bb 32ff 49bc 4590 ac97 cb4e 59bc
000001c0: 2029 9b45 2e15 2e3c 2d9f e350 39f1 63bc
000001d0: de73 7149 0ce7 2f3c 9465 20c5 7faa 783c
000001e0: c4dd d8aa 5c59 2c3c 2c33 fa61 a3be 59bc
000001f0: 7b2e 34df cfdd 52bc 452b 92c1 00ee 6f3c
00000200: a012 f699 0740 29bc f0bf 3fc8 024d 66bc
00000210: 9057 1657 3d97 6a3c 4528 25f8 ecf2 58bc
00000220: 4a07 085b e98b 543c 0662 4938 ee87 66bc
00000230: 8d12 0f6f 304a 54bc 5d32 83ac ed40 2abc
00000240: 48ee 03c0 62f1 1ebc 96d9 5819 bce3 64bc
00000250: e654 c05b 4307 7cbc 78ce 11db ba3f 303c
00000260: 7504 4fe8 5fb4 2f3c 0ca6 4e75 7c09 5dbc
00000270: b207 8e7a ca0b 45bc 7ea0 ad2f ea16 5e3c
00000280: 8a03 02a8 ffa3 4a3c 842b cf48 ff4d 4d3c
00000290: 690f fb1a bdd5 42bc 80ad f61d 5fa1 593c
000002a0: dd50 e5b5 87e3 6dbc b347 a7d6 8aee 57bc
000002b0: b4f0 e39b 3fa3 60bc b2e0 cdb0 112c 1b3c
000002c0: be35 efd9 38a4 693c 3a9c 007e d3be 6bbc
000002d0: fa38 1e63 8335 453c fb76 f129 6723 62bc
000002e0: 2110 1da2 f6d3 6ebc e1bb 3c5c 831e 64bc
000002f0: b9d8 0cf2 c213 733c 6283 8640 0b8d 05bc
00000300: 0336 4ab1 b699 4fbc 1186 d33d f396 72bc
00000310: 5150 8e2b d653 3c3c 4b48 1984 d00e 75bc
00000320: 2db4 c6eb 69ca 10bc 36d4 8b34 e6c6 2ebc
00000330: 815e 7f18 613d 063c 206a eb10 332c 51bc
00000340: 6b9e 8ef3 5293 4d3c 8f72 8a43 04df 2ebc
00000350: ae31 bde1 2e63 653c 3c29 f2c7 c70f 553c
00000360: 8599 6a58 1dcb 463c 3935 c64c 488c 473c
00000370: 55c6 3655 c3f1 2cbc 7796 d454 9169 53bc
00000380: 4108 4f5b a198 eebb 8983 3ba6 2edc 42bc
00000390: eeac 241d 0da1 4dbc c064 4c9f a256 36bc
000003a0: 20e8 aeb7 1fa7 06bc 8a32 ab91 16d1 19bc
000003b0: 6c9d 3415 3f03 f73b 5afb ecd5 937e 5fbc
000003c0: b23c 9669 f972 26bc 413b 9737 fbc9 4bbc
000003d0: cc80 f78b 4e4d 56bc deaf c3e1 30a1 523c
000003e0: a8b8 acaf 0ec7 f0bb 73ba aaee e055 54bc
000003f0: 0527 92d1 f628 983b 4381 b1c4 514e 66bc
00000400: c602 eb5a 0e5d 50bc f366 f8fb c4aa 493c
00000410: 9452 8579 fcca 11bc 8d80 6c90 776e 0b3c
00000420: 84d5 6b66 3851 26bc 5df3 1e32 acbc 54bc
00000430: d8fd 767c 28a9 02bc d2a2 27ab 1b20 44bc
00000440: 8c83 0189 a71d 623c bde5 6bbb 887d e63b
00000450: 1699 e180 b382 62bc aaf1 bf73 57ff 31bc
00000460: 05d8 f7ae 9a96 41bc 1a8c 3b84 b3b3 65bc
00000470: 4c9b a2d6 1880 1dbc e8ef 8038 0ecf 6ebc
00000480: 223e 0258 8cd7 6c3c df3b 91c1 7141 40bc
00000490: 30a4 b242 17e1 723c fd83 7e9e 8a68 233c
000004a0: 9c76 3f38 30ea 493c f34c d549 4d03 5f3c
000004b0: 6434 3165 c9d0 3c3c 9c21 2ddb 77ce 2c3c
000004c0: c5b0 a756 aae8 123c 1d74 a136 dbbe 4dbc
000004d0: 61c2 8969 38c9 333c 79be 71d7 122a 563c
000004e0: 8a5b 0683 7cb2 0a3c 6e4d 6232 7274 063c
000004f0: 3e40 500e baa8 58bc d042 f1d3 b448 493c
00000500: 1748 8819 c197 60bc 2f5d 043e 7f29 77bc
00000510: a87f fbc5 2b92 41bc 15a0 5325 737b 393c
00000520: 19e4 1fb3 efe8 123c c83f bea9 1556 403c
00000530: 1626 578a e14e f73b 7578 06ad 84a5 1fbc
00000540: 04a6 ff9b 927b 593c 2bed 2a47 1b4f 5abc
00000550: fe2a 5a07 7fd2 503c cc85 17bc 2416 21bc
00000560: ab6b 37c8 aa6f 36bc a27e 054e 30f6 40bc
00000570: 0af7 103c 7011 453c 480d d18e c093 61bc
00000580: 32e0 1325 c979 28bc 9b68 f36e b127 46bc
00000590: d129 613b 9c7a 31bc fdbf a8b8 45b9 45bc
000005a0: e525 1441 de48 643c eebd b9e4 5e96 68bc
000005b0: 7239 a899 53bd 413c 2e04 fd13 c03d 473c
000005c0: b6df 0c66 9918 ebbb 9ece 0e8b 4ed3 313c
000005d0: 8ab8 c787 38a8 583c 4981 5499 8060 623c
000005e0: 4452 3601 13ab 64bc 6473 5fdd cdfc 433c
000005f0: bbdb 5c6c d188 6abc 3d1d 156d 9a1e 563c
00000600: 7e22 063e 6bcc 5dbc ee6b 8261 a886 f1bb
00000610: 0c07 fe5c ab47 3e3c 8b01 c1a9 83ed 163c
00000620: 6638 4e66 ad52 eebb 81dc b507 8105 213c
00000630: 428b 34a2 f788 42bc 205f 4785 6daa 14bc
00000640: b29e 2262 5a73 45bc 885b 9ecf 4929 113c
00000650: 614c 6bbc 5a10 3e3c bec4 4d98 6406 58bc
00000660: 4138 c35d aaf7 58bc 6b89 ebe3 c74e 213c
00000670: 2118 e139 5572 10bc fae7 9d32 d71a 50bc
00000680: a092 cc53 4ece 5b3c 32be 1bd8 db20 593c
00000690: 83ca a3cc 1313 3d3c 3b06 ec62 f940 4bbc
000006a0: f217 3a43 f9dd 693c 07bb d052 e263 403c
000006b0: 7706 19ac 532d 53bc 16a5 1aef 87d8 613c
000006c0: eb9b 00b5 7677 62bc f8ab 31bb 008a 103c
000006d0: fd97 7f67 d0ba 5cbc 6889 3544 e4db 573c
000006e0: c341 89d5 aee1 473c ddc2 7797 3bea 1e3c
000006f0: 82cc 02e7 5df1 4cbc 3463 f117 7aec 583c
00000700: 2e02 75d0 eb41 4ebc b889 b290 2fba 6e3c
00000710: 3d47 584b 7dbd 3d3c 18ce 70bb 691b 3f3c
00000720: c630 42a6 e618 55bc 91e8 fdd6 e074 483c
00000730: 523c f461 7f14 3c3c f16b a7c3 868f 51bc
00000740: 90cb 36fa a6cc 3c3c 1b47 2d10 75b3 0bbc
00000750: 0ee3 df04 d5d3 703c cc3a 33c1 4842 5bbc
00000760: 975b 2245 21a8 003c bcf8 e792 b72e 473c
00000770: 987a 38ae 4cd8 54bc 0b5e 242b 0b60 233c
00000780: 1221 c5bf 15d5 423c 843a 485e aa5e 5cbc
00000790: d4f8 c1c4 9995 643c ecca 2642 f89e 393c
000007a0: abde d380 13d3 31bc bebc 73f8 856f 4e3c
000007b0: f490 bd7a 3bf0 133c 4e97 6a02 0a5f 5ebc
000007c0: a956 5bf9 4d56 1ebc 8c48 aef6 a862 6cbc
000007d0: 3146 008e 65b4 63bc f689 2f86 c75c 543c
000007e0: 63a3 6ea1 5fc7 123c 0a79 2919 8cd1 6a3c
000007f0: 6092 f55d 903d 553c 1173 4e0a 8fcf 5ebc

b3 f8 [1, 128]
-2.165196452457871e-18 3.5373907891032953e-19 -4.911784745676045e-19 -4.368675058802012e-19 7.973847679071437e-18 1.4298974343122073e-19 3.728873984056016e-18 -2.8815205467867157e-19
7.771015440881561e-18 9.091210499522705e-18 2.286198906337673e-18 2.2051872427595662e-18 1.3269529779711686e-17 4.3577718819831675e-18 -3.88613268844118e-18 -1.1492991151302642e-17
-7.404940182033243e-18 -2.9305825495389157e-18 5.210110646379032e-18 5.041989754643892e-18 8.878737308428084e-19 9.952849114475304e-18 -7.773425307151434e-18 -3.056119733186314e-18
-2.780100291603044e-18 -3.074374259389895e-19 -3.158010812285563e-18 -4.908017803488142e-18 5.406566082774137e-19 2.421760294222346e-19 -1.818138187075453e-18 -2.378333451450717e-18
-3.39381242808033e-19 -9.838641935615384e-18 1.2874810007540803e-18 4.126917174583705e-18 2.9880197916508984e-18 -4.509142535208844e-19 -2.080833180583509e-19 3.342644232605214e-18
-8.069445034406972e-19 -9.580050260317403e-18 -4.58590474081398e-18 -3.8814504262209127e-19 1.4504598058483094e-17 1.5165244282734344e-19 -1.4767840441180628e-17 -2.6292933345356536e-18
-1.0314905471543717e-20 6.7768317168882e-18 -1.1681992011419114e-17 -3.3481258391680005e-19 1.165689501810318e-18 -3.662531625315197e-19 8.78351652114379e-18 -1.3166759836815737e-18
-8.213471116647434e-18 -7.835401062148399e-18 -1.776829188072219e-18 -8.93114365765753e-19 1.0262511802536194e-18 -1.701097201305875e-19 2.5181647615039987e-18 -9.185171529007931e-21
-2.148230320727724e-18 -2.181697388004204e-17 -3.720502291733128e-18 1.0509876765258476e-17 4.978125910434011e-18 -1.1780530983308827e-19 -2.7264751480487103e-19 -1.5989837622507459e-19
-5.816324973207807e-18 4.1103594939954353e-19 -3.2905703181177314e-19 -1.7575490119547876e-18 -4.135822380352297e-18 -4.922376991763706e-18 8.0056450704892035e-19 4.1718592877947676e-19
1.3969802074767127e-17 7.736170029679442e-19 -1.5680945598993742e-18 -4.851917465504878e-19 6.5578540954709186e-18 7.501394228628744e-20 1.55166924791795e-18 -5.911446645949948e-19
5.333655429693898e-18 -2.1326853062349786e-18 5.646000019494666e-18 1.029387911915251e-19 3.088378680506177e-18 2.5806014181590773e-18 -1.0306226936527306e-19 8.424528324217363e-18
2.9968092526044268e-18 3.798138478658298e-19 1.0841959216824802e-19 -9.368031140746349e-18 -3.710790632413469e-19 6.871912767482545e-18 -1.0642173871261237e-17 -4.2485295170998886e-19
-5.967058600343745e-19 6.279969975747888e-18 -5.402100219725066e-18 4.879822155313375e-18 -1.1475630083906529e-17 -1.4974940581023853e-18 2.080351468096893e-19 -1.4037431863045424e-18
-7.620202915915278e-19 -9.055260926344685e-18 -2.539575641223924e-18 7.029103213748211e-18 -1.2059690564051743e-18 -3.528143040555083e-18 1.3690227981039771e-18 -1.8559405515365385e-18
-1.9611022550213884e-17 1.2088807317806378e-18 2.009038253255727e-18 4.59006944495859e-18 4.73556780816267e-18 1.8936510172491592e-18 1.541342862015215e-19 -1.153841822132497e-17
00000000: 0652 adf2 6cf8 43bc 0e37 3e39 f119 1a3c
00000010: eb19 0dae 0c1f 22bc e427 b2d0 181e 20bc
00000020: c3ae e8ca ed62 623c a388 33f1 ff19 053c
00000030: 2700 6502 4732 513c 999a e3d5 0943 15bc
00000040: b360 c1a6 32eb 613c 4772 57e3 80f6 643c
00000050: 95a0 7d71 2216 453c 63de bde5 d956 443c
00000060: c45b 46a5 f298 6e3c a776 6cbc bf18 543c
00000070: 05f4 4f89 efeb 51bc 0ccd eab7 4380 6abc
00000080: 26d1 1eec 1a13 61bc 0d2b 9074 a407 4bbc
00000090: 7927 2452 0307 583c a70b 2fe6 8740 573c
000000a0: 375c 4f7a dd60 303c 3e33 be08 20f3 663c
000000b0: a6ef f0d1 9eec 61bc bdf7 d106 0f30 4cbc
000000c0: 328a 0683 53a4 49bc a40b 252b 54af 16bc
000000d0: 42c8 a067 a420 4dbc 516a 875c 5da2 56bc
000000e0: 1c07 7277 5bf2 233c 0b7f 606b 93de 113c
000000f0: 8180 5719 f5c4 40bc 0653 ca5b aeef 45bc
00000100: 8df3 0dfd ba0a 19bc f152 8288 b5af 66bc
00000110: 9fc5 2906 f5bf 373c e4b4 932e 3408 533c
00000120: b960 4823 438f 4b3c d2e6 5bc4 c3a2 20bc
00000130: 3613 dd5d 2ab5 0ebc 6e1b 9475 98d4 4e3c
00000140: 0d2f 2517 60c5 2dbc ece7 9c43 1017 66bc
00000150: 4c09 70a9 1426 55bc 5de0 4f41 daa3 1cbc
00000160: 4e59 8971 00b9 703c 5f14 106e 4461 063c
00000170: 58a9 bf79 b206 71bc a221 bb4c 3e40 48bc
00000180: 1366 824f fa5a c8bb 1e5c 9db5 ab40 5f3c
00000190: a461 8cb8 d4ef 6abc 2586 494f 6eb4 18bc
000001a0: 8699 ea22 d080 353c 5da4 699e 5306 1bbc
000001b0: fdfc 197d df40 643c a9c0 bd97 d349 38bc
000001c0: b17e a6a9 60f0 62bc a68a d554 3411 62bc
000001d0: 4a56 5c57 6b63 40bc 94b6 4204 9d79 30bc
000001e0: df96 998c 55ee 323c 0219 3e43 901a 09bc
000001f0: f610 f932 d939 473c b691 4f73 18b0 c5bb
00000200: d957 f48c 5dd0 43bc e596 78f0 3b27 79bc
00000210: 0308 13d2 6428 51bc 4259 3dac ef3b 683c
00000220: 8015 923c 22f5 563c 52fe c30b 8f62 01bc
00000230: 4f48 307b 2a1e 14bc 169e 4a34 ca98 07bc
00000240: 4445 dd5b b4d2 5abc 89ed 58e3 3f54 1e3c
00000250: e260 e32a b647 18bc 25f8 9c30 e535 40bc
00000260: bc2b 809d b712 53bc 8dfb e828 51b3 56bc
00000270: 603f a734 1e89 2d3c ce04 105d 6bc8 1e3c
00000280: 1dfc c466 281b 703c 82e2 8523 9b8a 2c3c
00000290: 0271 4500 1eed 3cbc 4890 e4a8 81e6 21bc
000002a0: 7333 c9c8 253e 5e3c b2b2 a4aa e423 f63b
000002b0: fe6d 6e04 8d9f 3c3c f0f1 a718 34cf 25bc
000002c0: 19b8 c270 de98 583c 9115 792a a9ab 43bc
000002d0: 0804 dfcc 9e09 5a3c 86b4 d8cc d561 fe3b
000002e0: c75d 225d 3a7c 4c3c 6539 9fd7 45cd 473c
000002f0: 98c5 2537 2a6b febb b823 e5b9 f66c 633c
00000300: 1bcc 7c0a 04a4 4b3c 3487 bf11 7b06 1c3c
00000310: 5694 c0e8 f3ff ff3b b537 33d7 e899 65bc
00000320: 7181 203e 7c61 1bbc 207d 9531 ecb0 5f3c
00000330: f92a a2d8 078a 68bc c0f9 bacf 3e59 1fbc
00000340: db08 e83d ba03 26bc 47d0 6776 14f6 5c3c
00000350: 1fae e39b ace9 58bc 0c78 eabf 1381 563c
00000360: 7a2a 2730 0476 6abc 227b 473b b79f 3bbc
00000370: 6bef a07b 58b3 0e3c d9d3 cc61 fde4 39bc
00000380: e6c2 da02 141d 2cbc 2530 9757 48e1 64bc
00000390: fc13 2248 676c 47bc 318c a40b 4035 603c
000003a0: 0d0b 4421 073f 36bc ceaa e3cd 4b45 50bc
000003b0: 30ea 1d02 0741 393c a2f9 e839 371e 41bc
000003c0: f9f3 28f8 269c 76bc 11e1 2521 c74c 363c
000003d0: c428 c51b b587 423c 0d3c d05d ff2a 553c
000003e0: 8f9b 678c c5d6 553c 8df5 d5cd 4177 413c
000003f0: e18d a158 07bf 063c e095 9176 149b 6abc

b4 f8 [1, 64]
7.313189219113446e-20 8.053911140046713e-18 4.5153304922017486e-18 -1.151732864532797e-18 2.3710769483455113e-18 1.3439854280219499e-20 -5.915705600564097e-18 -6.426485781685797e-18
-1.2365920081172505e-17 1.0019475310451153e-18 -2.960534566118502e-18 -1.6644335999589356e-17 -3.90935746257891e-19 6.454500710412586e-19 -1.5949043530873914e-17 -8.990957926284703e-19
1.5580307689986745e-17 2.7464629689383913e-19 -1.3088620216618686e-17 8.110165635515813e-18 -1.521840666598716e-18 -4.75323543638133e-18 5.086475947587273e-18 -5.522540967949929e-18
3.862718386134694e-18 -2.46725086284675e-19 2.3306630066402926e-19 7.415923931419472e-19 -3.887953137873147e-18 1.4090251951034587e-19 -3.936581323213438e-20 4.4787147713280294e-18
-1.4769609854247422e-19 -1.9151816508597378e-17 -6.963884135277213e-18 6.2055016812971e-18 3.037088921831856e-20 1.1813593187089761e-17 -8.493336443161872e-18 2.705813146672247e-19
-9.301074656095189e-18 5.146492980603428e-18 -9.180771960333294e-18 4.586502828787661e-18 -3.831366341101981e-18 -1.3252907381464161e-17 7.78125368164393e-18 -9.046482793924266e-18
8.908812313791712e-18 5.842334734430047e-19 -8.501439658429168e-18 1.7126325278002139e-19 -2.1149793899195693e-18 1.5431478813524104e-17 4.979768149976976e-20 -2.124488233983651e-17
-4.209185176415692e-18 6.776356473975229e-18 -7.692508333597327e-19 1.805791482556124e-17 -2.387791621922933e-18 4.643827280500448e-18 -6.81074265975485e-20 8.057837524436268e-18
00000000: f2ea f785 b095 f53b 14e2 08a4 3092 623c
00000010: 7e71 6ee7 c2d2 543c 4039 e498 e73e 35bc
00000020: 0cac 5212 8cde 453c c866 8ab7 e4bb cf3b
00000030: 4e02 794f 0848 5bbc bbc0 d025 0ea3 5dbc
00000040: 48b1 3802 8d83 6cbc 8768 7c3d 907b 323c
00000050: 51c4 a256 5d4e 4bbc c6d7 a478 8a30 73bc
00000060: 209f 1445 91d8 1cbc c199 2683 1ad0 273c
00000070: 7ab2 5ca8 5363 72bc 7f42 361e dc95 30bc
00000080: 3248 e7c3 7ef6 713c e2fb 90ff eb43 143c
00000090: 0838 895d 282e 6ebc f687 6b94 65b3 623c
000000a0: 7519 a679 b012 3cbc 888b ed42 a1eb 55bc
000000b0: d615 a606 0d75 573c dc1a 6d97 dd77 59bc
000000c0: 0de1 6aff 4ad0 513c 5108 024f 8134 12bc
000000d0: b36e 6679 7f32 113c 8362 2662 245c 2b3c
000000e0: 7ed0 c3bb 15ee 51bc d97a 138d 25cb 043c
000000f0: 0360 0823 cb3c e7bb 0e74 3f7b 88a7 543c
00000100: 1a5e 1004 cdcb 05bc 6128 8457 9e14 76bc
00000110: 0208 c06a c00e 60bc 3916 32cd 299e 5c3c
00000120: 1722 56de 84ed e13b ea04 71ba 833d 6b3c
00000130: e2e4 10b7 9495 63bc da1c 4ff3 22f7 133c
00000140: 474d a9a9 6272 65bc 3871 a90f e8bb 573c
00000150: fff5 8908 5f2b 65bc 9ad4 406c c926 553c
00000160: a520 6d6c 47ab 51bc 5aa4 63bd 228f 6ebc
00000170: 18c0 82cf 3df1 613c e470 0ad4 19dc 64bc
00000180: 69c5 4da7 d58a 643c 586e 88dc ed8d 253c
00000190: 9ee7 053d 5d9a 63bc 09d1 bf8b 2446 093c
000001a0: 036f a198 da81 43bc 0995 c292 91ca 713c
000001b0: 8e50 567e 3665 ed3b dd8f b9ec 617e 78bc
000001c0: 786c ea28 5469 53bc 97ac 7913 1c40 5f3c
000001d0: fd50 6f63 5e61 2cbc f344 b277 c1d1 743c
000001e0: 59f4 c778 0306 46bc 7aea e0ac 766a 553c
000001f0: e761 6e39 0d1a f4bb 5f72 acfa 8194 623c

b5 f8 [1, 10]
-0.020497446132004268 -0.002781524935872572 -0.06437039331371881 -0.059721163665043334 0.10153457385022077 -0.08931332275392014 0.07358998736395135 0.007877886567722744
0.1440111917799464 -0.09032978876128063
00000000: 4f67 2753 48fd 94bf eb1a 3ed4 47c9 66bf
00000010: c5f2 1cfe 937a b0bf b20e a4b9 c593 aebf
00000020: 4699 197a 2bfe b93f f93e 53e8 3cdd b6bf
00000030: ad8d 0a1d cbd6 b23f 9817 5c09 4822 803f
00000040: 1df7 796f f56e c23f f193 9560 da1f b7bf
