4_layer_final/weight5.npy (npy, 5248 bytes, 1 tensors)

array f8 [64, 10]
000000 da 3f 09 86 64 32 94 3f d0 78 32 66 1f 29 c3 3f
       0.019723482781330272 0.14969246378036027
000010 f6 0f b7 c0 29 0f 9a 3f 10 d2 4f 30 6b 5f cf 3f
       0.025448467624087777 0.24509944781279147
000020 c0 11 ab 10 5e 7a a8 bf 83 41 01 95 d5 58 d1 bf
       -0.04780858949155542 -0.2710470156789812
000030 bf ef 94 66 cc b7 c0 3f f3 b6 61 6e c3 15 cd 3f
       0.1306090832603086 0.2272266663525709
000040 49 a7 9e b1 19 7e 92 3f 29 45 5b 46 42 fa cf 3f
       0.018059159723328198 0.2498247951066699
000050 06 90 07 c6 23 de b0 bf a7 bf 02 7a 09 e4 b1 bf
       -0.06588958344178772 -0.06988581875589138
000060 15 e7 9d b9 7d 76 b9 3f 3e 80 c3 75 65 d5 b9 3f
       0.09946428090725264 0.1009124195584272
000070 ce af 3c 0d 63 32 c0 bf 3e 5e a2 8e 1c 0a b0 bf
       -0.1265376867899008 -0.06265429003030307
000080 46 56 f6 00 81 54 c2 bf be 2c cb dd c2 17 c5 3f
       -0.14320385500893645 0.1647876341797651
000090 ca fd 36 a2 ee 82 d4 bf 3d 3b 1f c3 5a c2 bc 3f
       -0.3204914650086407 0.11234061492653509
0000a0 78 47 a0 5e 73 e0 87 3f 06 c1 94 44 ea ae be bf
       0.011658574414500342 -0.11985649275152718
0000b0 c3 d5 b6 77 2b 3b 99 bf 5f c5 54 81 1f b2 92 3f
       -0.024639777356886727 0.018257610577341207
0000c0 a7 00 e6 2e 31 ac c7 bf e9 c6 fb 63 cb 95 ce 3f
       -0.1849423865314794 0.23894636518485093
0000d0 45 5f ef db b9 aa d0 bf 20 53 ad 36 d3 0c b1 bf
       -0.2604202888301084 -0.06660194477929027
0000e0 c0 42 20 f2 2b d5 9c 3f 75 7c cc 76 fa d8 ce 3f
       0.028156935361098645 0.24099665451737776
0000f0 c4 b1 12 29 a3 03 d3 3f 3c 8a 7c 37 71 4c c1 bf
       0.29709700594937893 -0.13514533242512694
000100 ff a2 8a a4 4b ab ce 3f cd 76 63 3f 14 7c a8 bf
       0.23960252317672112 -0.04782164834771905
000110 8d 4b 3d a8 6a 38 ca 3f 59 21 3a b0 52 02 cf 3f
       0.20484669890228382 0.24225839238011806
000120 69 41 65 6b d6 d4 c1 3f 14 61 0a f7 c6 47 c2 bf
       0.1393077873604043 -0.1428154665234237
000130 fa 82 b7 ff e2 2e ca 3f 72 a7 43 81 e8 52 c1 bf
       0.20455586897062245 -0.1353426581547939
000140 f6 d5 8d ce f5 70 b3 bf 36 3f 67 6b e9 d6 d1 3f
       -0.07594238560508146 0.27874217499355625
000150 1c f2 fa ce 56 2c d6 3f c6 30 ab 4a b2 7e cc 3f
       0.3464562436381884 0.22261646886761904
000160 6b f6 ed 29 68 e5 c8 3f 92 56 28 4e 2c 5b a9 3f
       0.19450094268170245 0.049523720303267585
000170 3d 47 3b 93 5a 67 b3 3f d5 a8 03 cf a2 0f d7 3f
       0.07579580397148518 0.3603293439506506
000180 0a 6a 42 4c f1 44 90 bf a3 93 4d 30 35 95 a6 bf
       -0.01588799503279329 -0.04410711493145605
000190 a6 de 8a e0 99 83 bc bf f6 86 36 e3 19 e4 c4 bf
       -0.11138307315820359 -0.16321109384903537
0001a0 f8 c1 db 1a 0b 7c a8 3f 2c 67 62 36 e8 e0 c2 3f
       0.04782137587415386 0.14748861937987934
0001b0 26 07 89 9b 0c 17 a4 3f 51 50 e8 b3 f2 1a b4 bf
       0.03923835180877537 -0.07853619472763397
0001c0 dc e7 9e 02 36 d3 ad 3f 5a 2f 98 2e 6b b1 aa bf
       0.058252036876595276 -0.05213484710483725
0001d0 49 3b 9f d1 67 e2 c1 3f 09 77 58 fd 2d cf cc 3f
       0.13972184882592334 0.22507262106312734
0001e0 a0 de fa 2a 3c 4d cd 3f df 38 e3 0b 93 86 d5 bf
       0.2289195260871013 -0.3363387695398056
0001f0 4e 44 9e 6b 2e db a1 bf 15 f2 74 78 ee dd d7 bf
       -0.034875345837584434 -0.37292062533723086
000200 35 91 ae 62 63 58 cb 3f 62 0f a2 b5 37 ee c2 bf
       0.2136348945470076 -0.14789482468415388
000210 db 50 b7 9e 1f 3a ce 3f ec 76 f0 74 6c d6 ca 3f
       0.23614878892715904 0.20966869077613326
000220 e6 3d 35 b9 e9 17 bf bf 24 72 cf a5 be 3f c6 3f
       -0.12145863315276237 0.17382033439834388
000230 82 72 b2 b8 63 a3 cb 3f 7d 51 26 b6 28 bd cb 3f
       0.21592375296031113 0.21671017545726193
000240 3e be 42 16 b7 00 a0 bf d5 10 24 5c f0 53 c9 3f
       -0.03125545641648529 0.19787411212030884
000250 4c 47 b8 50 40 77 ca bf 22 96 65 a5 cb 14 cf 3f
       -0.20676425877950988 0.2428221280671759
000260 4e 4e 9b d6 21 35 a5 3f a0 2b e0 9d 23 3f cc 3f
       0.04142099137029885 0.22067685326359499
000270 4a f9 97 4c 97 ae bd bf 4b b9 4f b3 73 89 b9 3f
       -0.11594529743158435 0.09975360038490526
000280 a6 d9 17 06 e5 6a c4 3f a1 e5 2d d7 51 8d c4 bf
       0.1595121650459081 -0.16056273466874152
000290 ef c2 94 a5 3b 55 b7 bf e5 d9 85 52 6c 60 c1 bf
       -0.09114430229670821 -0.13575510053097087
0002a0 e6 8f 86 73 4a 87 ca 3f 67 34 59 ba 77 8e c4 3f
       0.20725374833011684 0.16059776877446838
0002b0 78 78 56 dc c2 e4 c2 bf 2c 52 78 b2 d0 1f c7 3f
       -0.14760623701744513 0.1806584235606733
0002c0 e5 9f 1e c2 7b b1 ce bf ea 71 9e 4a 20 63 cb 3f
       -0.23979136446473528 0.21396258967878562
0002d0 4d 5f 2f c4 1e 0d d0 bf df 95 ef c5 81 e6 d7 3f
       -0.250800792300187 0.37344402627635803
0002e0 41 1d 75 86 37 05 a5 bf 58 15 1e 66 a3 ce 83 bf
       -0.041055426753298103 -0.009671474985007464
0002f0 9d 5b 9b 94 dd 61 d4 bf c7 07 05 d7 2f 7e 95 3f
       -0.3184732390631611 0.020989177225835733
000300 a6 64 1b 3c e7 f6 d6 3f dc 35 4b 52 cc f5 cd 3f
       0.35881977910828267 0.23406366365672582
000310 14 63 ae c0 e7 f0 c7 bf 3f a0 d5 7a 4a 2e d4 bf
       -0.18703934582006154 -0.31532537456087434
000320 95 98 79 aa 58 ad d0 bf ec 89 75 35 98 49 cf 3f
       -0.2605802216334124 0.2444334279089867
000330 a4 bf 9a 19 b4 1c cb 3f c4 e8 15 10 ae ac ca 3f
       0.21181346178263738 0.2083947733443151
000340 b6 a8 a3 9e 72 d3 d4 bf 6f 63 19 8b 8f ea c5 bf
       -0.32540574543112244 -0.17122072498275595
000350 ac 32 54 95 30 9e ab bf 53 80 99 1e 94 07 c0 3f
       -0.05394126723158385 0.1252312802707843
000360 1c 29 c6 d8 c1 21 cd 3f da 80 2c a6 d7 cc c9 bf
       0.22759268841429836 -0.2015637933154782
000370 ac 3a 06 44 13 52 d5 bf 29 e5 8b 23 ef 9e c7 3f
       -0.33313447611809965 0.1845377849165655
000380 f2 1b 65 4c 6f 91 b8 bf 73 f0 a8 54 ec 50 b1 3f
       -0.09596915831671973 0.06764103953259042
000390 fd 6c 03 54 db d4 c6 3f 48 41 74 c1 e3 01 c8 bf
       0.17837087251869113 -0.1875576681709481
0003a0 7f 3f 0d de 75 a1 cf bf d2 c5 0e 69 cd 51 a7 3f
       -0.24711488096590625 0.04554597766344738
0003b0 e6 41 31 45 7e 82 d0 bf 93 c7 cc f1 c6 39 c2 3f
       -0.2579646754939219 0.1423882179893182
0003c0 4d 95 a3 de ad 53 c7 bf 88 ff 75 8b 0a f4 c0 bf
       -0.18224118586582919 -0.13244754609695186
0003d0 b0 83 3e 4c bd c3 b2 3f d7 56 ea 67 f8 bf d0 3f
       0.07329924689703549 0.2617169394301135
0003e0 34 24 f4 fd 7e de a0 bf 1c 22 77 f4 8a f2 70 bf
       -0.032947510242657435 -0.004137556832070757
0003f0 b0 93 60 03 2d f5 b6 bf f7 e3 d6 a3 34 64 d9 bf
       -0.0896785863156555 -0.39674106597846
000400 c8 28 8b 25 fe 5c af 3f 13 8f 6e 3b 93 67 c1 3f
       0.061256353457410706 0.13597336198756035
000410 7d 04 4a 2c 6d bd a5 3f 2e 55 72 b6 24 ea c4 bf
       0.042460834175479946 -0.16339548977399815
000420 4b e8 de f4 e1 e6 b9 3f e9 bf 0b 80 bf b5 c0 bf
       0.10117923954285961 -0.13054651024094646
000430 df c1 4a 62 ce c0 cf 3f 9a 48 bb 6a 09 18 83 bf
       0.24807147788443637 -0.009323190278710581
000440 ea 21 57 61 5f 8c d0 3f ea 0e 9e 6f 41 7d c8 3f
       0.2585676622952905 0.191322497845355
000450 6f b4 57 ad c5 e2 cc bf cc 2e 9e 24 14 af b2 bf
       -0.22567053760522834 -0.0729839887046026
000460 ab ae 55 e1 6b 25 cf bf 94 c0 12 88 38 28 cb 3f
       -0.24332951071425177 0.21216494220926008
000470 03 e5 33 81 94 52 b6 3f 3e da a3 de 22 7e c7 3f
       0.08719757227290263 0.18353687163444649
000480 c0 68 ed d2 20 50 bc bf ff 8f 4e 19 b9 85 bf bf
       -0.11059765958399037 -0.1231342016968142
000490 c6 1f 5f e2 b7 40 d0 bf c0 ea 28 a0 9a d6 c7 3f
       -0.25395009142493696 0.18623669452957436
0004a0 d5 04 fb 72 bc 07 c7 3f 3c ac cf 43 e1 6e c5 bf
       0.17992358793529797 -0.16744628726095978
0004b0 ac bf bd 4a 01 6b d3 bf 74 16 d4 85 a8 94 9d bf
       -0.30340606974550144 -0.02888739888023513
0004c0 cc b0 18 d4 a1 00 d3 3f e2 6a 55 16 a5 94 bb 3f
       0.2969135829214451 0.10773689074759887
0004d0 f0 f7 1b b6 41 1b d0 3f ae 95 d9 c7 17 e7 cd bf
       0.251663616028849 -0.23361489542291508
0004e0 10 28 fb a0 0c 9b c7 3f dc 7e b9 53 d7 57 ae bf
       0.18441923008350658 -0.059263924570357424
0004f0 4a cf fc 06 00 46 bf 3f 0f 15 e9 5d 5d 7a be bf
       0.12216186686128797 -0.11905463736282605
000500 76 92 b8 91 0e 72 bd bf 4f 35 3b 3a 6b 44 c1 3f
       -0.11502162034646254 0.13490047782253575
000510 75 92 0c 1e a3 1c d0 bf c2 e4 01 4a 0f c3 d1 bf
       -0.2517478745888078 -0.27753050067219587
000520 72 4a 6f 69 49 2c d0 bf 77 ee 7e f7 60 a7 c9 3f
       -0.25270304962501833 0.2004204948878969
000530 c2 1b 7a 49 62 4c ce 3f 50 7a e2 d2 95 66 d0 bf
       0.2367060526632639 -0.2562613067074482
000540 93 8c 8b 21 36 d1 ca 3f 59 fa 7a c5 5b fb 75 bf
       0.2095096267504216 -0.005366667253552914
000550 57 41 60 75 30 8a d3 bf a2 00 b6 1b 9d c2 d3 bf
       -0.3053094049692126 -0.3087532778372496
000560 17 30 e8 f1 0c 20 bb 3f 9e ca 96 f6 33 1d c3 3f
       0.10595780282909605 0.14932870426635686
000570 83 16 f7 01 74 f3 b8 3f 8b 50 5e e5 9a b6 c4 bf
       0.09746480033853726 -0.1618226642573329
000580 fa 67 5d e4 51 df c4 bf 13 0c 12 04 d4 43 c3 bf
       -0.16306518221500693 -0.15050745199923252
000590 ba 07 92 fc 9d 39 c5 3f 11 09 e9 42 ef 59 c5 bf
       0.16582083542385623 -0.16680708663086155
0005a0 d8 91 7b da cb a8 c7 bf 70 f2 16 e3 fa 3f c8 bf
       -0.18483875434971142 -0.1894525154911153
0005b0 39 28 8c 18 db d2 db bf 62 35 d4 76 5a 09 c9 bf
       -0.43474461934295366 -0.19559794237322153
0005c0 9f f2 13 61 4d 6c c4 3f e0 c2 bb 44 5a e9 c7 3f
       0.159555122758225 0.1868088565456878
0005d0 2c 14 df ed 04 b9 cc 3f 04 81 6e 16 90 3a 92 bf
       0.22439633955778626 -0.017801524514312397
0005e0 b5 5b 4e 8a 1c aa c8 3f a4 19 9c ac c1 d7 c9 3f
       0.19269139054514786 0.20189686706744425
0005f0 5a 55 b6 7f 4b 29 c3 bf 39 f4 ac ed 08 97 ae bf
       -0.14969772087048733 -0.059746054661879495
000600 08 d9 64 55 46 b9 be bf 56 ef 58 84 f3 f4 b6 3f
       -0.12001456818402201 0.08967515927446121
000610 ef 34 7a 1a 7e ef d2 3f fd a2 9e 81 f9 e7 d0 3f
       0.2958674677436894 0.26415860803767527
000620 2f 87 86 27 bc 5e d8 bf ee e7 8b 5d 0d 8d d2 3f
       -0.38078216419136174 0.28985914359475273
000630 60 c9 da 08 a0 6e c9 bf af 8a 66 2e 04 ca d1 3f
       -0.19868851120333897 0.2779550984506995
000640 bb 6d 08 e8 bc d1 b1 3f 37 c7 2f 76 54 23 9e 3f
       0.0696065966116554 0.029431647981204647
000650 30 ca d1 3b b7 57 c5 3f dc aa 3e 6d 85 71 c2 bf
       0.16673937245248416 -0.14408939203470694
000660 e2 dc 6e 1f 79 0a 9e bf 33 3a 6b db c2 c0 c8 3f
       -0.02933682684280548 0.19338260377704017
000670 32 7d c9 e7 22 c1 cf 3f e2 91 8f eb 62 14 ac bf
       0.24808155362823353 -0.054843035941107635
000680 71 92 18 06 60 42 af bf dc 49 54 0a e0 bb d8 bf
       -0.06105327677167772 -0.3864669896003343
000690 0a 2d f6 ec f2 95 9a 3f fb f7 43 d7 0e 69 be 3f
       0.02596263476656894 0.11879055743699489
0006a0 f7 01 3a 4f 29 28 b6 bf f5 54 f3 c5 7f 14 cb bf
       -0.08655031379931431 -0.21156308332016463
0006b0 ef ec 28 aa f4 3c 9f bf 22 c2 c2 ca 79 a0 a9 bf
       -0.03050596512387654 -0.050052457810469755
0006c0 af dd cb 6e e7 4b b3 bf d5 a4 9e 40 01 8b b8 bf
       -0.07537695364941642 -0.09587104632977923
0006d0 35 a5 29 f0 fd e3 98 bf 1b e3 2a e8 e6 d6 dd bf
       -0.02430722025238659 -0.46624157593355314
0006e0 56 af d9 d8 8d 4b d1 3f 94 42 fc 94 de 53 ca bf
       0.2702364556960125 -0.2056844928233842
0006f0 36 ef ce 0c 6b 79 b8 bf 71 ad 84 ce 5b 73 ab 3f
       -0.09560269415572695 0.05361449142432207
000700 cb e1 00 10 54 bf 8d 3f fd 8a c1 ab 87 1f d1 3f
       0.014525086153398889 0.267549436312194
000710 27 38 7d 4d bd 2e d2 3f af 70 57 f3 86 65 c9 3f
       0.28410275046633376 0.19841086275017036
000720 e2 4f fd 5e 8d ac 87 bf 1b 6e 5a ab ec 72 a6 3f
       -0.011559586011266224 0.04384555427278888
000730 e3 09 cc 96 18 97 cb bf 2a ef 1e e2 61 e9 c5 bf
       -0.2155485855401614 -0.1711847642999314
000740 e6 93 6c 41 8b a9 c0 3f c1 0e c6 83 ed 2e c3 3f
       0.13017407125985797 0.1498696225572669
000750 e6 c8 8b 26 f1 3f d4 bf 3a f8 b6 98 96 47 ab bf
       -0.3164027096201053 -0.05328055013841078
000760 53 2c 6a 5d 16 34 d2 bf c2 0d e6 1e 89 c2 c4 3f
       -0.2844291603329953 0.1621867562172224
000770 74 45 a7 79 88 20 c3 bf e0 2b 93 9e cc d2 b7 3f
       -0.1494303316126594 0.09306029197175247
000780 8d 3b ad 1f 42 78 d3 bf db 43 4c 95 fa 6d d1 3f
       -0.3042149838774371 0.2723375757205397
000790 8e b7 44 b3 d0 e7 c1 3f e3 b5 17 02 03 7c c8 3f
       0.1398869395574675 0.19128453828982037
0007a0 de 0b 1e 3c af 99 c0 3f 02 1e 94 a2 a5 8f c6 3f
       0.12969007907312763 0.17625875891120307
0007b0 5f 3b a5 26 2e eb cd 3f 2a 20 1c 55 1b cb ce bf
       0.23373963248237836 -0.24057332664256253
0007c0 cb 74 8a 32 f9 99 d3 bf 6c 3f 24 d7 65 8c b4 bf
       -0.3062727922022758 -0.08026730062942783
0007d0 3d cf 76 7a ba 80 d8 3f ae 8d 57 e0 60 67 a2 3f
       0.3828569599092935 0.03594496477651475
0007e0 a6 b0 c7 82 23 65 a8 3f a6 61 f4 e9 df 17 c3 3f
       0.04764662715374017 0.14916609691205202
0007f0 c8 0e 85 b4 8f e8 d2 3f 82 01 16 8f af 08 c4 3f
       0.2954444182289362 0.15651506888026395
