4_layer_final/weight4.npy (npy, 65664 bytes, 1 tensors)

array f8 [128, 64]
00000000: 2372 657e f3b3 c0bf 30ea fd6d 4c3b c3bf
00000010: 2fdd 2c9f 8b07 9ebf 0efb 7db6 daeb b7bf
00000020: 808c e3c8 2f5a c6bf 8eba 6019 911c b3bf
00000030: 635f de3c e0a6 cd3f 4400 6864 a163 b93f
00000040: b764 202b dfe0 9ebf cb26 0b12 9c44 71bf
00000050: d352 312a 5551 b4bf b393 3046 fe15 c3bf
00000060: 67cd e13b a673 c4bf 77b3 8168 b1ae c13f
00000070: 4464 d258 16d6 b6bf b879 7d9a 8ba9 a43f
00000080: b3b2 b97a f4cd b93f 0676 d944 1805 a73f
00000090: ca9e 161d 32d9 61bf d991 e18f 321a 963f
000000a0: 62e4 73d2 fe12 613f d45e 1c8b fec9 b0bf
000000b0: fbee 56d0 702d c83f c9bd 53a6 baf3 b8bf
000000c0: 7bcc c06e cdda 92bf f372 d34d 6411 863f
000000d0: 1507 1dcb 742e cebf b5fc 4bcc a25e 94bf
000000e0: 98f9 04bd a5e8 98bf a01e ddea de82 aebf
000000f0: a0de 738d b189 bcbf 4e3b a924 150b ad3f
00000100: 401d 0efe e168 c53f c7a8 bedb cb12 c9bf
00000110: caf5 dd21 cdf1 87bf af87 803c 32d3 ccbf
00000120: 0d29 a7d6 5dd6 87bf 250f 1dc6 6774 a83f
00000130: beb2 3f27 e527 84bf 238c bd90 8d8d b93f
00000140: 79e4 d658 de48 863f 73fe 8ea7 68f0 a5bf
00000150: 8ca5 b253 8aed 7fbf dfd0 a82f a1a5 93bf
00000160: 46c8 146c 925d 883f f8c8 4530 02ab a43f
00000170: c594 ee7a 69a9 cfbf 097a b5f0 4b39 c8bf
00000180: 3ca9 f6fa 3be6 bb3f aed7 f040 e6e9 c63f
00000190: c837 25b3 fdba bd3f 5ddb d494 b6a4 ac3f
000001a0: dab9 c65d aecf bc3f e79b 701b 4a31 7f3f
000001b0: 823d 97dd fca1 ae3f 03f7 2ce1 3c6c c5bf
000001c0: 3dea 18d2 d35a 863f 2873 b39e 213a b43f
000001d0: 8116 b3c6 0242 8a3f d393 255a e0b8 9ebf
000001e0: 2d46 2126 a210 c2bf 6279 fe93 c504 96bf
000001f0: ced5 4071 da8a bdbf c71f 91f7 1a86 bcbf
00000200: 2682 ea25 bf67 c3bf 485a 2b6e e03c c7bf
00000210: 8090 75f2 4eaf b3bf 5b28 f8f9 3f96 c23f
00000220: c28c b79c 3215 a6bf 488a 4358 2db0 8e3f
00000230: 6de4 a6d2 1fa0 c4bf 45a7 8b37 6d88 be3f
00000240: 9140 4eb4 3171 bb3f 23fd 1d38 4a47 b03f
00000250: 48a7 4f21 aa06 b5bf 320b b38c 1211 b43f
00000260: 3773 6174 c665 bdbf 0990 cc54 3d70 af3f
00000270: f00c d26c 7a88 ccbf 7f47 cc16 94f0 bbbf
00000280: 0524 7de3 c312 a0bf 838f 6758 75f5 83bf
00000290: cfb3 7fbf 61c4 cbbf 6233 7fb2 22f4 45bf
000002a0: 8269 400c 54b2 a23f 7803 7c2f fd5d 72bf
000002b0: 2215 a051 6d4d 943f 2507 601d c1aa a03f
000002c0: cbff 3ba9 e444 92bf d0fd 6006 e774 b3bf
000002d0: 7893 1de8 9044 a6bf 3be3 0ae1 32a3 983f
000002e0: e0df 4ffc e6b3 b9bf f4a0 7442 048a bb3f
000002f0: 3d50 40fd f139 a7bf cca7 0f6e 160c 69bf
00000300: 22b2 eaad 20aa b93f f226 f6f5 ae5b b73f
00000310: 3d36 64c7 52da af3f dad2 eedd 87df b93f
00000320: 5b36 abd6 40c6 c7bf 59ec f642 e23b ae3f
00000330: 818e eb46 ea61 8a3f 66ce 1b52 b626 c2bf
00000340: 67bc 2507 f2c7 b0bf 04d6 09c8 cd88 94bf
00000350: dd8b 379b 2141 c2bf ae3c b81f dfee c93f
00000360: 79d7 ce60 cfa6 c93f fa1e c4e2 ec46 abbf
00000370: 6470 fbba 9099 933f 4066 b17b 13f9 a83f
00000380: 61d3 a4d9 3fd5 b83f 4593 02f6 a63f c4bf
00000390: 4691 8bc3 615e a03f e413 db53 80d9 d4bf
000003a0: fd2b 534a d9de cd3f 7f4a 8148 ec91 a93f
000003b0: 7f6e 2b4b 0a9e 7dbf b31b 7710 adac a0bf
000003c0: f232 bc24 da8c 68bf f34e 068b 948c c1bf
000003d0: 3649 4a98 5970 bfbf a18c f2cd 9a20 b1bf
000003e0: ba3c 32a3 08af c3bf 83e5 fcb3 1833 b7bf
000003f0: a252 9f47 c640 943f 02e5 98fd 73bd bbbf
00000400: 9959 bbc2 a35c cb3f 76e9 4b0b c112 b6bf
00000410: 1043 e8f0 2686 9cbf cdae 6dc5 0b84 cabf
00000420: be33 e4eb 58a5 b33f 2f01 90f6 1f07 7f3f
00000430: ac15 1baa 7842 cfbf c997 4437 713b af3f
00000440: b51f af60 7230 cdbf 449b a2c5 2110 c1bf
00000450: 931e 63a9 0cfc a83f 9c20 308e f3a8 93bf
00000460: d00c 9467 abb9 a13f eb8c 361f 57ea bebf
00000470: 0d58 7867 dd72 c4bf ec41 64e8 1610 aebf
00000480: 1294 f3bd 59c5 b63f 9fbe 32aa 506b af3f
00000490: a9b6 740a 0a8b bcbf b930 0266 432e b9bf
000004a0: aa43 1c0b 4768 abbf cc54 6698 4e7e 9b3f
000004b0: efe4 b512 3dc1 a33f 8012 76ef 91f7 a4bf
000004c0: 0fa7 2eba f15b b63f 0d1c 7ba5 8351 cb3f
000004d0: 888a 56f2 28b6 583f 4a7b 584b 7132 bd3f
000004e0: fc88 a412 b3cf a83f 3c2c d2f9 b972 9cbf
000004f0: 233f 52a4 1789 bc3f 8ef8 541b e29b cc3f
00000500: d735 8f7c 488c b63f 466d 64f2 7e18 a33f
00000510: 6e0b 7e88 c035 7e3f cffe 91ea f910 8fbf
00000520: a6e8 246c 4ad8 86bf 181c bf4b b8d7 ac3f
00000530: 4459 c5aa 02f4 c23f 0f88 9125 fec7 b03f
00000540: bfe4 0ecc 350f 963f 25d0 6c73 fd3e b73f
00000550: de84 1c6c 2de9 c23f cf82 9321 c8db bdbf
00000560: 5829 dba3 cf2d d03f 5648 9d96 5b9a bc3f
00000570: ff6b 394b 8695 c1bf 2303 4f3e e4a9 bfbf
00000580: c6b2 1358 c551 b73f 6c2f 60f5 a4df d03f
00000590: 900c afb3 fe7b 9f3f d825 25ca 6784 c6bf
000005a0: 0ae8 1d2e 32ae c3bf 1ddd ff18 2d21 c03f
000005b0: a762 8731 6ae7 b7bf 9756 c0fa e84c c8bf
000005c0: 4763 1937 b65f b0bf 2862 faad e14a c23f
000005d0: 5469 7def e2a0 613f cc41 ac61 8574 93bf
000005e0: 0d63 3a74 dfe2 c5bf 30dc 6592 45af b5bf
000005f0: 367e 3e46 f248 d03f 753f d5f8 40c1 bcbf
00000600: e227 2b98 29db a7bf 11af bc11 6471 ccbf
00000610: f014 c718 1ae1 c13f 2e1b 8d39 f02d c43f
00000620: 6d78 1650 afd5 a3bf 9537 b212 43d4 ad3f
00000630: e925 5420 ec0e c03f 0894 6f66 45ee bd3f
00000640: 9110 8ab3 c0da cd3f fe81 c003 753b c3bf
00000650: 392d b01a e15d c3bf 750d 90ad 1a82 a9bf
00000660: 5dfc bcd6 0cd3 b9bf c98f ee33 5697 97bf
00000670: 20e5 a023 a8cd b2bf b83e f1d5 bc32 88bf
00000680: 4d8d 3d0a 2504 b2bf f8f4 b798 347b a1bf
00000690: 6583 4e31 af81 c3bf 8b12 7b2f b527 cf3f
000006a0: b70e 2c40 286f b63f 150a 6840 5635 d53f
000006b0: 9b1b 6c0e 0f25 78bf a066 1dc1 d613 823f
000006c0: 13b9 32b1 80c9 c1bf ce17 0c87 2a08 87bf
000006d0: 29a5 1459 8a44 bcbf d1ac 08ed 586f d2bf
000006e0: be64 ce89 6053 d2bf 2446 7dd2 77ea 853f
000006f0: cc9f 1b0a d174 83bf 2142 c659 40fa c33f
00000700: 06f1 3a0f 25d3 ae3f bf62 a35b 3e8f ab3f
00000710: b35d d435 92f8 8b3f 1591 c5ed 690e abbf
00000720: 5468 20fa dbee 7c3f f31d de5a 36d0 c23f
00000730: 7ae3 2867 939a bf3f 9b45 1b8d 073c bb3f
00000740: 1b64 a238 2fef c33f e6cb 0fb6 3975 bebf
00000750: 1ac0 2c57 5b67 9b3f 0826 7636 d591 d03f
00000760: 184d 6500 45f1 bbbf 8b74 27a5 3216 b8bf
00000770: a0ee 28ff a9df b3bf b3de dd65 f51d aebf
00000780: b027 bbfb 6b95 aabf a07d ab1a b426 a93f
00000790: 6293 5e38 318e b33f 6119 b348 f897 b3bf
000007a0: 22a8 da19 389c 80bf 2515 13b5 fd75 b1bf
000007b0: 7070 6740 f8de b0bf 16d8 aead 7e74 c0bf
000007c0: 53ed 5969 aede aabf 8fa1 4e84 d195 9a3f
000007d0: a1e2 1e60 6555 ca3f c0a3 af34 c3a4 c5bf
000007e0: 6065 6afc 6564 a83f ae32 96c4 d6c4 bebf
000007f0: 8700 ef05 d17f b43f 03a1 ee31 59d7 62bf
-0.13049167319958696 -0.1502471482343295 -0.029325658407484297 -0.09344260173200444 -0.17462727841402526 -0.07465464467598279 0.23165514919378002 0.0991764898426491
-0.030154692656741058 -0.0042158218863705505 -0.07936603813261493 -0.14910868098482197 -0.15977933811118847 0.13814370730269918 -0.0892042128420068 0.040356028183612336
0.10079887386536761 0.044960745243525266 -0.0021787623197332172 0.02158431056195007 0.002084253024460512 -0.06558218857059767 0.1888867394717336 -0.09746901093216488
-0.01841279018863105 0.01077535974985142 -0.23579273145338023 -0.019892257422722454 -0.024324979459601076 -0.05959221474637144 -0.11147603705819131 0.056725178456523126
0.1672632685187896 -0.19588611821865795 -0.01169166812519053 -0.2251951976223245 -0.011639340508641039 0.04776310246827923 -0.009841718921927419 0.09981617721273088
0.010881173216022543 -0.04284979863541318 -0.00779489549601332 -0.01918651440992469 0.011897224353195079 0.04036719168915853 -0.24735754492318143 -0.18924855473865446
0.1089818465904146 0.17901304408013402 0.11613450645128787 0.0559441620520633 0.1125439623781185 0.007615365487288784 0.05982961850133518 -0.16736565585045335
0.010915427064095979 0.07901201366935295 0.012821218193845187 -0.030002122404216024 -0.14113261091056142 -0.021502577932204565 -0.11539998307201602 -0.11142128509629777
-0.1516035971772151 -0.181545308869959 -0.07689374370016999 0.14521026330504835 -0.04313047564553464 0.014984468704317369 -0.1611366060804217 0.11926920515147994
0.10719595577234232 0.06358779783294159 -0.08213294327984244 0.0783855050567979 -0.114834216511963 0.061403195001077 -0.22291498483182393 -0.10913968617049184
-0.03139316703761356 -0.009745518455879459 -0.21693059778718157 -0.0006699723644430884 0.03651678704791818 -0.004484166150860662 0.019826610667242346 0.032552752338246095
-0.01784093172955163 -0.07600253968939019 -0.04349186738435312 0.02406005381155583 -0.10040134105645349 0.10757471678209979 -0.04536396233029947 -0.003057521637392013
0.10025219198241378 0.09124272828026017 0.062212550010468416 0.10106705826076326 -0.18573770982623014 0.059050627397902296 0.012882070817290316 -0.14180640229425306
-0.0655509250116083 -0.02005311520993837 -0.14261264876321791 0.20260228203594494 0.20040313937141344 -0.053275492364319235 0.019140492832648084 0.048775299882163115
0.09700392783709112 -0.1581925107213015 0.0319700766756648 -0.3257752245811487 0.23336330536980646 0.04994142899581266 -0.007230797013757616 -0.03256741357795736
-0.0029968510260743814 -0.13710266865074736 -0.12280807464620555 -0.06690375831617469 -0.1537791058403622 -0.09062342066035538 0.019778345223886114 -0.10835957471217131
0.21376463898077416 -0.08622366452974525 -0.02785549970036799 -0.20715472354947054 0.07674175032680261 0.007575154167170957 -0.24421604448268164 0.061000383373808705
-0.2280409786310408 -0.1333048071876083 0.04879798476900734 -0.019199185899225854 0.03461967124351306 -0.12076324951208377 -0.15975539734125768 -0.05871650301753903
0.08894883048522242 0.061365624214315455 -0.11149657016059202 -0.09836217155879269 -0.05352994928956119 0.02684901051687376 0.03858366826438863 -0.04095130966291993
0.08734045787300836 0.21342511730310357 0.0015082740659201638 0.11405094232075644 0.04845962145397384 -0.02778139674459744 0.11146686326742077 0.22350717863622943
0.08807805100442266 0.037296263779547575 0.007375480730732116 -0.01516909834958771 -0.011154729295061405 0.05633331226959387 0.14807160700247313 0.06555164735030437
0.021542397098276874 0.0908049017714921 0.1477410104644496 -0.11663485355121427 0.2527960872800086 0.11173031260594377 -0.1373756282144711 -0.12368608971793242
0.09109147453609542 0.2636501690146733 0.030746440617587967 -0.17591569300047527 -0.15375354053304618 0.12601245613743908 -0.0933748598976175 -0.18984710925785883
-0.0639604458350621 0.14291020388624642 0.0021519119581345034 -0.018999179922561102 -0.17098611045073434 -0.0847056848923422 0.25445229396607105 -0.11232381892227557
-0.046593952012315545 -0.2222104155165359 0.13968206605765188 0.1576519280444812 -0.038739660765018204 0.05826005557274453 0.12545539454030966 0.11691697836756998
0.23323830381935243 -0.15025198634340592 -0.15130246928343086 -0.04982074135480278 -0.10087661974556413 -0.023038241309805394 -0.07345057363354046 -0.011815524367335115
-0.0703757429123943 -0.034143108026890745 -0.15239515216401425 0.24339928453823165 0.08763362471295975 0.3313804272621906 -0.00589471703893354 0.00882690216865295
-0.13896187450649986 -0.011246044393839496 -0.11042084383793295 -0.2880461039337208 -0.28633893449439174 0.010701118575215558 -0.00950015365692982 0.1560745657302656
0.06020465670505541 0.0538272368300503 0.013657705562350885 -0.05284434344756243 0.007063731465701013 0.14697913586518005 0.12345238941715123 0.10638472743018783
0.15573683038090355 -0.11897621817460866 0.026761462398269577 0.2589009315348396 -0.10915023097668486 -0.09408871204455431 -0.07763159255494623 -0.0588223158692335
-0.051921247939005766 0.049123409515000604 0.07638843179900115 -0.07653762602703786 -0.008110464371686336 -0.0682066504551427 -0.0659022481190179 -0.12855514031042564
-0.05248017345453584 0.02596213693655752 0.2057310790385332 -0.169090653157836 0.047640978872730555 -0.12019102382164235 0.08007532496321988 -0.0022999517527361193
