4_layer_final/weight3.npy (npy, 262272 bytes, 1 tensors)

array f8 [256, 128]
00000000: 0b51 d889 3f66 be3f cb50 e557 e960 c33f
00000010: e35c 9d69 d03c a43f f9ca 6bc3 2f77 b13f
00000020: cf12 b8c6 cd07 853f fa52 c686 b184 babf
00000030: d642 73a5 d00a a8bf df39 d382 04b2 be3f
00000040: e686 8ddf 9d1c a8bf f0b3 096b d9cb c5bf
00000050: eaca cfc1 fe4a b13f 4172 c021 9ec3 b73f
00000060: b883 47c1 9c2d b33f a6df 40fc 0d19 babf
00000070: 76c7 120f 4938 b93f 4ff2 1b54 d0fd c63f
00000080: 6834 5a2f f8e8 a83f 14d4 72a7 126d a6bf
00000090: c495 6a4b deb8 aebf b18f 8e57 f596 b53f
000000a0: ab22 dfed a690 a23f 1e9d 78bc af3f be3f
000000b0: af79 191f dfb4 a9bf daa8 d5fb c83f bbbf
000000c0: d927 63e1 9093 b13f 22a1 f02a 5984 a83f
000000d0: 2185 f302 455d bf3f 8bd4 fdbd 0f67 c73f
000000e0: 9b4c e5e0 2efe bb3f 766b 4673 f7e0 a63f
000000f0: 5515 7cd9 309a bcbf 7397 3678 3467 a83f
00000100: eb0a 0b3c 302f a7bf e1cb 7eb4 5cd1 bd3f
00000110: fbfd 68ae 977d 9c3f 9a08 5f3b 946b b93f
00000120: 642c 5d4c 98ba b7bf 084d b916 ad0d aebf
00000130: 2a1d 3240 8e31 b23f d262 bf51 8ed9 b5bf
00000140: 6a76 1543 b0e2 9c3f e8f3 d8a3 6b31 7fbf
00000150: d034 54e8 d0a5 b3bf 6161 f09a b000 bfbf
00000160: a870 f6cf 7ff5 c1bf 6f18 a697 a1eb b1bf
00000170: 44d0 5653 22ad b63f 47f2 dfde 5247 be3f
00000180: af87 cad0 8846 bfbf 3c88 5cb7 e072 85bf
00000190: 5ed6 4553 7f27 afbf ab9c bd3b 3976 babf
000001a0: 0cf2 5af9 7634 83bf 4344 1a66 ba47 97bf
000001b0: e2e5 dcf5 e3a4 bbbf 1f08 db59 44e3 84bf
000001c0: 76ee d156 bbf4 bb3f 1d9d ae5c da67 6abf
000001d0: 1db4 ba91 249d 823f d76d 999d dd98 b6bf
000001e0: c79d 8194 536b b53f 6f82 4115 e8fd bfbf
000001f0: 18e0 4c85 2611 a33f 0d4c 0aa3 929f babf
00000200: d2ce be7b 9878 b2bf a3b6 9a0f fc29 a3bf
00000210: 3b64 7a3f fc3f c3bf f1c2 cad0 03c2 b23f
00000220: bf1c 419e 70dc c1bf f975 e993 4b74 babf
00000230: 5caf 94a8 49c9 b0bf 7fc7 5b8a 594f 93bf
00000240: 5397 b70c 08a9 b2bf 76a9 ae3d fcc2 a33f
00000250: 2e8b aa15 7df9 9fbf ada4 46ca aa20 b2bf
00000260: 83f4 e1b5 8dd7 c0bf 67bc c5d5 3dfc bdbf
00000270: 4b3b 1d69 04a1 b6bf f703 4828 e26e 7ebf
00000280: 0a7f 4233 51de a0bf e8fc 52c0 adfb c13f
00000290: a755 8428 f2a6 abbf 2e9b 3faa 1c47 aa3f
000002a0: 49e9 aa75 32b9 bd3f cd18 8bf7 c73c a5bf
000002b0: 0cad a8ee 3f2a acbf 29ba 6832 91f1 903f
000002c0: d4c7 f4a5 ee08 7dbf 3fe0 c2ee b753 a03f
000002d0: 2502 2ca4 e6b6 aebf 7a18 8a6d 3c3d ab3f
000002e0: 43a6 90c3 a00f ab3f adb3 c52c 615e aa3f
000002f0: b891 07db ac84 8dbf c09c 3ecd 77b5 a43f
00000300: fe1e d730 9121 903f bd1c 0b25 8e49 9a3f
00000310: 00da c94e 912a 9abf 94e4 b195 e6c0 a5bf
00000320: ae4f cdd6 f5ab b3bf 2d1f b602 fed4 c83f
00000330: ad7b 54f4 5ee3 9f3f 5d7d 543e 4e05 a93f
00000340: e4ca 42c3 7281 a43f d181 a80c 83e7 b53f
00000350: e7a1 4dde dd2a 9ebf f480 36be 0da8 b0bf
00000360: 68ca 9d31 758e b6bf 3457 569f 6d89 ba3f
00000370: 0396 0b9a 63f2 a73f 2d82 ca6d 08c7 aabf
00000380: 633c 5585 ef08 9a3f a8f8 02fb 7c1b 9dbf
00000390: 7d58 542a 130a b3bf 86c9 a89e db0f 93bf
000003a0: bc42 f8cb 6f96 a43f 45c6 748c 36df c5bf
000003b0: 7eea 5ee5 6452 9e3f 8b27 5b36 d9af b7bf
000003c0: 4567 8374 7a4a bbbf be1d 726f f6d0 c23f
000003d0: f8a9 a688 7c82 93bf 2325 e404 1150 bdbf
000003e0: e651 04bf 6ed1 9d3f 9a6c 3ef0 da50 b53f
000003f0: 9789 ca97 6364 b5bf 1823 02cd 862f b53f
00000400: 643f badf e87f b3bf 5741 bad6 1194 883f
00000410: db34 a694 2b33 b23f 4ec1 e762 5f09 abbf
00000420: 7e6e 5d5f 29da b63f 6418 db5a f729 883f
00000430: 16e0 c0d2 a360 a4bf 48b8 9ab0 f2d1 b33f
00000440: 2d4e 6dd4 81ed b5bf 62fe d5bb 6b9a c03f
00000450: aa8d 4caf 885e a23f 991a 633b 6c79 c6bf
00000460: 076f b23c c788 c4bf be0a 5a48 516b 993f
00000470: 78a9 e774 da4c 593f 10b4 f8ed 23b7 813f
00000480: 92ff 555b b59f b5bf 0139 d3ca 098a babf
00000490: 5753 b518 fbd1 973f d539 4327 f56a 7fbf
000004a0: a6fc 10bc 6266 b5bf 46e2 ae9d 46d4 c03f
000004b0: 7e61 06ec a0c5 be3f 05a9 c2c7 074b c13f
000004c0: de26 4182 05a3 ab3f bbac 04f6 5ade 8f3f
000004d0: e219 d18b 0c7f a03f 7320 103e 8ea3 aa3f
000004e0: a1b0 92f2 4256 a7bf 32ab 7698 c646 b33f
000004f0: a340 24e5 24b8 b4bf 884d 5f69 83de c93f
00000500: f941 39ca 2eb1 adbf d173 ba82 571f b43f
00000510: 125c 358d fb07 c03f 66c6 ad93 d0b5 b3bf
00000520: 2d18 b35f 0b55 b0bf 2ea0 e922 9f24 c03f
00000530: c863 aa25 9a3b c1bf e56b f25b 5c20 a53f
00000540: 5e3a 0218 2d9b 9cbf f09a 3592 e236 90bf
00000550: c77c fc18 aeb7 8bbf 956c 80d1 8796 c2bf
00000560: 0c99 9c8c 6be2 52bf c626 4ad4 b307 a93f
00000570: d11d 0cf2 01e0 b6bf ddfb 41ae ff69 883f
00000580: 138d 7743 3997 c3bf 910e c3c8 674c 9a3f
00000590: d2e4 06e8 6433 b83f c8df e200 40c9 b4bf
000005a0: eea6 e98c 56a3 6abf 4dd5 9798 1aee ab3f
000005b0: e58b 7d00 7edb aa3f 7254 c74f 738f c2bf
000005c0: d1da 926d aaab a13f cf6a 0c74 493b c0bf
000005d0: a165 c552 3a7f 83bf 4efa d403 5b02 9dbf
000005e0: 9a91 79e3 5764 c03f 4085 39e7 2d7b c03f
000005f0: 36e0 3a80 938c b63f 3065 e497 f417 b4bf
00000600: b4cf d0c5 b114 7f3f 62e6 5e8b dce1 833f
00000610: e525 b23f 1afc ac3f 1edf f335 896a 93bf
00000620: b0c7 0217 ed95 b33f 5b85 fd2c dfb0 be3f
00000630: d4d8 dcf4 30eb a13f edb8 3343 9229 afbf
00000640: fe18 3c0f 1369 783f f47c efca 3c0c afbf
00000650: 31ee e2fb 03a2 a0bf 04e1 95b9 c1ed c1bf
00000660: a468 8d1e 897e 793f a583 9875 3b35 853f
00000670: cc18 62c9 625c b6bf 6326 7ed9 6d93 c13f
00000680: 4a51 2a01 08ac 8fbf df77 62d7 5f5a b23f
00000690: 7267 c717 ef59 b6bf 6615 153a 198e 4ebf
000006a0: 3ab2 e08d 21f1 81bf 244b a2f4 a4d5 8d3f
000006b0: fcf8 0cbe cef5 c33f 8497 8d6d d7bd aa3f
000006c0: 462b b803 adec 9bbf e0fe 60ed b3a2 a7bf
000006d0: 1e03 8efb 552b a9bf d085 edae de72 b0bf
000006e0: 7cdf 3bd4 53e1 b83f 044d 0041 84bb 9bbf
000006f0: c335 8296 8173 593f c02e 2991 2d06 aabf
00000700: 54a4 4915 d2b0 843f c047 ede7 45aa b7bf
00000710: 7ba4 e07f bf74 b8bf bbed a5c9 600d 86bf
00000720: 4031 fd39 b73c a33f 4af1 c52a 3c80 cbbf
00000730: 0bb4 60d6 4fa6 c93f a5b2 9b4e 819b a43f
00000740: f6a3 4425 ed22 afbf fa04 9494 544d 983f
00000750: f2b5 927a befa a83f c185 99a1 7a73 9abf
00000760: 8af3 3816 f97e aabf 84ce 0afc 033a 913f
00000770: edb5 0871 3fb9 a03f 08ae de1a 06fc a43f
00000780: ae21 b175 ecc5 b3bf c1e8 bcf5 dfad c7bf
00000790: 75a7 f296 c2a3 8e3f 4e07 7835 f5d9 b6bf
000007a0: 1651 6ed6 62f7 ab3f 1eed 368b adcf b5bf
000007b0: e9c8 b2fb dd5b c03f 1732 e88f a197 b9bf
000007c0: 4971 4ad0 c6ae c93f 00ed 6c5a f09d 9b3f
000007d0: 3ce0 bbc2 a409 b63f 680f 1df2 6147 a9bf
000007e0: 7171 762d 98a8 9f3f 5cf4 066a 36b4 b4bf
000007f0: a359 8721 808e 8b3f f7b0 674d be8d 87bf
0.11874768367153281 0.15139500419411997 0.039526474850100767 0.06822489281675449 0.010268790842937218 -0.10358724155805624 -0.04695751208931191 0.11990383333179676
-0.04709332803646564 -0.1702834866186147 0.06755058509569847 0.09282863925950215 0.07491473883375377 -0.101944803319269 0.09851509683610779 0.17962078196423412
0.04865241601974263 -0.0438009099392859 -0.06000418348893846 0.08433469188326971 0.03625985768991787 0.11815927840563176 -0.05020806555397727 -0.10644203327470639
0.06865792753811152 0.047884737483686615 0.12251693079044347 0.1828326871579161 0.10934727659814529 0.044685108968414974 -0.11172776517567702 0.047662391352146914
-0.045281894044384284 0.11647586256621835 0.027822847385548837 0.09929777574055479 -0.09269096245150049 -0.058698090576081496 0.07106865947036015 -0.08535089011946731
0.02820849809119467 -0.0076154904068603604 -0.07674890205472029 -0.12110427649202428 -0.14030454306055629 -0.07000169708598646 0.08857931646963474 0.11827581349639003
-0.12217002007903831 -0.010473018260714999 -0.06084821597589206 -0.10336644848358627 -0.009377412304609777 -0.022734558564995188 -0.10798477890502725 -0.010199102394270963
0.10920306081418993 -0.0032233490832883752 0.009088788697534206 -0.08827004525794933 0.08366892219202447 -0.12496805685942446 0.037240222713478655 -0.10399738769983476
-0.0721526434052138 -0.0374296921776083 -0.15039017772213178 0.0732729325052437 -0.13953979232085165 -0.10333702431804416 -0.06557140699140745 -0.018857382840856026
-0.07289171514966357 0.03859699490506589 -0.031225161025427876 -0.07081096113565151 -0.13157817250240464 -0.11713015049984819 -0.08839442793144518 -0.0074299654265823556
-0.03294614554147131 0.1404931248743886 -0.054008071370996995 0.051323791296275054 0.11610713360542947 -0.04147934815186858 -0.05500983990017447 0.016546505643583984
-0.007088596553602462 0.03188872136655662 -0.05998917345096214 0.053201568957818204 0.052853607056317496 0.05150130912338766 -0.014413214143993311 0.04044699078013414
0.015753048521019324 0.02567121602149024 -0.02555300753962264 -0.04248734071092844 -0.0768426560801447 0.19400000698464606 0.031140788710327594 0.04886860380997391
0.040050112090644935 0.08556384142912711 -0.029460398381532384 -0.06506429571027522 -0.08811123334252502 0.10365948810644171 0.04677115683970714 -0.052299750711658134
0.025424711716649628 -0.0284251716809584 -0.0743724802344747 -0.018615180548474018 0.04021024098267875 -0.17087442262850253 0.02961118364303638 -0.09252698494961302
-0.10660519928515295 0.1470020336312085 -0.019052453842656164 -0.11450296754278048 0.029119234474892418 0.08326500287369001 -0.0835630651077167 0.08275644784056302
-0.07617049657915015 0.012001170506920884 0.071093295852012 -0.052805882285499636 0.08926638200994749 0.011798794231605743 -0.039799804188476326 0.07742230235700831
-0.08565532146649764 0.1297125498931449 0.03587748660927599 -0.17558052921068137 -0.16042414153786685 0.024823446312903334 0.0015442021718806414 0.008650093746007698
-0.08446820716744544 -0.1036687965563239 0.0232619508581878 -0.00767036212000823 -0.0835935315271735 0.1314781446397026 0.1202030731423118 0.13510224584508293
0.053978130483825146 0.015560827858811846 0.03221930701015531 0.052029080463456355 -0.04557999812217984 0.07529870245222695 -0.08093481630590076 0.2021030678284712
-0.05799242228079388 0.07860323850259411 0.1252436103338544 -0.07699302297057783 -0.06379767500320162 0.12611760334698502 -0.13463141287937064 0.04126251814269447
-0.027935700025916048 -0.01583436982528047 -0.013533935678024979 -0.14521882752965057 -0.0011526155744348591 0.048886890091194554 -0.0893555847106804 0.011920926576065522
-0.15305248064314778 0.025682088497673453 0.09453421272964427 -0.08119583150516896 -0.0032517137945448004 0.054550963522994246 0.05245584255205652 -0.14500275988999395
0.03451283061570155 -0.12680929342680833 -0.009520011568997346 -0.028329298123248407 0.12806223494693542 0.12875913419979135 0.08808252220740162 -0.07849053104691417
0.007588095116307803 0.009708140376335442 0.0566108896974347 -0.018961090009695807 0.0765064412287575 0.11988634918590917 0.034997491732086466 -0.060864039138197025
0.00595958180543321 -0.06064023949851985 -0.032486080644471456 -0.1400682598284747 0.006224189398233691 0.010355438734281306 -0.08734719673711594 0.1373116790749008
-0.015464842353403303 0.0716915036050234 -0.08730978327312558 -0.0009324668100495869 -0.008760702268852606 0.014567650523792226 0.15593895225351406 0.052229625819378206
-0.02727003417207221 -0.046163199164309665 -0.049158751447072144 -0.06425277491282277 0.09718822413912948 -0.027082506625515826 0.0015534177310060216 -0.0508283843706443
0.010102883600852909 -0.09244191086079834 -0.09553143379220501 -0.01076770415669769 0.03757259924768386 -0.2148509224752025 0.20038793533004226 0.04024890980313004
-0.060813341903049364 0.023732492035382947 0.04878802534345174 -0.0258311425335529 -0.05174997707624758 0.01682287431567754 0.032663328693484185 0.04098528936387075
-0.07723882554376502 -0.18499373911783404 0.01496078513294539 -0.0892632728137219 0.05462178103985786 -0.08520016335289823 0.1278035620685565 -0.0999699570022091
0.20064625902603897 0.026969676512845986 0.08608464960332268 -0.04937273102271328 0.030916574263402056 -0.0808748253684412 0.013455391905989716 -0.011500822770323256
